model/ANN_SimpleLSTM_Acc_90.1.onnx (onnx, 332184 bytes, 5 tensors)

fc.weight f4 [10, 128]
00000000: 36f9 513e aa74 523e 2bbd 60be 619b ee3d
00000010: dcc4 8e3b 6c4a 33be 7b26 d4bd f4a2 213e
00000020: 9eef 04be 3c00 463d f311 10bd 1d3e c73d
00000030: 8b5f 64bd 4aa7 b03d b04a aebe 922e 36bd
00000040: 942c bebd f726 5abd dd4d bd3c 53b2 5d3b
00000050: 6fc3 c1bc 1985 2b3e 56ba 28be 0899 b3be
00000060: 2b08 bebe fc0a e6be e9c5 803e 931d 303d
00000070: ff9a afbd bb10 2e3d a6b7 5dba 6a82 d43d
00000080: b4bd 573d 8c5a 403d 0a00 713e 082b 863d
00000090: 197f 81bc fed6 b4bd e99e 253f 2377 10be
000000a0: 1ad5 cdbd adcc c83d 2fc6 ae3d ae8c ccbd
000000b0: 7fd2 0e3d 6032 cebd 98e5 c33d fb4f ae3d
000000c0: a4c4 883d 0a3d 703c 7c16 85bd e63b ee3d
000000d0: 28d9 aa3b 5638 ebbd 8a49 0bbd 8acb ecbd
000000e0: 79ac d73d b785 f83b fcad 8d3e a02a 7f39
000000f0: 377f 99be afeb 003d eae3 b1bc a75b acbd
00000100: c0aa 213d 671f 67bd 097f 10be 482c c0bd
00000110: 6f8d 8abd 8f16 c53c aca7 9ebd d6ec 903d
00000120: c9b4 2e3e 80f6 b0be 104a 9ebe 5d10 873e
00000130: aaf2 5d3c 71fe fabd 9ae1 6bbc 6f92 c0bd
00000140: ba97 edbb 4163 533e 26b0 fe3d 34aa bd3d
00000150: 8cb5 5a3e 2ef3 8f3d c6cd fabd bb5c 193d
00000160: 8cad b83e 7844 7d3d bffe bb3c 2494 03bd
00000170: c59e ae3c ced2 b73d 8db5 4cbe 552e a63d
00000180: dbd4 1cbe c5d6 da3d 0742 1ebb a2d9 d33d
00000190: ad5a 433e c456 973c 5dff 283d 9090 babd
000001a0: 783b c0bd e157 383e 7272 65be 9687 583e
000001b0: 07fc 93be a0e7 933d 3345 eabd 0ec8 26bd
000001c0: 19f7 643e afab 81be 836f 20be 9a4c 68bd
000001d0: e9bd 10be be77 bebc 0c35 013e 614e ab3c
000001e0: 51f1 0e3e a038 5ebe 30fa f3be 27da 6a3e
000001f0: 2cc2 bcbd 5293 273e 7ae4 da3d f0bc 9dba
00000200: 56d3 f9bd a813 5ebe ed6a a0bb d012 4f3d
00000210: d288 0a3d 785a 14be 354f 66bd 8837 373d
00000220: acfa 67bb dcf4 2b3d fe16 d0bd df25 97bd
00000230: 96d4 8a3d 4d2b 9fbc cfa3 df3e ef81 a0bd
00000240: 3e10 6a3d 3069 fc3c c625 983c 99c0 0dbe
00000250: cb20 aebb b660 ff3c 6066 2d3d ed1f 863d
00000260: 2740 b33e fff5 073f aef2 0c3d 8bbd 0f3d
00000270: e184 273e 0408 88bd 3331 cabd 3ea0 85bd
00000280: 1c56 2c3e d27a 973d ea10 95be 2389 21bd
00000290: d08e f43c 66f7 8bbd 959d 25be bf71 6a3c
000002a0: d44f 6f3e cb60 56bd 5c09 8ebe 0cda 2b3e
000002b0: afbc f1bb d1bb 22bd b109 a7be e90c 9bbd
000002c0: f9cc d3bd a492 b23d 77ad 3cbc ca5f 853c
000002d0: c0df 88bd 3c3b f63d 20b9 33bd fd7e b93d
000002e0: f483 a4bc 6c9a 3b3d c169 f0bd eea8 d43d
000002f0: 1853 ac3e fa13 e7bd 4611 923d 165f 513e
00000300: aef7 98ba 98b9 513a 466d babd dd3d 7ebd
00000310: f663 8c3d 38f6 75bd dd93 f5bd 26dc 053b
00000320: 063c f13c e4ad 5b3e 6ef9 b53d d00a 03bc
00000330: de76 683e 63ef 463c 6795 bd3a aeea adbc
00000340: 0b62 913d 52e7 10bd 2e3f f63d 28c6 32be
00000350: cec4 283d 509d 903d b0f1 033e 5ad0 81bc
00000360: b81f 90be d8c7 fcbd 3516 c4bc f921 413e
00000370: e56c 45be 58d8 483e a8c8 393e 9958 b33d
00000380: addc b23d 48b8 2abe c065 fabb 4bc1 0d3d
00000390: 172b a3bd 7ee5 94bd adc9 67bd 4c02 01be
000003a0: c085 c33c dd76 29be 41c4 f53c 905b b53e
000003b0: 6306 d33b 470e 223e 4de6 a2bc 69af 07bd
000003c0: 0c00 06bd 08a3 1f39 a087 2fbd 2bc8 803e
000003d0: 9861 80be 8fd3 e0bd ff2d 4ebd a5a9 21be
000003e0: ac96 3fbd bee2 ab3d 5ff3 f1bd b15c babe
000003f0: b430 0ebb d061 42be fc1d 14be bdb7 733d
0.20505223 0.20552316 -0.21947162 0.1165073 0.0043569636 -0.17508858 -0.10358902 0.15784818
-0.12982032 0.048340067 -0.035173368 0.09728644 -0.05575518 0.08625658 -0.34041357 -0.044478007
-0.09285846 -0.053259816 0.023108417 0.0033828213 -0.02365276 0.16749991 -0.16477332 -0.3507769
-0.37115607 -0.44930255 0.25150993 0.042996954 -0.08574485 0.042496424 -0.00084578467 0.10376437
0.05267115 0.046961352 0.23535171 0.06551176 -0.015807675 -0.08830069 0.646956 -0.14107947
-0.100504115 0.09804664 0.08533894 -0.0998777 0.034868713 -0.10068202 0.09565276 0.08511349
0.06678131 0.01466299 -0.06498429 0.116325185 0.0052138753 -0.114853546 -0.03400568 -0.115622595
0.105309434 0.0075842994 0.27671802 0.00024334574 -0.2997987 0.031474765 -0.021715123 -0.08415919
0.03946948 -0.056426432 -0.1411096 -0.09383446 -0.067652576 0.024058608 -0.077468246 0.07076423
0.17061152 -0.34563065 -0.3091588 0.26379672 0.013546625 -0.12255562 -0.014397049 -0.0940293
-0.007250753 0.20643331 0.124359414 0.09260979 0.21358317 0.07028805 -0.122462794 0.03744195
0.36069906 0.061832875 0.02294862 -0.0321237 0.021315942 0.08975755 -0.19991131 0.08114306
-0.15315573 0.10685495 -0.0024148242 0.103442445 0.19077559 0.01847399 0.04125916 -0.09109604
-0.09386343 0.18002273 -0.22406939 0.21145472 -0.2890322 0.07221913 -0.1143898 -0.04071813
0.22359885 -0.25326297 -0.15667538 -0.056713678 -0.14134945 -0.023250457 0.12617892 0.020911397
0.13959242 -0.21701288 -0.47651815 0.22934781 -0.09216723 0.16364792 0.1068811 -0.0012034457
-0.12198512 -0.21687186 -0.004895559 0.05055505 0.03382189 -0.14487636 -0.05622788 0.044730693
-0.0035397215 0.041981563 -0.101606354 -0.0738027 0.06778829 -0.019429827 0.43679664 -0.07837283
0.057144396 0.030811876 0.0185727 -0.13843001 -0.005313968 0.031174045 0.04233396 0.06549058
0.35009882 0.53109735 0.034411125 0.03509287 0.16359283 -0.06642154 -0.09872665 -0.065247044
0.16829723 0.07396473 -0.29114467 -0.039437424 0.029853255 -0.06834297 -0.16173394 0.014309346
0.23370296 -0.052338403 -0.27741516 0.16782397 -0.007377229 -0.039729897 -0.3262458 -0.07570822
-0.1034183 0.08719376 -0.011515967 0.016281027 -0.06683302 0.12023017 -0.04387772 0.09057424
-0.020082451 0.045801565 -0.11738921 0.10383783 0.33657146 -0.11283107 0.07132201 0.20446429
-0.0011670494 0.0008000373 -0.091028735 -0.062070716 0.068550035 -0.060049266 -0.11991093 0.0020425408
0.029447567 0.21453053 0.088854656 -0.007998183 0.22701594 0.012142035 0.0014464081 -0.021230068
0.07098778 -0.035376854 0.12023769 -0.17458403 0.041203313 0.07061255 0.12885165 -0.01584642
-0.281492 -0.12342805 -0.02393637 0.18860616 -0.19279821 0.19613779 0.1814295 0.08757133
0.08733497 -0.1667186 -0.007641524 0.034608167 -0.07967203 -0.07270335 -0.056588817 -0.12598532
0.023867488 -0.16549249 0.030000808 0.3542142 0.0064399703 0.15825759 -0.019885207 -0.03312627
-0.03271489 0.00015224156 -0.04285395 0.25152716 -0.25074458 -0.109778516 -0.050336834 -0.1578737
-0.04677455 0.08392857 -0.118139975 -0.36398843 -0.002169651 -0.18982625 -0.14464563 0.0595014

fc.bias f4 [10]
00000000: 8db2 9bbd 421d 8ebd 8e96 84bd dab9 053e
00000010: d0f2 02be b9fa 0e3e f278 92be 8799 793e
00000020: cc58 f03d 38e1 183e
-0.07602415 -0.06939174 -0.064740285 0.13059178 -0.12787938 0.1396283 -0.286079 0.24374972
0.11735687 0.14929664

onnx::LSTM_119 f4 [1, 512, 28]
00000000: 4388 2d3d ca0a acba 7a3b 2b3c f44b 07be
00000010: 1805 07bc 41ca 13bd 4c00 c3bb fc0e a0bd
00000020: 50c0 fd3c 11bd aabd 86d7 083d ff03 283d
00000030: 715e 7fbd baff 3ebd f05f 1dbd 4f53 203c
00000040: 5efb 12bd d7d1 89bd b09a e2bd db4a 59bd
00000050: 61df cdbd 4def 5e3d 53f2 0fbc 2a7f f1bd
00000060: e7b5 4bbd 0cf6 8bbd c426 013d 193a 2bbd
00000070: 1e95 b9bd ddb3 393d 4cc7 16bd 4915 c7bc
00000080: cae8 52bd d1df 88bd cda1 70bd c212 7f3d
00000090: 92dd cbbb 284f d33b e910 b9bd 1930 70bc
000000a0: 25c4 45bd e610 cf3b 7f5d 9a3c 9a8c 80bd
000000b0: d50e 2b3c 7ad1 793d 9fbf 8fbc 65f1 dd3c
000000c0: af8c 8bbd bca9 bfbd 1ba0 8fbd 0f84 9dbd
000000d0: bcae b13c 1526 1cbd 57e3 75bd 8dc8 1f3c
000000e0: 9690 0f3d 18e6 5f3d 756f babc b8d9 33bd
000000f0: eef8 77bd 6825 8abd 657c 7bbd 4ecc 683d
00000100: 306d 793d 9556 17bc 58be 7fbc 339b 9abb
00000110: d9c1 cabc 0e2b 24bd 82e6 b63a 9826 a3bd
00000120: 4f8f 2d3d d5cc 9cbd 2366 4bbd e0cf 973d
00000130: 9ae2 54bd 6c1e c0bc e2d2 4fbd dc0d eeba
00000140: 2eda 6cbd e72e e2bd 702a d3bd 5e14 47bd
00000150: 79b8 523c 24df 8cbd a8b5 ffbc 3043 ab3b
00000160: 9107 98bd 1532 cebd a34d 0f3d cdf7 adbc
00000170: ea6d be3d ae9c 243d 7b06 d9bc 9a8a 78bd
00000180: 1a19 4d3d 63af b23d 53cf 67bd 1bb1 02bd
00000190: 11af ffbc 6485 393d 62a1 413d cfdd 54bd
000001a0: e06c bcbb 9328 b03d bbfc 6b3a 424e b8bd
000001b0: ea54 a0bd ac08 cbbd d8eb 9b3c 9142 d6bd
000001c0: 7eeb 853c cd2d dbbd 21c7 afbd 6c73 1cbd
000001d0: e196 acbb a91d 713d 73e6 0d3b 7bd1 e2bd
000001e0: bbec aabc fe8c b0bd f73b 63bd 19c1 13bd
000001f0: 4d70 05bd e194 dc3c cb56 803d 1cb2 aebd
00000200: de40 313d 6ac2 5f3d 9c35 69bd de7b 72bd
00000210: f28e 8c3d 175c ab3c 0ae5 c8bd b1a4 21bd
00000220: fa2c e83c 9fa0 9b3b 4d85 d1bd 0cc9 88bd
00000230: e8fb f0bd 3383 4b3d d180 22bd dbae 093d
00000240: c50a c1bd 0ad9 bebd d361 4d3d 7e98 7cbd
00000250: 1c88 bd3b 5e68 0c3d 9fb5 9e3d 0310 11bd
00000260: e444 553d 705f d73d 2921 643d 54d2 f13b
00000270: 0cf5 b73d 2fe0 09bd 184d 8dbd e191 863d
00000280: 274a 6fbd 5ecc 5d3c 2083 ad3c e1dd 6b3b
00000290: d85a 863d 0542 10bd 4c9a 9bbd 7fb5 0f3d
000002a0: 899e 653d 509c a7bc 0a8b 02bd bfe3 543d
000002b0: 388b 42bd 2630 003d 1118 6d3d d22b f53c
000002c0: 3746 143d f42f 213d 499b 00bd 899b 66bc
000002d0: 8ef7 d6bc 8c29 36bb 8900 b93d 325a 873d
000002e0: 76d6 90bd 0254 ad3d d1e2 7c3d 9c0e 0e3d
000002f0: f60b 073d d3ef e3bc 3948 523c 0e96 3e3c
00000300: bc9a 69bd 9664 883d e891 13bd 9362 90bd
00000310: b8f2 323c 8d58 bebd 28f6 a7bd 1e2f cd3b
00000320: bee5 e53c 2f99 61bd 883c 34bd 8916 913d
00000330: ca62 8bbc 2230 36bd f11f d1bb 779b febc
00000340: dbfe 483d a8b8 463d 51e8 943b cf50 c03d
00000350: 39b8 37bd a6a2 4c3d 4d3d 21bd cc10 843d
00000360: f6e0 77bd a388 733d 73c9 77bd 09c2 bbbd
00000370: 710f acbd 02e5 02be c99f a2bc 698f a2bc
00000380: 7eaf 5dbd 07cc 603c 1a27 d7bd 00e3 0f3d
00000390: f3a5 fc3c afae c7bd 5c72 9dbd 7b34 1fbd
000003a0: 41f8 4e3a 5dc3 1a3c 7cfa 9d3d 84d6 92bd
000003b0: 7f6e b8bc aa0b 373d 710b 773d 1612 51bc
000003c0: a6be 45bd 2671 2e3d 599f 3e3c 352d 15bc
000003d0: 39c6 e4bb 66c3 383d f778 afbb ae18 493d
000003e0: 3aa2 22bd 0968 51bd fef6 2dbd 59fc 773d
000003f0: d48a 11bd 8797 88bd 02c3 7bbd 631e c9bc
0.042366277 -0.0013125774 0.010451192 -0.13212568 -0.008240961 -0.036081556 -0.005950963 -0.07815358
0.03097549 -0.08336843 0.033408664 0.041019436 -0.062345926 -0.0466306 -0.03842157 0.009785487
-0.035884254 -0.06729477 -0.110646605 -0.053049903 -0.10052372 0.054427434 -0.008785802 -0.11791833
-0.049734022 -0.06834039 0.03153111 -0.041803453 -0.09061645 0.045337547 -0.036811158 -0.024302142
-0.051491536 -0.066833146 -0.058748055 0.06227375 -0.0062214816 0.006448645 -0.090364285 -0.014659905
-0.04828276 0.006319153 0.01884341 -0.062768176 0.010440548 0.060990788 -0.017547427 0.027092645
-0.06813943 -0.09358546 -0.070129596 -0.07691204 0.021689765 -0.038122255 -0.06003126 0.009752405
0.035049997 0.054662794 -0.022758225 -0.043908805 -0.060540132 -0.06745416 -0.06139793 0.056835465
0.060895145 -0.009236951 -0.015609346 -0.004718208 -0.024750637 -0.040080123 0.0013954195 -0.079663455
0.042372998 -0.07656256 -0.049657952 0.07412696 -0.051973917 -0.023452006 -0.050738223 -0.0018162089
-0.05782526 -0.11044102 -0.10310829 -0.048603408 0.0128613645 -0.06878498 -0.03121455 0.0052265152
-0.07423318 -0.10068146 0.03498615 -0.021236325 0.09298308 0.040188484 -0.026492348 -0.060679056
0.050072767 0.087248586 -0.056594204 -0.031907182 -0.031211408 0.045293227 0.047273047 -0.051969346
-0.0057502836 0.08601489 0.00090021983 -0.089993015 -0.07828696 -0.099137634 0.019033358 -0.10461915
0.016347643 -0.10702095 -0.08582903 -0.038196012 -0.0052670096 0.058866177 0.002165225 -0.110751115
-0.020864835 -0.08620642 -0.05547711 -0.036072824 -0.0325778 0.02692646 0.062665544 -0.085300654
0.043274753 0.054628767 -0.05693589 -0.05920016 0.06863202 0.020917935 -0.09809311 -0.039463703
0.028341759 0.004749372 -0.10230503 -0.06678972 -0.11766797 0.04968567 -0.03967363 0.03361402
-0.09425882 -0.09318741 0.05014212 -0.061668865 0.005784048 0.03427922 0.07749485 -0.03541566
0.052067652 0.1051625 0.055695686 0.0073798094 0.08982286 -0.033661064 -0.0689947 0.06570793
-0.058420327 0.0135374945 0.02118069 0.0035990404 0.06560296 -0.03521921 -0.07597789 0.035085198
0.056059394 -0.020460278 -0.03187088 0.051975008 -0.04749605 0.031295918 0.05788428 0.029928122
0.036199775 0.039352372 -0.03139809 -0.014075168 -0.02624109 -0.002779576 0.09033305 0.06609
-0.07072155 0.08463289 0.061739746 0.0346819 0.03297039 -0.027824318 0.012834602 0.0116324555
-0.05703233 0.0665981 -0.03602782 -0.070500515 0.0109221265 -0.092942335 -0.082012475 0.0062617203
0.028063651 -0.055077728 -0.04400304 0.07084376 -0.01701488 -0.044479497 -0.0063819815 -0.03107999
0.049071174 0.048515946 0.004544296 0.09390413 -0.044853423 0.0499598 -0.0393651 0.06448516
-0.060517274 0.05945648 -0.06049485 -0.09167869 -0.08401383 -0.12782672 -0.019851582 -0.019843774
-0.05412244 0.013720519 -0.10505505 0.035128593 0.03084085 -0.09750115 -0.07687828 -0.03886841
0.0007895269 0.009445992 0.07713792 -0.07169822 -0.022513626 0.044688858 0.060313646 -0.01276066
-0.04827752 0.042588376 0.011634671 -0.0091050165 -0.006981638 0.04510822 -0.0053549963 0.049095802
-0.039705493 -0.051124606 -0.04247188 0.06054339 -0.035532787 -0.066695265 -0.06146527 -0.024550622

onnx::LSTM_120 f4 [1, 512, 128]
00000000: 3930 b1bd 7358 453b 7943 b1bd bd70 2dbd
00000010: 916b 82bc c7a9 71bd 59db adbd ea35 8e3d
00000020: d058 de3c 5139 cb3c 76b2 b1bd ae7f 42bd
00000030: 4c96 993d bcbd 533d fb80 273d 4b7d 89bd
00000040: 6aed afbd 5f5f 00bd f630 953d 7c6a 96bd
00000050: 450e a5bc dae6 083d 2ba2 41bd b743 35bd
00000060: 4ddb 563d 55ad c33c 9c8f 9b3d ace5 a13c
00000070: 4067 173d 970c 54bd 843f 793c 5338 4c3d
00000080: c2b6 3d3d 0746 2f3d 3eba a33d 7ad5 57bc
00000090: ed49 a03c 0901 0fbd e11d 7ebd ab8d 1d3d
000000a0: c6be 383d 66aa 14bd f7c9 a83d f620 88bd
000000b0: 209d 50bd ca35 543d f964 c73d 4f6a adbb
000000c0: d636 a43d 73bf 16bd d9ce 873c f6d8 103d
000000d0: 4049 313d 319d b6bd d835 8d3d 07ab 47bd
000000e0: 5077 a63d f3ce 473d 9372 a6bd 3671 83bc
000000f0: 1885 043d faed 18bd 28eb acbc 7464 0abd
00000100: 5859 0f3d 2ed1 853d defd 243c 6682 fbbc
00000110: 136d 42bd 0338 46bd 728e a9bd ae07 9e3d
00000120: 0f14 523d 2d3d a23d e4ab d6bc 3536 66bd
00000130: 7dbd 79bd 1c45 22bd 0e93 60bd bff0 aabd
00000140: 8934 0c3d b87e ce3c 2b9b 2639 1bbd 563d
00000150: f7c4 be3b ad84 7bbc a41c a53a dc9c 7f3c
00000160: dd6d f0bb 5840 13bd 659d 643d 44d9 4d3d
00000170: b6fb 93bd 560a 17bd db84 76bd bdf5 d33c
00000180: 7000 95bc 8cc3 8fbd 70b5 9cbd 61b5 c4bc
00000190: 2b01 2c3d 7d51 3a3d a842 bcbb 14a0 9d3c
000001a0: ca75 c93b baba c439 a1e5 99bc 13b0 b43d
000001b0: 94af 20bd 01a7 0139 7fcf a1bd 77f9 613d
000001c0: 1719 b63b 9eed 7cbb 0377 143d 1062 1abd
000001d0: bf84 50bd 7d30 23bd 063f b9b9 9f0a 74bb
000001e0: b5c7 b5bb 41be c2bd 0655 d93c 65dc 9a3d
000001f0: 9885 993d 2e43 1cbd 5369 a53c 49c7 b1bd
00000200: 15b4 a63d 4204 a4bc 7dfc 4abd 9b29 80bd
00000210: 09d9 7ebd 5fb8 a3bc a87b d13b b233 a33d
00000220: 73d6 813b 9910 833d a87e 9a3d 116f f6bc
00000230: 4082 303d 2f64 b8bc fdac 95bb b88a bd3d
00000240: 8090 fa3b 505d 96bc b9d7 41bd 3e88 833d
00000250: 0d15 0f3d ceb2 68bd 6162 dc3c 557a 903d
00000260: 2785 8fbd 7299 8d3c c243 7d3d bead 503d
00000270: 7e31 adbd 17f9 3dbc 9ab4 393d 81f3 df3b
00000280: 551d b4bd 5fb2 a93c 6ed7 88bd ed19 863c
00000290: d26d 31bd 308b 23bb a2b9 a3bc 134c 313d
000002a0: dd18 8abd f9a1 f73b ee00 cd3c a324 243d
000002b0: 78e7 3e3d a6de 6dbd e46d ba3d 3aab fcbc
000002c0: 5f29 14bd f88e 05bd e4b9 72bc cefe 28bd
000002d0: afb0 823c bfba 1cbc 4e30 d03c f94f e23c
000002e0: cbbb 683c 7833 503d dc1b 923d eb48 bdbc
000002f0: 66a3 b63d 32f2 913d 57d1 48bd 3c3c 183c
00000300: f866 09bd ea2c 6abd 67a8 2d3d 8131 92bd
00000310: 94c2 30bd 4d25 993d b468 77bd 6a72 c13c
00000320: 6e7d 3bbd 5fda 853c 0088 703d 37ba dc3c
00000330: f28e 143d fb8d 9e3c 6bdc 923d 9597 353d
00000340: 0a26 4abd 3b68 bfbc 1290 ffbc 6c09 713d
00000350: fcde 603d 0701 8dbd 0a32 0c3c 9adc 9bbd
00000360: 41f4 af3d 4c2f 943c ad97 413d 06a8 123d
00000370: 8182 98bd 681a 8abd c13e 25bd ecd2 a3bd
00000380: a692 15bd 5dc7 9bbb 1728 29bd 2415 b6bd
00000390: 071d 943d 3632 a73c 3fc3 543d a35b a33b
000003a0: 8f7c af3d 8dd8 cfba 0533 76bd 28e5 b83d
000003b0: 9087 5d3d e4be a93d efd9 eb3a 1384 983d
000003c0: acf8 c03c 96c1 a1bc 87bd bd3c 9adf 7ebd
000003d0: 723c 05bd 1726 85bd d8e8 35ba 9fab edbc
000003e0: ce33 973d 06db 983d 981b 29bd 84c4 6abd
000003f0: bfbd 553d d3bc f33c 41c8 6bbd 1359 4e3c
-0.08651776 0.0030112534 -0.086554475 -0.042343844 -0.015920432 -0.058999803 -0.08489103 0.06943877
0.027141958 0.024807604 -0.08676617 -0.047485046 0.0749937 0.051694617 0.04089449 -0.06713351
-0.08590205 -0.031340953 0.07284729 -0.07344529 -0.020148406 0.033423282 -0.047273796 -0.04425403
0.052455235 0.023886362 0.07595751 0.019762836 0.0369637 -0.05176982 0.015212897 0.049858402
0.04631687 0.042791393 0.07994507 -0.013173455 0.0195665 -0.034913097 -0.062040213 0.038465183
0.04510381 -0.036295317 0.08241647 -0.06646912 -0.050931096 0.05180911 0.09736056 -0.005292214
0.080182716 -0.036803674 0.016578125 0.03536316 0.043282747 -0.08916701 0.068950355 -0.04874709
0.08128226 0.048781347 -0.08127322 -0.016045194 0.03235349 -0.037336327 -0.021108225 -0.033787206
0.034997314 0.065340385 0.010070292 -0.030701827 -0.047467303 -0.04839326 -0.082791224 0.077163085
0.05128866 0.079218246 -0.02620501 -0.05620404 -0.060971726 -0.03961669 -0.054827742 -0.083467
0.03422979 0.025206909 0.00015888798 0.05242644 0.00582182 -0.015351457 0.0012597037 0.015601363
-0.0073373155 -0.035950035 0.055814166 0.05025603 -0.072257444 -0.03687509 -0.060185295 0.025874013
-0.018188685 -0.070197195 -0.07651794 -0.02401227 0.0419933 0.04548787 -0.0057452507 0.01924137
0.0061480748 0.00037523155 -0.018786253 0.08822646 -0.039229944 0.00012364612 -0.07900905 0.05516955
0.00555719 -0.003859378 0.03624631 -0.037691176 -0.050907847 -0.039841164 -0.00035332906 -0.0037237776
-0.0055474886 -0.09508944 0.0265298 0.07561568 0.07496184 -0.038150005 0.020191824 -0.08680589
0.08139817 -0.020021562 -0.049557198 -0.062579356 -0.0622187 -0.019985376 0.006392915 0.079688445
0.003962332 0.0639965 0.07543689 -0.030082257 0.043092966 -0.022508709 -0.004567741 0.09254974
0.0076466203 -0.018355042 -0.04732487 0.064224705 0.034932185 -0.056811146 0.02690238 0.07054583
-0.07007819 0.017285082 0.061832197 0.050946943 -0.084567055 -0.011595032 0.04533825 0.006834448
-0.08794657 0.020714937 -0.06681715 0.016369784 -0.043317623 -0.0024954788 -0.019985978 0.04328544
-0.067430235 0.0075571504 0.025024857 0.040074002 0.046607465 -0.058073662 0.09102991 -0.030843366
-0.036172267 -0.03260705 -0.014814828 -0.041258626 0.01595339 -0.009566008 0.025413658 0.027626025
0.01420493 0.050830334 0.0713422 -0.023106059 0.089178845 0.07126273 -0.049027767 0.009291705
-0.033545464 -0.05717174 0.04239693 -0.07138348 -0.043154314 0.07477818 -0.060402587 0.023614127
-0.045773916 0.016339479 0.05872345 0.026944263 0.036269136 0.019354811 0.07170948 0.044334013
-0.049352683 -0.02336513 -0.031196628 0.058846876 0.054900154 -0.068849616 0.008556852 -0.07610436
0.085915096 0.01808896 0.04726379 0.03580477 -0.07446767 -0.06743318 -0.04034305 -0.079992145
-0.036516808 -0.0047539906 -0.041298 -0.08890751 0.07232099 0.020409685 0.051944014 0.004985289
0.085686795 -0.0015857384 -0.06010725 0.09028083 0.05408436 0.082883626 0.0017994026 0.07447066
0.023556076 -0.01974563 0.023161663 -0.06222496 -0.03252835 -0.06501406 -0.00069392985 -0.0290125
0.07382928 0.074636504 -0.04128608 -0.05731632 0.05218291 0.029753124 -0.057564024 0.012594479

onnx::LSTM_121 f4 [1, 1024]
00000000: a9ab 863d 1eda e03d 12d2 933d 828b e43d
00000010: b01c 663d 9006 ea3d 54ca f63c 7ab5 df3d
00000020: 0f20 41bd e292 403d f304 0b3d 55ae 9b3c
00000030: 323e 65bd 809f d03d 31f2 ad3c 8198 923d
00000040: 9444 54bb 7ba6 b83d cb48 82bc ec5d 70bd
00000050: 606f af3d 524d 9ebc 247d 803c 369b cfbc
00000060: e0bd 6dbc 5be2 223d 6033 e2bc 8e26 3cbd
00000070: 162a 5cbd 18e4 0e3b 5631 80bd 4620 113d
00000080: bb30 14bc 84a5 043d 7a6e 86bc 1375 43bd
00000090: 4c90 993d e41d 5e3d 4edf f73d d342 0e3d
000000a0: 2849 2f3d e633 243d a92d cd3c 1230 92bd
000000b0: c9c2 88bc ab07 ba3c 2838 de3d 26c3 073d
000000c0: eb37 0ebd d4ad 1b3d dd20 a43c 0aeb ecbc
000000d0: aac9 913d 84af 703c aecb b83d f5a6 b33d
000000e0: 05f8 773d 4a67 fabc 428e 88bc f48c bf3d
000000f0: 1fdf b73c 33a4 8e3c f6fd 3d3d 011d 50bd
00000100: 61c7 cd3d f079 3b3d 2f2b b83c 2f5b 23bd
00000110: cc5f 713d 4b3e fcba be68 fd3c f2b4 903c
00000120: 7066 1cbd 1305 803c 3303 6c3d 8808 a13d
00000130: 4c52 fc3c bc39 6b3c 1c4b 1b3d 3ebe 773d
00000140: 2e71 693d faf6 8e3d 3a5a 0abd 18b8 af3d
00000150: 7adc 523d 7eb5 ccbc 20c0 1fbc 485c 11bd
00000160: 0226 1ebd 40e5 81bd 1fd7 6d3d 1ca4 0b3d
00000170: 59f4 b83d 7fad 10bd 3fbe 973d cd04 0abd
00000180: b453 78bd b0c0 4cba 34f9 05bd c367 513d
00000190: e7de ba3b c578 603d 07f0 753d fe67 97bc
000001a0: 0b2a f3bc 4ef0 933d c58f ac3d f1d1 a33c
000001b0: 0622 17bd 565e 923d 0abd a23c ee88 173d
000001c0: 7d69 3d3c a170 16bd 39ad aa3d adfb 703d
000001d0: 840c bd3d f759 26bd 0e30 33bd 05c6 bc3d
000001e0: 79bb d13d 9760 99bc c048 b8bc ec78 413c
000001f0: 8a39 4cbc 7bff d33d 93e2 ac3c cc35 fdbc
00000200: e0db 033e 6725 3a3c 6980 893d 4c51 a03c
00000210: 7e3c a93d 7cab ea3d f706 463d e4a3 3bbc
00000220: 2c98 c83d 95ce 1bbd c49a 503c d662 ab3d
00000230: 6e4e 4abd 184f 6f3d c364 4e3e 6ef0 5d3d
00000240: 4f44 433d b522 413d 9c1a 8a3d 2a39 d6bc
00000250: 410f 0d3d 3f97 95bc 3931 f83d f3f0 b73d
00000260: 9d1f 103e f378 323e 0001 a33b 3075 4cbd
00000270: 6735 263d 5781 283b 6125 2dbc cfa3 8f3c
00000280: 8d7a 813d eff5 c83c 781c 423d 09bc 1e3e
00000290: 6f39 09bd 5d26 473d 43d2 193e 4986 31bd
000002a0: 9f49 0c3e 8feb 8e3d 0421 bc3d 316b 323d
000002b0: caff 0a3d 0c99 ec3c da16 5f3c 7d35 d43c
000002c0: be65 273d 40e1 f23d 7813 8e3d 2b74 4cbd
000002d0: 8de7 d73d 70f9 8d3d b1bf 87bc f134 df3d
000002e0: b718 f93b d1b0 003c 5d79 8dba 8dd9 253d
000002f0: 459b 833d cdae 8fbc 1239 1c3d d1e5 483d
00000300: 49e3 f43d 3c1e 893d a8fe c23d 14af e03d
00000310: 3ae4 44bd 010f e33b 4b8f ca3d 3b45 ce3d
00000320: 24f1 fa3c bb04 093d 21f1 be3c 07e3 4ebc
00000330: 30bc fa3d ef09 a13d 58d4 d6bc 7058 dabb
00000340: bf94 4fbd 7847 773c 0099 0f3d 004a 33bd
00000350: c5ff 033e 7732 6ebd ecdc 2a3e 861d 0bbd
00000360: db19 2f3d 9dd5 923d daef 2c3b b9f4 703d
00000370: 32f7 1a3e bb0a d03d 0619 ad3d 4783 6bbd
00000380: 99ae cebb 444c 79bd 145e 443d 3130 2fbd
00000390: 3b1c ecbb f564 093d 84a9 f63d ae47 2b3d
000003a0: ccad 84b7 86cb c63d e1e7 253d 86d3 b93d
000003b0: 7784 0e3d c3df 1abd cf19 003d 05ce 373d
000003c0: 173a e73d 3751 d33d ed76 8ebc 7602 663d
000003d0: 9966 193c 704b 55bd 1253 8e3d 9ab9 b23c
000003e0: 994a 1f3d b6b6 863d 7838 f93d d79f 103e
000003f0: 06c6 8ebd 9c56 11bd d123 803d 49c0 023e
0.0657571 0.109791026 0.07217802 0.111594215 0.056179702 0.11427033 0.030125774 0.10923286
-0.047149714 0.04701508 0.033940267 0.019004026 -0.055967517 0.10186672 0.02123365 0.07157994
-0.0032389509 0.09016129 -0.015903851 -0.05868332 0.08566165 -0.019323979 0.015684672 -0.025342565
-0.014510602 0.03976665 -0.027612388 -0.045935206 -0.053751074 0.0021803435 -0.0625941 0.03543117
-0.009044821 0.03238441 -0.016410101 -0.047719073 0.074982256 0.054227725 0.12103139 0.034731697
0.042794377 0.040088557 0.025046187 -0.07138075 -0.016694443 0.022708734 0.10850555 0.033145092
-0.034721296 0.038007572 0.020035202 -0.02892067 0.071185425 0.014690284 0.09023224 0.08772079
0.060539264 -0.03056683 -0.016669396 0.093530566 0.02244526 0.01741228 0.046384774 -0.05080891
0.10047794 0.045770586 0.022481529 -0.03988188 0.05892925 -0.0019244639 0.030933734 0.017664406
-0.03818363 0.01562742 0.05762024 0.07862955 0.030800961 0.014357027 0.037913427 0.060484163
0.056992702 0.06980701 -0.033777453 0.08580035 0.051479794 -0.024988886 -0.009750396 -0.035488397
-0.038610466 -0.06342554 0.058066484 0.034092054 0.090309806 -0.03532171 0.074093334 -0.033695985
-0.0606267 -0.0007810695 -0.03270836 0.051124346 0.0057028416 0.054802675 0.06004336 -0.018482205
-0.029683134 0.07223569 0.08425859 0.019997569 -0.03689768 0.071468994 0.019865531 0.03699582
0.011560795 -0.036728505 0.08333821 0.058833767 0.09230903 -0.04061314 -0.043747 0.09217457
0.10240836 -0.018722815 -0.022495627 0.011808615 -0.01246489 0.103514634 0.021104133 -0.030909441
0.12876844 0.0113614565 0.067139454 0.019570015 0.08263491 0.11458489 0.048346486 -0.011452649
0.097946495 -0.03803881 0.0127322115 0.08368461 -0.049391203 0.05842504 0.20155625 0.05418437
0.047672566 0.04715224 0.067433566 -0.026150305 0.034438375 -0.018260596 0.121187635 0.08981504
0.1407456 0.17428951 0.0049744844 -0.049916446 0.040578272 0.0025711858 -0.010567994 0.017534165
0.06322203 0.024531333 0.04739043 0.15501417 -0.03350204 0.04862057 0.15021615 -0.043340955
0.13699959 0.06978523 0.09185985 0.043559257 0.033935346 0.028881572 0.013616288 0.025904411
0.040868513 0.11859369 0.06937307 -0.049915474 0.10542212 0.06932342 -0.016570898 0.1089877
0.007601823 0.007854656 -0.0010793615 0.040490676 0.064261 -0.017539406 0.038140364 0.049047295
0.11957414 0.0669522 0.09521228 0.109708935 -0.048069216 0.006929279 0.09890612 0.100717984
0.030632563 0.033451777 0.023308339 -0.01262737 0.12242925 0.07863223 -0.0262243 -0.0066633746
-0.050678965 0.015092723 0.03505802 -0.043771744 0.12890537 -0.058153596 0.16685838 -0.033963703
0.042749267 0.0716965 0.002638808 0.058827136 0.1513336 0.10158297 0.084520385 -0.057498243
-0.0063074348 -0.06086375 0.047941282 -0.04277057 -0.007205514 0.033543546 0.12044051 0.041816406
-1.5816557e-05 0.09706788 0.04050434 0.09073548 0.034794297 -0.037811052 0.031274613 0.04487421
0.11290377 0.10318225 -0.017390693 0.05615469 0.00936284 -0.052073896 0.06949438 0.021817017
0.0388895 0.06577818 0.12168974 0.14123474 -0.06971364 -0.035482988 0.062568314 0.12768663
