model/ANN_LeNet_Acc_97.92.onnx (onnx, 179458 bytes, 10 tensors)

conv1.weight f4 [6, 1, 5, 5]
00000000: fab6 cabd e94f 82be caef c3be bb56 53be
00000010: ccf8 02be 3712 dbbd 691c 63be 7654 e93c
00000020: b89d 213c ef06 c73d ac04 cebd 4e65 893e
00000030: d209 3b3e 3579 393d e78e 9bbd 3951 21bc
00000040: 7e6f 8c3e 407c 9d3e 87da a23e 365d 843e
00000050: 512b b33d 7bec 243e e01a 3fbe 7fc8 6abe
00000060: 6fba cfbd 860d 4dbe 9316 73bc 9b1b 263b
00000070: a71d a53e 0e18 043e 4463 32be 5e0e cdbd
00000080: a049 2f3d 2558 993e 12f5 6cbd a56d a1be
00000090: 87d6 babd f4d0 d93e 98cb ad3e 8bdb c0bd
000000a0: 62cb 3bbe 32ed 79bb 77ca f13e 052c 903e
000000b0: 94aa bfbe 5cf0 003d 6cf5 ab3e d4fc a43e
000000c0: bce4 2bbd 5fb0 d3be 4296 8a3e c3c6 063d
000000d0: f41f a5bb c3b1 11be ee39 03bc f692 66be
000000e0: 4d87 a8bd 90d0 34be 49c8 5fbe 101b 69be
000000f0: 3ca1 a5be eb08 8cbe eb68 8abe ec62 65be
00000100: b1a2 acbd b29c 7ebe 1c2c 72be 9e0d c7be
00000110: 443f 40be ddaf 85be d42b 82be 76b8 8fbe
00000120: 7685 e0bd c6a6 94bd 46d3 de3d 80ba 37be
00000130: 54f8 a0bc 6918 3f3e 3c83 bb3e c8fb 843d
00000140: ceaa acbe 0524 bdbe 4513 693e 7681 3b3e
00000150: 6a20 b63e 7c43 7abe 535e b6be 65ef 263d
00000160: 25cb d53e 1f1d 133e 928d 61be 3489 e0be
00000170: 8b3f cc3d eee9 f63e 5353 d93d 04c2 d2be
00000180: 1339 1d3b 1e89 37be 95f1 c53e 7c57 923e
00000190: 0f1f bd3d 7e58 4abe a637 09be 4a27 0ebe
000001a0: 4a1a 8bbe 8490 80bc d7e0 b9bc 4364 27be
000001b0: 565e 5ebe 6019 7ebe f20e ac3d 59e7 6b3b
000001c0: ee04 86be 267f 50be de7f a5be 07ca 053e
000001d0: 1a0d b8bd 5b11 8d3d 9209 74be 82d3 f1bd
000001e0: aea1 ff3d 5ec7 813d 5b7f 32be 211e 73bc
000001f0: 7f81 563e 6288 103e cfed d13c 2901 69be
00000200: ce02 cabd 3029 a93e 40bc 0c3b c973 f63d
00000210: ae49 ad3e 6e25 573e 81bf 8d3e 5496 783e
00000220: 5a14 5f3e cad4 e03e f207 d43e bed3 cfbc
00000230: 1dd0 3cbe ae74 ca3c caf4 83be eb88 82be
00000240: b6a4 1f3d 50d5 b9be 169d a9be c28d 99be
00000250: 1c7d f2be ca80 87be
-0.09898181 -0.25451592 -0.38268882 -0.20638554 -0.12790221 -0.106968336 -0.22178806 0.028482657
0.009864263 0.09718119 -0.10059485 0.26835102 0.18265465 0.045281608 -0.07595616 -0.009846025
0.27428812 0.30758858 0.31807348 0.25852364 0.08748496 0.16105835 -0.18662596 -0.22928046
-0.10142981 -0.2002469 -0.014836925 0.0025346044 0.32249185 0.12899801 -0.1742068 -0.10012506
0.042794824 0.2995006 -0.057850905 -0.31528965 -0.09122949 0.4254223 0.33944392 -0.094168745
-0.18339303 -0.0038135764 0.4722478 0.28158584 -0.37434828 0.031479225 0.3358568 0.32224143
-0.041966185 -0.41345498 0.27067763 0.032904398 -0.0050392095 -0.14227967 -0.008009417 -0.22516999
-0.082289316 -0.17657685 -0.21853746 -0.2276423 -0.32349575 -0.27350554 -0.2703317 -0.22401017
-0.084294684 -0.24864462 -0.23649639 -0.38877577 -0.18774134 -0.26110736 -0.25424063 -0.2807042
-0.10962956 -0.07258372 0.10880141 -0.17942238 -0.019649662 0.18661655 0.3662356 0.06493336
-0.33724064 -0.36941543 0.22761257 0.18311104 0.35571605 -0.24439806 -0.3561884 0.04075565
0.4175655 0.14366578 -0.22026661 -0.43854678 0.09973057 0.4822535 0.10611596 -0.41163647
0.0023990318 -0.179234 0.38660875 0.2858237 0.092344396 -0.1976032 -0.13400134 -0.13882175
-0.27168494 -0.01569391 -0.02269022 -0.1634684 -0.21715674 -0.24814367 0.08401288 0.0035996048
-0.26175636 -0.20361003 -0.32324117 0.13065349 -0.08986874 0.06888076 -0.23831776 -0.1180792
0.1248201 0.063368544 -0.17431395 -0.014838726 0.20947836 0.14114526 0.025626091 -0.22754349
-0.09863816 0.33039236 0.002147451 0.12033803 0.33845276 0.21010372 0.27685168 0.24276096
0.21785107 0.43912345 0.41412312 -0.025369521 -0.18438764 0.02471384 -0.25772697 -0.25495085
0.03897544 -0.36295557 -0.3312766 -0.29990965 -0.47361076 -0.26465446

conv1.bias f4 [6]
00000000: bd58 d1bb d81c 32bd 362b c4be 2ba6 8f3e
00000010: e652 81be 7be2 ea3d
-0.0063887523 -0.04348454 -0.38314217 0.28056464 -0.2525856 0.11468979

conv2.weight f4 [16, 6, 5, 5]
00000000: 4aa2 443d 2d46 4b3d a42d 8e3c 2e8b b239
00000010: 952f 11bd 3009 803d 7488 37bb 92e3 d03c
00000020: a325 88bd f898 4cbd 25d1 883b 21e4 e3bc
00000030: 26a2 97bc 94d6 c4bd 99e8 f4bd fbc5 393d
00000040: e2c1 943d 3b91 8d3d 61e5 87bb 76ca b0bd
00000050: f3a2 3e3d a953 653c e9bd bbbc e631 20bc
00000060: 55d3 58bb ff7c 79bd d3a5 14bc 4327 53bc
00000070: 29c0 513c bbe6 973d 1c30 563d 9453 92bd
00000080: 5d23 87bd 9847 083e d742 463e afc0 ccbc
00000090: 552f 503b 387e 5f3d 219b 963d 29d5 df3d
000000a0: 90ad 903d 16bd a43d 604f e23d ff3f e93b
000000b0: 2ce3 0c3d ec53 223b 1a2c 103e 72b8 d7bb
000000c0: a282 ab3d d52b 233d 9a1a b5bd 90f2 59bd
000000d0: 40bb 2abe 5fa0 53be 5776 22be 8bc1 b23d
000000e0: b84b 813b d7a9 42bd a868 1abe 7567 16bd
000000f0: eb87 eb3d 8d32 bc3d eb5f 003e 9e25 4abd
00000100: 4c47 1fbe d9b0 913d 2342 833d 6a17 93bd
00000110: 353b c33b 84a2 d0bd a9cf cc3c 19c2 9bbd
00000120: 9a39 4cbc ff1a 62bc ca3e 1fbb 80c8 103d
00000130: a306 803d 897e ad3c c7b6 883d c72f 01be
00000140: b87a a5bd 25a7 b9bd ea8b 8b3d b415 723e
00000150: 6e39 803d fb9e ffbd 4b9c ebbd 93db c83c
00000160: 22ed 4e3e ac1c 6f3b 25b0 05bd 2402 c03b
00000170: 6298 4f3d 5116 3f3e 85c1 183d cab0 cd3c
00000180: 6f91 5ebc 3a6e a7bd 3ac8 47bd 2e86 1e3d
00000190: b803 88bd 1fea 65bd 3b9a 0ebe f448 11be
000001a0: 0b36 5a3c c92e 92bd f227 cbbc 96af 403b
000001b0: 6daf 18be 9864 6abd d040 d63d b09a f63d
000001c0: 7d25 dd3c 8f2a efbd 13aa 4ebc 8413 81bb
000001d0: 0048 03bd d6e9 913d 3c1c 87bd 32cb 0d3d
000001e0: 6150 663b 9086 23bd c48d 7c3d ebf5 1a3c
000001f0: a6b9 25bc 7588 5e3c 82fb 1e3d 1032 da3d
00000200: 4435 cfbc e874 003b bb77 b33d 0c42 0b3e
00000210: cb5a bf3d 2826 d0bd 70d1 313c d694 6d3d
00000220: a861 9ebd e2bd b5bd 4cd8 84bc 6868 b7bd
00000230: c55e ebbd 6b32 41bd 5db2 e63c f9ae 98bd
00000240: 510b 603d 9542 dbba 06ec 853d 5300 793d
00000250: d766 013c 9942 efbc d52d 753d 8224 d8bc
00000260: 2ecf e1bc 215a bdbb 8cb6 a8bd f19c f03b
00000270: 622d d13d 292a 043e 9cfc 63bc 67fe a93d
00000280: 3470 ee3d f6f4 0d3c ecc7 833c 02db e93d
00000290: 81cc d23d 8535 04bd f39d ea3b 4667 a4bc
000002a0: e92e 66bd a305 98bb c9d4 21bc 75a5 213d
000002b0: 3a3f 903d c7a5 ac3c b6b5 3ebd 3797 5c3d
000002c0: 5826 53bc 7008 a5bd 1db6 cabd 618d a3bd
000002d0: b737 86bd d576 9cbd 10da b6bb 21ea 2fbd
000002e0: ca3f dbbd 97ad f0bc e864 5bbd 590e bebc
000002f0: 18ce bdbd 7be3 c3bd 8d29 7f3d 1c77 8ebd
00000300: 2592 6ebd f236 30bc 4d2d 3abd 6051 5a3d
00000310: bf45 08bd 87d8 38bd 66d5 54bc ae3d 31bd
00000320: e098 203e a480 3a3d 58d6 303e 70d2 543e
00000330: d4ca 153e f193 82bd cfb7 803c 75b2 08bd
00000340: 418b ebbd 5805 61bd fa1d 20bd 9a51 7ebd
00000350: 1746 7bbe 6329 90be 75e6 7bbe e6d1 80bd
00000360: 11cf 793d 953b a73d 3269 783d f631 91bd
00000370: f408 be3d dce9 043e 780b d33d 82dc 923d
00000380: b12f e83d cfe5 51bc 667e 88bd 6b67 ae3c
00000390: ee72 79bd 7ff0 e0bd d0c8 803d b320 28bd
000003a0: ad6d b6bd efd6 fbbd 3696 e5bd 28bc 9cbd
000003b0: 2c5f 603d f10d 7dbd 0423 1dbe ea58 8bbd
000003c0: 645b c2bc a3d1 883d f66a 4ebc 389d 11bc
000003d0: 51b8 8dbd 5224 e6bc b6f6 873d fe98 68bd
000003e0: be62 8abd 8d04 04be 181c df3d 0aa4 8a3d
000003f0: 5f76 06bd 8be8 e13d 6a95 d63d e225 31bc
0.048006333 0.04962747 0.017355748 0.00034054503 -0.03544577 0.062517524 -0.0028004916 0.025499139
-0.06647804 -0.04995057 0.0041753226 -0.027818741 -0.018509936 -0.0961124 -0.11958427 0.045354825
0.07263543 0.06912466 -0.004147217 -0.08632366 0.04654212 0.013996997 -0.022917705 -0.009777522
-0.0033084948 -0.06091022 -0.009072739 -0.012887779 0.012802162 0.07417055 0.052291974 -0.071448475
-0.06598542 0.13308561 0.19361435 -0.024994222 0.0031766493 0.05456373 0.07353807 0.10929329
0.070643544 0.08043878 0.11050296 0.0071182246 0.034396335 0.002476926 0.14079323 -0.006583267
0.083745256 0.039836723 -0.088429645 -0.05320984 -0.16672993 -0.20666645 -0.15865456 0.08728322
0.003945794 -0.047525253 -0.15078986 -0.036719758 0.11500534 0.09189329 0.1253659 -0.04935228
-0.15554541 0.07113809 0.06409099 -0.071822 0.0059579858 -0.101872474 0.025001364 -0.076053806
-0.012464905 -0.013800382 -0.00242989 0.03534746 0.06251266 0.0211785 0.06675487 -0.12615882
-0.08080047 -0.090650834 0.06813796 0.23641092 0.06260954 -0.12481495 -0.1150442 0.024518764
0.20207646 0.0036485596 -0.032638688 0.00585963 0.050682433 0.18660857 0.03729393 0.025108714
-0.013584479 -0.08175321 -0.048774935 0.038702182 -0.06641334 -0.05613148 -0.13926022 -0.14187986
0.013318549 -0.0713783 -0.02479932 0.0029401532 -0.1491067 -0.05722484 0.10461581 0.12041223
0.026995415 -0.11678039 -0.012613791 -0.003939094 -0.032051086 0.07124679 -0.06597182 0.03461761
0.0035143124 -0.03992325 0.061658636 0.0094580455 -0.010115063 0.013582339 0.038814075 0.1065408
-0.025293954 0.0019600932 0.08763071 0.13599414 0.09343489 -0.10163528 0.010853156 0.05800327
-0.0773347 -0.08874108 -0.01621642 -0.08955461 -0.11492685 -0.047167223 0.028161222 -0.074552484
0.054698292 -0.0016728217 0.065391585 0.060791325 0.007898054 -0.02920656 0.059858162 -0.026384596
-0.027564611 -0.0057785665 -0.08237943 0.0073429276 0.10213734 0.12906708 -0.013915207 0.083004765
0.11642495 0.00866436 0.016086541 0.114187256 0.10292912 -0.032277603 0.0071599423 -0.020068776
-0.05619708 -0.004639344 -0.009877392 0.039464433 0.070433095 0.021075143 -0.04656001 0.053855147
-0.01288756 -0.0805825 -0.098980166 -0.0798595 -0.065535955 -0.07639853 -0.0055801943 -0.042947892
-0.10705526 -0.02937965 -0.05356303 -0.0232002 -0.09267825 -0.09564873 0.062295485 -0.06956312
-0.058244843 -0.0107552875 -0.04545336 0.05330026 -0.03326964 -0.04512837 -0.012990331 -0.043271713
0.15683317 0.045532838 0.17269266 0.207834 0.14628154 -0.06375874 0.015712647 -0.033373315
-0.1150117 -0.054936737 -0.039091088 -0.06208954 -0.24538456 -0.28156576 -0.24599631 -0.06290035
0.06098849 0.08165661 0.060647197 -0.070896074 0.092790514 0.12979835 0.10304922 0.07170965
0.113372214 -0.012811138 -0.066647336 0.021289548 -0.06090062 -0.10983371 0.06288302 -0.04104681
-0.08907638 -0.12296855 -0.11210291 -0.076530755 0.054778263 -0.061780874 -0.15345389 -0.068040684
-0.02372522 0.0668061 -0.012598744 -0.0088875815 -0.06919921 -0.02809349 0.06638853 -0.05678653
-0.06757115 -0.12892361 0.1089403 0.06769569 -0.03282773 0.11030682 0.10477717 -0.010812255

conv2.bias f4 [16]
00000000: ca01 463b 4284 993a 72ef 4b3d 04ac 6e3d
00000010: f618 9dbd b479 3dbb 7f91 313d 5734 803b
00000020: a56a 2bbd cbfb 873d fc6c 9bbd 32af 833c
00000030: b06d 433c 47cd 8a3d 8ddb 58bc 8ef1 0e3c
0.0030213469 0.001171239 0.0497889 0.058269516 -0.076707765 -0.0028911652 0.043351647 0.0039124894
-0.04184975 0.066398226 -0.075891465 0.01607475 0.011928007 0.06777435 -0.013235939 0.008724583

fc1.weight f4 [120, 256]
00000000: 55ed 06bd 6b90 22bd e78f 84bd c102 f6bc
00000010: c15b 5dbd aec2 22bd 53ac 43be 025c 9ebd
00000020: 0c56 d33b 90e3 0f3e 1879 adbd 45d8 01bd
00000030: 646b 2f3c 2d5d b93d e8d4 b13d dc22 0f3d
00000040: cc2b b03c 3048 c23c ca66 1ebc c9c2 f3bc
00000050: c43b 24bc f4b3 2bbd eb51 04bd e5ce 1a3d
00000060: 4838 54bd da93 4c3d a763 633c 0881 4ebc
00000070: ec86 803b 12d0 223d 99de 98bc 093f 9bbd
00000080: 5dd9 4f3d 7b39 823d 4b79 8b3d 370d 343d
00000090: 7d93 033d e10e 3abd b58e 603d bf44 0c3d
000000a0: 0c54 aebd cb9c 8d3d d408 19bc 4e29 56bc
000000b0: 63c6 a83d fa4a 003d f358 a6bd c254 d5bc
000000c0: 2dba 98bc d952 1cbd 6395 52bb 6bbe 9fbc
000000d0: 8946 333a 37e7 2fbd 80f6 fd3d 0863 8b3d
000000e0: 0d06 28bc fa56 8dbc 955c f83c ee30 e13c
000000f0: cb8e adbd 001c 61bd f3e1 333d ef42 193d
00000100: ff57 103e 4479 073e 08d2 febb 8ed2 453d
00000110: 3c25 1b3d 2779 c3bd 8e8c 12bc a6bf dcbc
00000120: fba9 62bd 510e 09bd 0975 17bd 6960 e5bd
00000130: 5280 10bd a25a 1a3d 0450 423d 7938 1f3d
00000140: d6e5 c53c 6dd4 3a3d d236 863c 8867 1abd
00000150: fe2c cfbc 9537 02be 5ff8 14bd 810f 23bd
00000160: 1ac7 553d 1be7 033d 16b3 923c fe56 11bd
00000170: 21a0 3cbc 7d3d e53c 8a18 963b 0032 c6bd
00000180: 2012 6c3d 7832 793d 611a b03c 8a64 59bd
00000190: 918c b3bd b82c 6bbd 444e 74bd edb3 74bc
000001a0: 57c2 ac3c 5b24 30bd 98ec 1fbd 3a24 ce3c
000001b0: 73bc 6c3d fd8e e63c 52cd 063d b6f1 993c
000001c0: 7385 b73d 808c 06b7 499a 893c ef45 9abb
000001d0: 438f fa3d ca75 bb3b 6132 99bb 5ad3 aabd
000001e0: 1992 54bd 7f47 cabb 1eb2 783b 9469 37bc
000001f0: b078 62bd 56c6 3bbb ada0 77bd dce3 c8bc
00000200: 6c9f ab3d f9c5 773d b46a 86bd 2fa0 dd3c
00000210: b0d2 3b3d c234 d6bc 995d 233d 7921 5dbd
00000220: 86ac a0bd b759 58bc 8187 abbc e3f1 513d
00000230: 6edc 243c d7a8 12bd 7e82 1b3d 2836 2b3d
00000240: 44e7 893d 1e6a 2f3d 1813 abbd c546 193d
00000250: 9541 863c b925 b5bc bdd1 73bc 812d f73c
00000260: 4020 9a3c 0d20 1dbd ac27 673c b12f 8bbc
00000270: 8594 353d 7391 783d 8c8f 543d 8714 77bc
00000280: c8fd 1d3c 0b83 f83c 4c40 56bd 450f b33c
00000290: 9ee2 2b3d 789c b63d 24cd afbc b1f2 cbbd
000002a0: eb41 0a3c fa77 c43c 9839 6f3d 6820 8f3c
000002b0: 0e1b 393d 1168 15bb b8fd 9d3c dae2 603d
000002c0: 7f41 8d3d c617 91bd 8164 acbd 6815 18bd
000002d0: a633 1abd e8ec 92bd 323a 67bc 766f e7bc
000002e0: e644 07bb 9362 46bd cbe4 613c 318e 53bd
000002f0: 89b0 c9bc cdca 363d 6e0e 783d 869e f03d
00000300: 6d12 203d 8d32 08bd 14f4 58bd dcfc 6dbd
00000310: 3421 403a af4b 2a3d c861 5e3d 8d1a 86bc
00000320: 2a5c c53d 8846 0bbd 9971 4bbb 0744 743d
00000330: b549 d23c 9e36 89bc b500 3fbc efd7 623b
00000340: c1ae cc3c 426e a9bd facc e3bc 9683 013d
00000350: ce71 cbbd 19c1 b53d fc33 aa3d e1b5 783b
00000360: 0ab9 e13c 17e3 d0bd 912e 54bd 7a6e 5aba
00000370: d31d d9ba be1f 933c 5d13 943b eaf2 9a3d
00000380: 06cd 213d 76ce 14bd 53d7 af3d 5334 1e3d
00000390: d176 51bd 1c58 013d fe5f 02bc 1b50 8fbc
000003a0: a469 40bd 86a6 c33b e1d8 50bc e619 013c
000003b0: 6e94 863c 9100 d5bc 2b83 b4bc 7c39 b3bc
000003c0: e7a9 bdb9 e95a 1d3d 50c5 c2bd 99af 963a
000003d0: fe1c a63d a34b d2bc 0be2 3cbd f6f0 0abb
000003e0: b6dd 703d dff3 913d 6ca2 e63d 804e 423d
000003f0: 0dae 263d d4a4 8cbc d7a1 6abd f25e 743b
-0.03294118 -0.03968851 -0.0647276 -0.03003061 -0.05404258 -0.039736442 -0.19108705 -0.07732393
0.0064494666 0.14051652 -0.084703624 -0.03170039 0.010706756 0.09050975 0.08683187 0.034945354
0.021505259 0.023716062 -0.0096680615 -0.029755967 -0.010024015 -0.041919664 -0.032304686 0.037794966
-0.051811486 0.04994569 0.013878739 -0.012604006 0.003922334 0.039749213 -0.01866083 -0.075803824
0.050744403 0.0635862 0.06810244 0.043957915 0.032123078 -0.045424346 0.054823596 0.03424525
-0.085121244 0.069146715 -0.009340484 -0.013071371 0.08240964 0.031321503 -0.081224345 -0.026041392
-0.018643463 -0.038164947 -0.0032132498 -0.019499978 0.00068388187 -0.042945113 0.12400532 0.06805998
-0.010255349 -0.017253388 0.030317584 0.027489152 -0.08474501 -0.054958344 0.043916654 0.03741735
0.14096068 0.13229853 -0.0077765025 0.048296504 0.037877306 -0.09544592 -0.008944644 -0.026946854
-0.055337887 -0.03346092 -0.036976848 -0.112000294 -0.035278626 0.03768409 0.04743959 0.038872216
0.024157446 0.04561274 0.016383562 -0.03769639 -0.025290009 -0.12716515 -0.036369678 -0.039809708
0.05219183 0.03220282 0.01790766 -0.035483353 -0.011512787 0.027983421 0.004580562 -0.096775055
0.057634473 0.060839146 0.021496953 -0.053074397 -0.08767045 -0.057415694 -0.059644952 -0.014935476
0.021088762 -0.04300342 -0.039043993 0.025163759 0.057796907 0.028144354 0.032910652 0.018792015
0.08961 -8.019735e-06 0.016797202 -0.0047080438 0.12234356 0.0057208287 -0.004675195 -0.08341093
-0.051897142 -0.006173074 0.0037947963 -0.011194605 -0.055290878 -0.0028652153 -0.060455967 -0.024522714
0.08380017 0.060491536 -0.06563321 0.02705392 0.045855224 -0.026148204 0.039884184 -0.053987
-0.07845406 -0.013204983 -0.020938637 0.05125607 0.01006232 -0.03580555 0.037966244 0.041799694
0.067335635 0.04282581 -0.08353251 0.037421007 0.016388694 -0.022112714 -0.0148815485 0.030173065
0.018814206 -0.038360644 0.01410858 -0.016990514 0.044331092 0.060685586 0.05189471 -0.015080578
0.009643026 0.030335924 -0.052307412 0.021857867 0.041964166 0.08916563 -0.021460123 -0.09958399
0.008438568 0.02398299 0.058404535 0.017471507 0.045191817 -0.0022797624 0.019286022 0.054903843
0.06897258 -0.070846125 -0.08417607 -0.03712979 -0.037646912 -0.071740925 -0.014112996 -0.02825139
-0.0020640432 -0.04843385 0.013787459 -0.051649276 -0.024620311 0.044627 0.060560636 0.11748986
0.039080072 -0.033251334 -0.052967146 -0.058102474 0.00073291664 0.041576084 0.05429247 -0.016370082
0.096367195 -0.03400281 -0.0031043051 0.05963519 0.025669912 -0.016749676 -0.011657883 0.003461357
0.024985673 -0.08272983 -0.027807701 0.03161963 -0.09933816 0.08874721 0.083106965 0.0037950205
0.027554054 -0.10199564 -0.05180222 -0.00083325023 -0.0016564674 0.017959472 0.00451891 0.075658634
0.039502166 -0.03632971 0.08585992 0.03862412 -0.051138703 0.03157817 -0.007957457 -0.017494252
-0.046975747 0.005970779 -0.01274702 0.00787971 0.016428199 -0.026001247 -0.022035202 -0.021877997
-0.00036175476 0.038416777 -0.095102906 0.0011496424 0.081109986 -0.025670832 -0.04611401 -0.0021200753
0.05880519 0.07126593 0.11261448 0.047438145 0.04069333 -0.01716844 -0.05728325 0.0037288037

fc1.bias f4 [120]
00000000: ddce d9bc 84a9 90bc eef7 aa3d 439b e3ba
00000010: 153b 05bd ded3 6b3d 6a58 51bd d5d9 5dbd
00000020: 9ccf f73c c3ad 393d df9e 18bd 954f dabb
00000030: 36e1 6b3d 13ae 1eba 2468 273d 1d9a 673d
00000040: 4836 5d3d b349 393c 0ef1 7abd f0de 8cbc
00000050: dd67 e5bc b79c 06bd 5cfb 37bd e285 953b
00000060: 33c0 3fbd 9674 1fbd 744d b2bc 0d6e ed3c
00000070: 9c85 c63b 728b 19bd 9c77 44bd 6225 23bd
00000080: ffdb 14bd 0350 21bd 478c fc3b 3a99 5b3a
00000090: 45d3 643d f7f7 2e3d 44aa 55bd 3cbd 763d
000000a0: 988b bdbc 998a 893c 143a 223c 75dd 58bb
000000b0: 4490 783d fc97 22bd bb84 04bd e43c 3f3d
000000c0: 4c4f 6bbd c296 623d 2019 643d bca1 3a3d
000000d0: 0a06 ee3c b912 f03c b1ee 27bd da3a bfbc
000000e0: 1889 4cbd 026e c13b 13f1 6d3d 9e92 ecbc
000000f0: 7f70 3d3c 6c93 0fbd 5da0 41bd dca2 a9bc
00000100: e25a 973b cff7 f0bc e8e3 9aba b062 553d
00000110: ed63 523b 0cca f4bc d84d d73c ea7a cd3c
00000120: 2283 01bd d4cb 2c3d 851d 85bc dead 983c
00000130: d865 3dbd 8ccb 3cbc 7ac3 b8bc a985 823c
00000140: 4594 443b 1a2f 01bc 69d5 3a3d 84ec b03b
00000150: e722 813d cda4 a63c e0f8 44bd efe5 443d
00000160: 28f7 403d b8fb 2bbd 7933 9fbc ea57 cf3c
00000170: 6e20 4e3d c354 033d a2a8 fabc de29 bf3c
00000180: 4936 d23c 103b 46bd 82fa 0a3c 2498 043d
00000190: 7b04 193d e4bc 673d e6f0 1c3b d65b 13bc
000001a0: ddd9 8c3c 374c cdbc 88af e6bb 86bd 4f3d
000001b0: 1310 333d ef97 953c f1e6 11bd 159c 703d
000001c0: 71c0 493c 89d6 34bb dd79 9c3c d6b2 683d
000001d0: 0ee5 1cbd 63d7 3ebd 23c1 5d3d e9a7 983b
-0.026587898 -0.017658956 0.0834807 -0.0017364997 -0.03252705 0.0575751 -0.05110971 -0.05416282
0.030250363 0.045331728 -0.037260886 -0.006662319 0.057587825 -0.0006053161 0.0408708 0.05654346
0.054006845 0.011309075 -0.061265044 -0.017196149 -0.028003627 -0.0328643 -0.04491745 0.004563079
-0.046814155 -0.038929544 -0.021765448 0.02898314 0.006058408 -0.0374865 -0.04796563 -0.039830573
-0.036342617 -0.039382946 0.007707152 0.00083770195 0.055865545 0.042716946 -0.05216433 0.06023906
-0.023137853 0.016789721 0.009901542 -0.0033090983 0.060684457 -0.039695725 -0.032353144 0.04668893
-0.05744867 0.055319555 0.055688024 0.0455644 0.029055614 0.029305803 -0.04099912 -0.023343492
-0.04993543 0.0059030065 0.058091234 -0.028878506 0.011562466 -0.0350527 -0.047272075 -0.02070754
0.0046189884 -0.02941504 -0.0011817189 0.05209607 0.0032103017 -0.0298815 0.026282236 0.025083024
-0.0316192 0.042186573 -0.016249428 0.018637594 -0.046239704 -0.011523139 -0.022554148 0.015932875
0.0029995602 -0.007884765 0.04561368 0.0053992886 0.06305485 0.020342255 -0.04808891 0.048070844
0.047110707 -0.041988105 -0.019433724 0.025310475 0.050323896 0.032063257 -0.030597989 0.023335394
0.02566065 -0.04839617 0.008482577 0.032371655 0.03735779 0.056576625 0.0023947298 -0.008994063
0.017193729 -0.025060756 -0.007039968 0.050717853 0.0437165 0.018260924 -0.035620634 0.0587426
0.012313948 -0.0027593693 0.019101078 0.056811176 -0.03830438 -0.046592128 0.054139268 0.0046586883

fc2.weight f4 [84, 120]
00000000: e76c 0a3c df1d 9d3c 421c 843d 17f7 e33d
00000010: 04f2 863d 0874 d3bc 1d7a 123d b870 8e3d
00000020: c7f9 183e 3b6f c9bd 7e5c 103d 029d adbd
00000030: 21db 9d3d 35c1 5fbd f106 95bd 8ebd 8bba
00000040: 3376 00bd b303 7c3d 3c75 e93d eb14 e2bc
00000050: fa35 b43d a5a1 b1bd 4fa4 a2bd eb35 a9bd
00000060: a3fe 3d3d 1568 fe3d 1177 bcbd be94 323c
00000070: 8639 b7bd 3656 c23c 0322 e83c 7fd4 b83d
00000080: 1d51 c6bd 8c03 4cbd 92fc 01bd 3a6c 593d
00000090: 75e5 b93c 681b 84bc 5571 6e3d ad0e 76bd
000000a0: 57f7 8c3d 6bc6 183d 9ba8 6dbc 7dae c4bd
000000b0: aa28 3dbd ce80 1e3e 602d 473c c21b 2b3e
000000c0: 139f 34bd 1dc4 a6bc 88a8 cebc 4c69 48bd
000000d0: 0304 c6bd a0c5 7dbc 2505 1b3d 9026 7ebb
000000e0: ca1e 963d 01de 2cbc 04dd 4c3d df61 163d
000000f0: 585b 8dbd aca8 133e b35f e23b df66 80bd
00000100: 2924 1a3d ca03 47bd ddc9 dfbc cfa3 973d
00000110: 2079 eaba 160b bb3d 6bb2 8c3d 2b1e 1fbd
00000120: 192b ea3a b5c8 973d c6e4 663d 682b a8bd
00000130: 79d7 9d3d adab 36ba eb22 043d eb74 cd3d
00000140: 8791 703d 8d0e 04bd 9ae7 583d 085c 92bd
00000150: ced1 35bc bedf cd3d cf22 383d 0cff 903d
00000160: 8922 41bc 6b3c 883c 4820 ba3b 3f84 50bd
00000170: 12bc 2b3d f124 fabb 4500 823d d384 17bc
00000180: b6a5 d73a 2590 6e3d ab88 65bd 3d9a c63d
00000190: 19bf 9f3d 4b22 9fbd 759f a3bd 8757 b3bd
000001a0: a4ad 443d 2f58 10bd 0459 f2bc 2e59 2bbd
000001b0: 33aa 3f3d 184e 823d 751d e9bd 0813 1dbd
000001c0: 8d6c 7a3d 547f 3b3e 4cc8 aebd e2c1 d43d
000001d0: 8c70 d5bd c861 96bd 2842 ba39 648a f73c
000001e0: 183e cd3b 9e35 c3bd 535f 85bd 552a 19bd
000001f0: 0718 093d e293 2cbd 8a3e c1bc 6589 b6bd
00000200: b878 69bc daca d3bd 87c9 e2bd 5fb9 1dbd
00000210: 7f63 8b3c 06b9 d33c 949d 03bd 102c 9b3c
00000220: 5cff b03d 28fe 453d 5ac9 103d c744 413d
00000230: 64a4 a4bd 5727 4f3c a689 debd b0c7 2f3d
00000240: b70a 4d3d cf58 1ebd 5d67 9b3d b2c0 0f39
00000250: a5eb 19bd 47bc 93bd 20aa ff3c 3eb0 003d
00000260: 42f7 c03c fa88 253e 7987 61bd f694 083e
00000270: efb6 443d b756 8abd 18c8 9f3c 3b5a 963d
00000280: 72a7 213d 27ac 11bd 4d4d b4bc 2ae8 a43d
00000290: 14d1 8b3d f362 20bc 799e 0fbd 56d9 db3a
000002a0: ed50 b33c e33b 03bc 4535 acbd 8b8f a43d
000002b0: e863 b03d 20dc 023d 32b2 fc3c d2a3 4dbc
000002c0: 30f0 813d 0853 a53d e1a2 ffbd 2073 703d
000002d0: 9907 6f3d 3765 783c 3f94 613d a0b9 c9bd
000002e0: 5735 b6bd 9ea4 89bd 26fd 43bc 289d 72bd
000002f0: d4c3 f83d 9eee 803b 93a7 523d b5ca 77bc
00000300: 12a9 8ebc 5a30 adbd f697 d1bd 206a ec3d
00000310: ff6d 433c cfae 2cbd 629a 46bd e2f6 1d3d
00000320: ef8f 613c c705 82bc 0d5c 46bd 8df1 a1bd
00000330: 3c18 c83d 4375 8cbd 2292 c0bd 6adc 37bd
00000340: f8ec 8e3b 4a6e 3b3d 8ed7 32bc 85e3 933d
00000350: eb8d 66bd 546b 89bd 8704 c8bc a36c 1fbc
00000360: f935 dbbd c5fe 983d e74f 063e a5ce 243d
00000370: cdd4 3f3c e8d5 513d 9584 a73d 1037 fb3c
00000380: d510 373d 3784 99bc 255e fe3c 5595 90bd
00000390: 8ded 2e3c 036c 0ebd d8a9 963d 9f3a e4bc
000003a0: 5a67 09be 3547 9ebd 97a4 cf3d cefb 243c
000003b0: c307 7a3d a7da 09bd 48b8 2e3d d86f a4bd
000003c0: 5451 123e 7be8 28bd 0e53 4ebd eaae 823c
000003d0: 218c e8bb 4351 423d 495a 493d 1e7c d73d
000003e0: ef3c eabc 2dba 753d 74f1 2bbd a207 433c
000003f0: 7b48 67bd 8940 fd3d 54da 123c e622 af3c
0.008448816 0.019179283 0.06450702 0.11131113 0.065891296 -0.025812164 0.035760988 0.06955093
0.14939032 -0.09835669 0.035244457 -0.084772125 0.07707811 -0.054627616 -0.072767146 -0.001066135
-0.031362724 0.061526965 0.11399314 -0.027597865 0.08799358 -0.086734094 -0.079414956 -0.08262237
0.04638542 0.12422196 -0.092023976 0.010899721 -0.089465186 0.02372275 0.02833653 0.090249054
-0.0968344 -0.04980807 -0.03173501 0.05308173 0.022692421 -0.01612635 0.05821355 -0.06007259
0.06883114 0.0372986 -0.014505531 -0.096035935 -0.04618136 0.15478823 0.012156814 0.16709808
-0.044097017 -0.020357186 -0.025226846 -0.048928544 -0.09668734 -0.015489012 0.037846703 -0.003878031
0.07330091 -0.010550977 0.050015464 0.03671443 -0.06902188 0.14419812 0.006908381 -0.06269621
0.03763214 -0.048587598 -0.027317936 0.07404291 -0.0017888881 0.09132974 0.06869968 -0.03884713
0.0017865627 0.07411329 0.05637052 -0.08211404 0.07707114 -0.00069683307 0.032259863 0.10032066
0.058732536 -0.03224044 0.052955247 -0.0714646 -0.011097385 0.10052441 0.04495507 0.07079896
-0.011788019 0.016630372 0.0056801178 -0.05090737 0.041927405 -0.0076337983 0.06347708 -0.009247976
0.0016452584 0.058242936 -0.05603854 0.09697387 0.07800121 -0.07770213 -0.079893984 -0.08756929
0.04801716 -0.03524035 -0.029583462 -0.041833095 0.046793174 0.063625515 -0.113825716 -0.038348228
0.06113868 0.1831029 -0.08534297 0.10388543 -0.10421857 -0.07342869 0.00035525975 0.030217357
0.0062635057 -0.09531711 -0.06512322 -0.037393887 0.03347018 -0.04213322 -0.023589391 -0.08912925
-0.014249973 -0.10341425 -0.110735945 -0.03850686 0.017015217 0.025845062 -0.0321327 0.01894191
0.08642456 0.048338085 0.035348274 0.04718473 -0.080391675 0.012643657 -0.10866098 0.042915046
0.050059047 -0.038658913 0.07588074 0.00013709327 -0.037578244 -0.072136454 0.031209052 0.031418078
0.023555402 0.16165534 -0.055060837 0.13338074 0.04802602 -0.06754821 0.019504592 0.07341429
0.03946633 -0.035564568 -0.022009516 0.08052094 0.06826988 -0.009789216 -0.03506324 0.0016773145
0.021889174 -0.008009884 -0.08408598 0.08035191 0.086128056 0.03194821 0.030846689 -0.012551265
0.0634464 0.080724776 -0.124822386 0.05870354 0.058356855 0.01516085 0.05507302 -0.09849858
-0.088968925 -0.06720851 -0.011962211 -0.059231907 0.12146726 0.0039346954 0.051429342 -0.015124013
-0.017414603 -0.08456488 -0.102340624 0.11543679 0.011928081 -0.042158898 -0.048487075 0.038565524
0.013767227 -0.015871895 -0.04842763 -0.079074 0.09770247 -0.068583034 -0.094028726 -0.044887938
0.004361745 0.045759477 -0.01091565 0.0722113 -0.056287687 -0.06709924 -0.024416221 -0.009730491
-0.10703654 0.074704684 0.13116418 0.040236134 0.0117084505 0.051229388 0.08179585 0.030665904
0.044693787 -0.018739803 0.031050751 -0.07059733 0.010676754 -0.034770977 0.07356614 -0.027859984
-0.13418332 -0.077284254 0.10138815 0.010069801 0.06104256 -0.03365579 0.042656213 -0.08029145
0.14288837 -0.041237336 -0.050372176 0.015952546 -0.007096783 0.04744078 0.04915837 0.1052172
-0.028593509 0.059992004 -0.041978315 0.011903675 -0.056465607 0.12365825 0.008963186 0.021378946

fc2.bias f4 [84]
00000000: 7228 353d e950 053b 2147 6cbd 7a7d 483b
00000010: 823a 88bd 0965 82bb 4e5f b13c 2a7a a43d
00000020: 2cab 89bd 2cf3 003c 32d4 ef3d 369a 553c
00000030: 4f92 c83c 185a dabb 471f 953d 7e27 9f3d
00000040: 52a7 9a3d 96cd 8d3c beac 34bd a3b5 57bd
00000050: 1550 283d 88ba 8f3d 508f 14bc e816 62bd
00000060: e787 e73d 156c 84bd 2fa5 193d e386 37bd
00000070: edfd dcbc be66 29bd 3a12 8bbd 72e4 443d
00000080: ac2e 1dbc b65d 6bbd 1079 c23b b7fe bdbc
00000090: 1e98 adbd 749e 1fbd 989d 96bd 5576 ec3b
000000a0: 4136 d83d c516 5e3c 0a81 8e3d 560f c33d
000000b0: 5d43 0dbd a2f3 663d 00a6 4d3d 73ec ddbc
000000c0: a785 023d 4fc7 a43d 4258 81ba 093d 6e3c
000000d0: 9d96 06bc a148 00bd fe6d 8ebd 7d8b 96bc
000000e0: 2115 b7bd edb3 bbbc 0eeb 2d3d 7ce5 963d
000000f0: 741a 5e3d 640c 6a3d 1c42 3d3d 49c9 e43d
00000100: a9c8 92bc f573 223d 49a4 003d bb16 abbd
00000110: 3ffa d83c 5285 28bd bdc7 dd3d a082 243d
00000120: a1b4 cc3c f97a 1b3d b387 923d 974d a7bd
00000130: 7068 96bd d4ea d73d 3701 813d a975 18bd
00000140: 1b1c cb3c f797 14bc 843c 893d 7e2f bcbc
0.044228025 0.0020342416 -0.05768502 0.0030592368 -0.066517845 -0.0039793295 0.02165189 0.080311134
-0.067221016 0.007870477 0.11710395 0.013037255 0.024483828 -0.006663572 0.07281356 0.077712044
0.07551445 0.017309945 -0.044110052 -0.052663457 0.041091997 0.07018 -0.0090673715 -0.055197626
0.11305218 -0.064659275 0.037511047 -0.044806372 -0.02697655 -0.04135775 -0.06790586 0.048069425
-0.009593647 -0.057462417 0.005934842 -0.023192747 -0.0847628 -0.038969472 -0.07354277 0.0072162547
0.10557223 0.013555233 0.06958206 0.095244095 -0.03448807 0.05638469 0.050207138 -0.027090287
0.031865742 0.080458276 -0.0009868222 0.014540919 -0.00821462 -0.031319264 -0.06954573 -0.01837706
-0.08939577 -0.022912944 0.042460494 0.073679894 0.054224446 0.057140723 0.046205625 0.111712046
-0.017917948 0.039661366 0.031406675 -0.08353945 0.026486514 -0.04114277 0.10829113 0.040163636
0.024988474 0.037959073 0.07154789 -0.08169096 -0.073441386 0.10542837 0.0629906 -0.037221584
0.024793675 -0.009069434 0.067009956 -0.022971865

fc3.weight f4 [10, 84]
00000000: acc9 afbc bb68 9a3c ae02 c0bc b2e7 24be
00000010: 12bc 853d bd2d cf3c 1a67 df3d 8bfd 4dbb
00000020: 26fb 6b3e 60db 343d 6920 87bc 6921 ec3c
00000030: 6c2a 7b3e 73bc 1fbe c6d7 00bd 0abe f8bd
00000040: d143 0d3e 5794 f63b 834c 763c 13ee 88bd
00000050: ea16 2f3e e439 51be d7fd 453e f038 16be
00000060: 99a8 80bc 462d a43c eacd 933e d1bd 8fbd
00000070: cb89 a13d 1ea2 95bb 0e69 9ebd b69d d1bd
00000080: 2a24 dcbd 50dd 983d 059f 633d dc75 2cbc
00000090: a32e 0fbe 02ab 68bd 1e38 b43d 6cca a6bd
000000a0: 002e 64be 5629 a83d f34f 063d e7cc 2ebd
000000b0: da84 dbbd 3e62 bd3e e604 633e 01ff f23c
000000c0: 53b6 d3bd 8422 81be 5ff5 1dbc c0ba 66bd
000000d0: c038 44be 7074 973c 3554 a43d 8184 4a3d
000000e0: b930 b8bd 08bc ae3d 0bb1 2bbe c706 c8bd
000000f0: e08d 7dbd 0961 e73c 445e a93c 325b f739
00000100: 40ce ffbd cd5b 6ebd a69d 57be 57e8 5e3d
00000110: 7801 203d 59dc 703e 328e c53c dc34 34be
00000120: e319 693b 2785 85bd f5b1 8ebe 9b49 2cbd
00000130: d71e 8c3d 2f80 51be 1468 b8bd 5b71 573e
00000140: 410a abbc 335a 003e 263d 143d c8b5 6eba
00000150: 2a01 7dbd 5fe1 d9bd 2ce1 6ebe 3af1 283d
00000160: f672 7e3d 2937 7dbd 7044 85bd d5e0 eebd
00000170: 89e5 dcbd b8bb 16be 7582 13bd 7a3f b9ba
00000180: 3aae 33be f205 673e 44da 543c 662e b6bc
00000190: 92f4 293e 5fe1 a0bc bb05 29bd 16ab f2bc
000001a0: faae dcbd 240b f63e 6487 6bbd 999a b5bd
000001b0: f1f7 47bd 2c1f b2bc 0c51 80be 8e39 ddbd
000001c0: 5f8c cc3d 7340 733c 2d9d 2fbe 700f 9dbc
000001d0: 8a4d e0bc b6d1 b03d 3e37 a2bd 473e 7a3d
000001e0: 6e59 0c3e 6dc2 76bd 9c8e 093d 483d 1abd
000001f0: ccce 573d ff5a ad3d f6c2 26be b530 58be
00000200: 3f3d a7bc d211 52be 54a3 0cbe 5cb1 10bd
00000210: 3810 503e 68cc 083e 3006 0cbc ff6c 0ebb
00000220: a22f 50be d028 e6bd 3660 253d 52ca 9bbd
00000230: 9d5b 713c 0f71 80bd 9f7f 45be fb37 5f3e
00000240: 90ea 76be 8f0c cb3d 424c d9bd 7925 75bd
00000250: 0b4d 753e 86fc 46bc 367a 793d e6e7 01be
00000260: 6dfd 183d c012 ca3c d5d4 17be a9f3 213e
00000270: 6620 2b3d 63d1 243d d938 123d 16f2 e4bd
00000280: 4dc2 c73d e251 4a3c 4f4f a3bd 1918 18bc
00000290: 5450 103c ac45 8c3e 436a d3bd 72c3 8a3d
000002a0: f42c 62bd 2885 8c3d 3760 493d 309e e73d
000002b0: f584 cabd 2585 10be 34d6 c0bb e393 eb3d
000002c0: 0074 adbd 95a2 f5bd 1412 3ebe e294 b4bd
000002d0: 3535 523e 1756 25be 7a2b 193e 9251 1ebe
000002e0: 3896 06be 8a97 83bd 5983 e5bd d1d7 78bd
000002f0: cb7a 1c3e 4e85 dd3d fb18 e03d b844 b5bd
00000300: 2fc4 27be 8a8d 223d 447f 26be 9204 9d3d
00000310: 5ccb 8ebd a960 00bd 9f5a debd e620 b4bd
00000320: bfff 4cbd aaab 7bbc 92c6 4dbc 1d78 a73d
00000330: c5f7 0bbe 2f1a 2cbd 434b 613d 680a 183d
00000340: de82 163d 21d6 e73d b485 1a3e dbbd 183e
00000350: 194c a4bc 4b52 fe3d c794 00be cf41 eabd
00000360: 98d6 1dbd c5d7 48be cd33 093c 80b0 3e3e
00000370: 727e f2bd f5b2 313e 8ffe 64bd f4e2 bdbc
00000380: 73f5 b8bd 3e40 a3bd 34f6 af3d 4f8d f2bd
00000390: d72e d4bd 856a 123d 7fdd 323e e30b 22be
000003a0: a4cb f0bd f3e9 37be 3551 43bc e7ea dfbd
000003b0: 83b6 b13d 96b0 1e3e b9f6 9ebd 6445 bd3d
000003c0: 3046 25be 93ba 993d 8ff4 0d3f 21b7 89bd
000003d0: 5e69 84bc 50ca 4b3e 40d9 a0bd 27de 673d
000003e0: 2a39 8e3d ffa4 e13b fc41 513d 7a66 013c
000003f0: 8b72 243e 33c0 22bc 68c0 3dbe a895 57be
-0.02145847 0.018848768 -0.023438778 -0.1610401 0.06530012 0.025290364 0.10908337 -0.003143164
0.23045024 0.044154525 -0.016494947 0.028824525 0.24527901 -0.15599231 -0.031455778 -0.12145622
0.13795401 0.0075250077 0.01503289 -0.06686034 0.17098585 -0.2043224 0.19335113 -0.14670157
-0.015705394 0.02004112 0.28868037 -0.070186265 0.0788761 -0.004566445 -0.07734881 -0.10235159
-0.10749085 0.07464087 0.055571575 -0.010526147 -0.13982634 -0.05680371 0.08799766 -0.08144078
-0.22283173 0.08211009 0.03279109 -0.04267588 -0.10718699 0.36989015 0.22169837 0.029662611
-0.1033751 -0.25221646 -0.009641021 -0.056330442 -0.19162273 0.018488139 0.08023874 0.04944277
-0.08993668 0.08531958 -0.16766755 -0.09766918 -0.06190288 0.028244512 0.020674832 0.00047179457
-0.12490511 -0.058193017 -0.21056232 0.054420795 0.0390639 0.23521556 0.024115656 -0.17598289
0.0035568408 -0.065195374 -0.27870145 -0.042062383 0.0684182 -0.20459054 -0.09004226 0.21039335
-0.020878913 0.12534408 0.03619113 -0.0009106067 -0.06176869 -0.10638689 -0.23328084 0.041245677
0.062121354 -0.061820183 -0.06507194 -0.11663977 -0.10785968 -0.14720047 -0.036013085 -0.0014133297
-0.17546931 0.22560862 0.012991492 -0.022238921 0.16597202 -0.019638715 -0.04126523 -0.029622596
-0.10775562 0.48055375 -0.057502165 -0.08867378 -0.04882044 -0.02174338 -0.25061834 -0.10801993
0.09987711 0.014846909 -0.17149802 -0.0191724 -0.027380724 0.08633749 -0.07920693 0.06109455
0.1370599 -0.060244013 0.03358327 -0.0376561 0.05268745 0.08464622 -0.16285309 -0.2111233
-0.020414947 -0.2051461 -0.1373418 -0.035325393 0.20318687 0.13359225 -0.008546397 -0.0021732447
-0.2033067 -0.11238253 0.040374957 -0.07606949 0.014731315 -0.06271564 -0.19286965 0.21798699
-0.24112916 0.09914505 -0.10610248 -0.05985019 0.23955171 -0.012145167 0.060907565 -0.12686118
0.03735106 0.024667144 -0.14827283 0.15815605 0.041778944 0.04023875 0.035698745 -0.11178987
0.09753857 0.012348624 -0.07974111 -0.009283089 0.008808214 0.27396905 -0.10323002 0.067755595
-0.055218652 0.06861335 0.049164023 0.11309469 -0.09888641 -0.1411329 -0.00588491 0.115028165
-0.08469391 -0.11993901 -0.18561584 -0.0881746 0.2052811 -0.16146122 0.14957991 -0.15460804
-0.13143241 -0.06425388 -0.11206693 -0.060752694 0.15281217 0.108164415 0.10942265 -0.08850998
-0.16383432 0.039685763 -0.16259485 0.07666887 -0.069723815 -0.031342182 -0.10857128 -0.087953374
-0.050048586 -0.015360752 -0.01255955 0.08177207 -0.13668735 -0.042017158 0.055003416 0.0371193
0.0367459 0.11320139 0.15090066 0.14916174 -0.020055817 0.1241804 -0.12556754 -0.11438333
-0.03853473 -0.1961356 0.008374167 0.18622017 -0.11840524 0.17353423 -0.05590683 -0.023179509
-0.09031191 -0.079712376 0.085918814 -0.11843359 -0.103604965 0.035746116 0.17467307 -0.15824847
-0.11757591 -0.17960338 -0.011921217 -0.10933476 0.086773895 0.1549705 -0.07761902 0.09241751
-0.16140056 0.07506289 0.5545129 -0.06724382 -0.016163524 0.19901395 -0.07853937 0.056608345
0.06944497 0.006886124 0.05108832 0.0078979675 0.1605932 -0.009933519 -0.18530428 -0.21053183

fc3.bias f4 [10]
00000000: f102 06bb a05c 0cbd 4867 8c3c d6da d13c
00000010: 2da5 9abd 5c91 14bd 8448 fabc ac65 ccbd
00000020: 7d8a 973d f309 00bc
-0.002044853 -0.03426802 0.017139092 0.025617044 -0.07551036 -0.036271438 -0.030552156 -0.0998033
0.073994614 -0.007814872
