model/ANN_SimpleLSTM_Acc_90.1.pt (torch, 382923 bytes, 8 tensors)

weight_ih_l0 f4 [512, 28]
0.042366277 -0.0013125774 0.010451192 -0.13212568 -0.008240961 -0.036081556 -0.005950963 -0.07815358
0.03097549 -0.08336843 0.033408664 0.041019436 -0.062345926 -0.0466306 -0.03842157 0.009785487
-0.035884254 -0.06729477 -0.110646605 -0.053049903 -0.10052372 0.054427434 -0.008785802 -0.11791833
-0.049734022 -0.06834039 0.03153111 -0.041803453 -0.09061645 0.045337547 -0.036811158 -0.024302142
-0.051491536 -0.066833146 -0.058748055 0.06227375 -0.0062214816 0.006448645 -0.090364285 -0.014659905
-0.04828276 0.006319153 0.01884341 -0.062768176 0.010440548 0.060990788 -0.017547427 0.027092645
-0.06813943 -0.09358546 -0.070129596 -0.07691204 0.021689765 -0.038122255 -0.06003126 0.009752405
0.035049997 0.054662794 -0.022758225 -0.043908805 -0.060540132 -0.06745416 -0.06139793 0.056835465
0.060895145 -0.009236951 -0.015609346 -0.004718208 -0.024750637 -0.040080123 0.0013954195 -0.079663455
0.042372998 -0.07656256 -0.049657952 0.07412696 -0.051973917 -0.023452006 -0.050738223 -0.0018162089
-0.05782526 -0.11044102 -0.10310829 -0.048603408 0.0128613645 -0.06878498 -0.03121455 0.0052265152
-0.07423318 -0.10068146 0.03498615 -0.021236325 0.09298308 0.040188484 -0.026492348 -0.060679056
0.050072767 0.087248586 -0.056594204 -0.031907182 -0.031211408 0.045293227 0.047273047 -0.051969346
-0.0057502836 0.08601489 0.00090021983 -0.089993015 -0.07828696 -0.099137634 0.019033358 -0.10461915
0.016347643 -0.10702095 -0.08582903 -0.038196012 -0.0052670096 0.058866177 0.002165225 -0.110751115
-0.020864835 -0.08620642 -0.05547711 -0.036072824 -0.0325778 0.02692646 0.062665544 -0.085300654
0.043274753 0.054628767 -0.05693589 -0.05920016 0.06863202 0.020917935 -0.09809311 -0.039463703
0.028341759 0.004749372 -0.10230503 -0.06678972 -0.11766797 0.04968567 -0.03967363 0.03361402
-0.09425882 -0.09318741 0.05014212 -0.061668865 0.005784048 0.03427922 0.07749485 -0.03541566
0.052067652 0.1051625 0.055695686 0.0073798094 0.08982286 -0.033661064 -0.0689947 0.06570793
-0.058420327 0.0135374945 0.02118069 0.0035990404 0.06560296 -0.03521921 -0.07597789 0.035085198
0.056059394 -0.020460278 -0.03187088 0.051975008 -0.04749605 0.031295918 0.05788428 0.029928122
0.036199775 0.039352372 -0.03139809 -0.014075168 -0.02624109 -0.002779576 0.09033305 0.06609
-0.07072155 0.08463289 0.061739746 0.0346819 0.03297039 -0.027824318 0.012834602 0.0116324555
-0.05703233 0.0665981 -0.03602782 -0.070500515 0.0109221265 -0.092942335 -0.082012475 0.0062617203
0.028063651 -0.055077728 -0.04400304 0.07084376 -0.01701488 -0.044479497 -0.0063819815 -0.03107999
0.049071174 0.048515946 0.004544296 0.09390413 -0.044853423 0.0499598 -0.0393651 0.06448516
-0.060517274 0.05945648 -0.06049485 -0.09167869 -0.08401383 -0.12782672 -0.019851582 -0.019843774
-0.05412244 0.013720519 -0.10505505 0.035128593 0.03084085 -0.09750115 -0.07687828 -0.03886841
0.0007895269 0.009445992 0.07713792 -0.07169822 -0.022513626 0.044688858 0.060313646 -0.01276066
-0.04827752 0.042588376 0.011634671 -0.0091050165 -0.006981638 0.04510822 -0.0053549963 0.049095802
-0.039705493 -0.051124606 -0.04247188 0.06054339 -0.035532787 -0.066695265 -0.06146527 -0.024550622
00000000: 4388 2d3d ca0a acba 7a3b 2b3c f44b 07be
00000010: 1805 07bc 41ca 13bd 4c00 c3bb fc0e a0bd
00000020: 50c0 fd3c 11bd aabd 86d7 083d ff03 283d
00000030: 715e 7fbd baff 3ebd f05f 1dbd 4f53 203c
00000040: 5efb 12bd d7d1 89bd b09a e2bd db4a 59bd
00000050: 61df cdbd 4def 5e3d 53f2 0fbc 2a7f f1bd
00000060: e7b5 4bbd 0cf6 8bbd c426 013d 193a 2bbd
00000070: 1e95 b9bd ddb3 393d 4cc7 16bd 4915 c7bc
00000080: cae8 52bd d1df 88bd cda1 70bd c212 7f3d
00000090: 92dd cbbb 284f d33b e910 b9bd 1930 70bc
000000a0: 25c4 45bd e610 cf3b 7f5d 9a3c 9a8c 80bd
000000b0: d50e 2b3c 7ad1 793d 9fbf 8fbc 65f1 dd3c
000000c0: af8c 8bbd bca9 bfbd 1ba0 8fbd 0f84 9dbd
000000d0: bcae b13c 1526 1cbd 57e3 75bd 8dc8 1f3c
000000e0: 9690 0f3d 18e6 5f3d 756f babc b8d9 33bd
000000f0: eef8 77bd 6825 8abd 657c 7bbd 4ecc 683d
00000100: 306d 793d 9556 17bc 58be 7fbc 339b 9abb
00000110: d9c1 cabc 0e2b 24bd 82e6 b63a 9826 a3bd
00000120: 4f8f 2d3d d5cc 9cbd 2366 4bbd e0cf 973d
00000130: 9ae2 54bd 6c1e c0bc e2d2 4fbd dc0d eeba
00000140: 2eda 6cbd e72e e2bd 702a d3bd 5e14 47bd
00000150: 79b8 523c 24df 8cbd a8b5 ffbc 3043 ab3b
00000160: 9107 98bd 1532 cebd a34d 0f3d cdf7 adbc
00000170: ea6d be3d ae9c 243d 7b06 d9bc 9a8a 78bd
00000180: 1a19 4d3d 63af b23d 53cf 67bd 1bb1 02bd
00000190: 11af ffbc 6485 393d 62a1 413d cfdd 54bd
000001a0: e06c bcbb 9328 b03d bbfc 6b3a 424e b8bd
000001b0: ea54 a0bd ac08 cbbd d8eb 9b3c 9142 d6bd
000001c0: 7eeb 853c cd2d dbbd 21c7 afbd 6c73 1cbd
000001d0: e196 acbb a91d 713d 73e6 0d3b 7bd1 e2bd
000001e0: bbec aabc fe8c b0bd f73b 63bd 19c1 13bd
000001f0: 4d70 05bd e194 dc3c cb56 803d 1cb2 aebd
00000200: de40 313d 6ac2 5f3d 9c35 69bd de7b 72bd
00000210: f28e 8c3d 175c ab3c 0ae5 c8bd b1a4 21bd
00000220: fa2c e83c 9fa0 9b3b 4d85 d1bd 0cc9 88bd
00000230: e8fb f0bd 3383 4b3d d180 22bd dbae 093d
00000240: c50a c1bd 0ad9 bebd d361 4d3d 7e98 7cbd
00000250: 1c88 bd3b 5e68 0c3d 9fb5 9e3d 0310 11bd
00000260: e444 553d 705f d73d 2921 643d 54d2 f13b
00000270: 0cf5 b73d 2fe0 09bd 184d 8dbd e191 863d
00000280: 274a 6fbd 5ecc 5d3c 2083 ad3c e1dd 6b3b
00000290: d85a 863d 0542 10bd 4c9a 9bbd 7fb5 0f3d
000002a0: 899e 653d 509c a7bc 0a8b 02bd bfe3 543d
000002b0: 388b 42bd 2630 003d 1118 6d3d d22b f53c
000002c0: 3746 143d f42f 213d 499b 00bd 899b 66bc
000002d0: 8ef7 d6bc 8c29 36bb 8900 b93d 325a 873d
000002e0: 76d6 90bd 0254 ad3d d1e2 7c3d 9c0e 0e3d
000002f0: f60b 073d d3ef e3bc 3948 523c 0e96 3e3c
00000300: bc9a 69bd 9664 883d e891 13bd 9362 90bd
00000310: b8f2 323c 8d58 bebd 28f6 a7bd 1e2f cd3b
00000320: bee5 e53c 2f99 61bd 883c 34bd 8916 913d
00000330: ca62 8bbc 2230 36bd f11f d1bb 779b febc
00000340: dbfe 483d a8b8 463d 51e8 943b cf50 c03d
00000350: 39b8 37bd a6a2 4c3d 4d3d 21bd cc10 843d
00000360: f6e0 77bd a388 733d 73c9 77bd 09c2 bbbd
00000370: 710f acbd 02e5 02be c99f a2bc 698f a2bc
00000380: 7eaf 5dbd 07cc 603c 1a27 d7bd 00e3 0f3d
00000390: f3a5 fc3c afae c7bd 5c72 9dbd 7b34 1fbd
000003a0: 41f8 4e3a 5dc3 1a3c 7cfa 9d3d 84d6 92bd
000003b0: 7f6e b8bc aa0b 373d 710b 773d 1612 51bc
000003c0: a6be 45bd 2671 2e3d 599f 3e3c 352d 15bc
000003d0: 39c6 e4bb 66c3 383d f778 afbb ae18 493d
000003e0: 3aa2 22bd 0968 51bd fef6 2dbd 59fc 773d
000003f0: d48a 11bd 8797 88bd 02c3 7bbd 631e c9bc

weight_hh_l0 f4 [512, 128]
-0.08651776 0.0030112534 -0.086554475 -0.042343844 -0.015920432 -0.058999803 -0.08489103 0.06943877
0.027141958 0.024807604 -0.08676617 -0.047485046 0.0749937 0.051694617 0.04089449 -0.06713351
-0.08590205 -0.031340953 0.07284729 -0.07344529 -0.020148406 0.033423282 -0.047273796 -0.04425403
0.052455235 0.023886362 0.07595751 0.019762836 0.0369637 -0.05176982 0.015212897 0.049858402
0.04631687 0.042791393 0.07994507 -0.013173455 0.0195665 -0.034913097 -0.062040213 0.038465183
0.04510381 -0.036295317 0.08241647 -0.06646912 -0.050931096 0.05180911 0.09736056 -0.005292214
0.080182716 -0.036803674 0.016578125 0.03536316 0.043282747 -0.08916701 0.068950355 -0.04874709
0.08128226 0.048781347 -0.08127322 -0.016045194 0.03235349 -0.037336327 -0.021108225 -0.033787206
0.034997314 0.065340385 0.010070292 -0.030701827 -0.047467303 -0.04839326 -0.082791224 0.077163085
0.05128866 0.079218246 -0.02620501 -0.05620404 -0.060971726 -0.03961669 -0.054827742 -0.083467
0.03422979 0.025206909 0.00015888798 0.05242644 0.00582182 -0.015351457 0.0012597037 0.015601363
-0.0073373155 -0.035950035 0.055814166 0.05025603 -0.072257444 -0.03687509 -0.060185295 0.025874013
-0.018188685 -0.070197195 -0.07651794 -0.02401227 0.0419933 0.04548787 -0.0057452507 0.01924137
0.0061480748 0.00037523155 -0.018786253 0.08822646 -0.039229944 0.00012364612 -0.07900905 0.05516955
0.00555719 -0.003859378 0.03624631 -0.037691176 -0.050907847 -0.039841164 -0.00035332906 -0.0037237776
-0.0055474886 -0.09508944 0.0265298 0.07561568 0.07496184 -0.038150005 0.020191824 -0.08680589
0.08139817 -0.020021562 -0.049557198 -0.062579356 -0.0622187 -0.019985376 0.006392915 0.079688445
0.003962332 0.0639965 0.07543689 -0.030082257 0.043092966 -0.022508709 -0.004567741 0.09254974
0.0076466203 -0.018355042 -0.04732487 0.064224705 0.034932185 -0.056811146 0.02690238 0.07054583
-0.07007819 0.017285082 0.061832197 0.050946943 -0.084567055 -0.011595032 0.04533825 0.006834448
-0.08794657 0.020714937 -0.06681715 0.016369784 -0.043317623 -0.0024954788 -0.019985978 0.04328544
-0.067430235 0.0075571504 0.025024857 0.040074002 0.046607465 -0.058073662 0.09102991 -0.030843366
-0.036172267 -0.03260705 -0.014814828 -0.041258626 0.01595339 -0.009566008 0.025413658 0.027626025
0.01420493 0.050830334 0.0713422 -0.023106059 0.089178845 0.07126273 -0.049027767 0.009291705
-0.033545464 -0.05717174 0.04239693 -0.07138348 -0.043154314 0.07477818 -0.060402587 0.023614127
-0.045773916 0.016339479 0.05872345 0.026944263 0.036269136 0.019354811 0.07170948 0.044334013
-0.049352683 -0.02336513 -0.031196628 0.058846876 0.054900154 -0.068849616 0.008556852 -0.07610436
0.085915096 0.01808896 0.04726379 0.03580477 -0.07446767 -0.06743318 -0.04034305 -0.079992145
-0.036516808 -0.0047539906 -0.041298 -0.08890751 0.07232099 0.020409685 0.051944014 0.004985289
0.085686795 -0.0015857384 -0.06010725 0.09028083 0.05408436 0.082883626 0.0017994026 0.07447066
0.023556076 -0.01974563 0.023161663 -0.06222496 -0.03252835 -0.06501406 -0.00069392985 -0.0290125
0.07382928 0.074636504 -0.04128608 -0.05731632 0.05218291 0.029753124 -0.057564024 0.012594479
00000000: 3930 b1bd 7358 453b 7943 b1bd bd70 2dbd
00000010: 916b 82bc c7a9 71bd 59db adbd ea35 8e3d
00000020: d058 de3c 5139 cb3c 76b2 b1bd ae7f 42bd
00000030: 4c96 993d bcbd 533d fb80 273d 4b7d 89bd
00000040: 6aed afbd 5f5f 00bd f630 953d 7c6a 96bd
00000050: 450e a5bc dae6 083d 2ba2 41bd b743 35bd
00000060: 4ddb 563d 55ad c33c 9c8f 9b3d ace5 a13c
00000070: 4067 173d 970c 54bd 843f 793c 5338 4c3d
00000080: c2b6 3d3d 0746 2f3d 3eba a33d 7ad5 57bc
00000090: ed49 a03c 0901 0fbd e11d 7ebd ab8d 1d3d
000000a0: c6be 383d 66aa 14bd f7c9 a83d f620 88bd
000000b0: 209d 50bd ca35 543d f964 c73d 4f6a adbb
000000c0: d636 a43d 73bf 16bd d9ce 873c f6d8 103d
000000d0: 4049 313d 319d b6bd d835 8d3d 07ab 47bd
000000e0: 5077 a63d f3ce 473d 9372 a6bd 3671 83bc
000000f0: 1885 043d faed 18bd 28eb acbc 7464 0abd
00000100: 5859 0f3d 2ed1 853d defd 243c 6682 fbbc
00000110: 136d 42bd 0338 46bd 728e a9bd ae07 9e3d
00000120: 0f14 523d 2d3d a23d e4ab d6bc 3536 66bd
00000130: 7dbd 79bd 1c45 22bd 0e93 60bd bff0 aabd
00000140: 8934 0c3d b87e ce3c 2b9b 2639 1bbd 563d
00000150: f7c4 be3b ad84 7bbc a41c a53a dc9c 7f3c
00000160: dd6d f0bb 5840 13bd 659d 643d 44d9 4d3d
00000170: b6fb 93bd 560a 17bd db84 76bd bdf5 d33c
00000180: 7000 95bc 8cc3 8fbd 70b5 9cbd 61b5 c4bc
00000190: 2b01 2c3d 7d51 3a3d a842 bcbb 14a0 9d3c
000001a0: ca75 c93b baba c439 a1e5 99bc 13b0 b43d
000001b0: 94af 20bd 01a7 0139 7fcf a1bd 77f9 613d
000001c0: 1719 b63b 9eed 7cbb 0377 143d 1062 1abd
000001d0: bf84 50bd 7d30 23bd 063f b9b9 9f0a 74bb
000001e0: b5c7 b5bb 41be c2bd 0655 d93c 65dc 9a3d
000001f0: 9885 993d 2e43 1cbd 5369 a53c 49c7 b1bd
00000200: 15b4 a63d 4204 a4bc 7dfc 4abd 9b29 80bd
00000210: 09d9 7ebd 5fb8 a3bc a87b d13b b233 a33d
00000220: 73d6 813b 9910 833d a87e 9a3d 116f f6bc
00000230: 4082 303d 2f64 b8bc fdac 95bb b88a bd3d
00000240: 8090 fa3b 505d 96bc b9d7 41bd 3e88 833d
00000250: 0d15 0f3d ceb2 68bd 6162 dc3c 557a 903d
00000260: 2785 8fbd 7299 8d3c c243 7d3d bead 503d
00000270: 7e31 adbd 17f9 3dbc 9ab4 393d 81f3 df3b
00000280: 551d b4bd 5fb2 a93c 6ed7 88bd ed19 863c
00000290: d26d 31bd 308b 23bb a2b9 a3bc 134c 313d
000002a0: dd18 8abd f9a1 f73b ee00 cd3c a324 243d
000002b0: 78e7 3e3d a6de 6dbd e46d ba3d 3aab fcbc
000002c0: 5f29 14bd f88e 05bd e4b9 72bc cefe 28bd
000002d0: afb0 823c bfba 1cbc 4e30 d03c f94f e23c
000002e0: cbbb 683c 7833 503d dc1b 923d eb48 bdbc
000002f0: 66a3 b63d 32f2 913d 57d1 48bd 3c3c 183c
00000300: f866 09bd ea2c 6abd 67a8 2d3d 8131 92bd
00000310: 94c2 30bd 4d25 993d b468 77bd 6a72 c13c
00000320: 6e7d 3bbd 5fda 853c 0088 703d 37ba dc3c
00000330: f28e 143d fb8d 9e3c 6bdc 923d 9597 353d
00000340: 0a26 4abd 3b68 bfbc 1290 ffbc 6c09 713d
00000350: fcde 603d 0701 8dbd 0a32 0c3c 9adc 9bbd
00000360: 41f4 af3d 4c2f 943c ad97 413d 06a8 123d
00000370: 8182 98bd 681a 8abd c13e 25bd ecd2 a3bd
00000380: a692 15bd 5dc7 9bbb 1728 29bd 2415 b6bd
00000390: 071d 943d 3632 a73c 3fc3 543d a35b a33b
000003a0: 8f7c af3d 8dd8 cfba 0533 76bd 28e5 b83d
000003b0: 9087 5d3d e4be a93d efd9 eb3a 1384 983d
000003c0: acf8 c03c 96c1 a1bc 87bd bd3c 9adf 7ebd
000003d0: 723c 05bd 1726 85bd d8e8 35ba 9fab edbc
000003e0: ce33 973d 06db 983d 981b 29bd 84c4 6abd
000003f0: bfbd 553d d3bc f33c 41c8 6bbd 1359 4e3c

bias_ih_l0 f4 [512]
0.0657571 0.109791026 0.07217802 0.111594215 0.056179702 0.11427033 0.030125774 0.10923286
-0.047149714 0.04701508 0.033940267 0.019004026 -0.055967517 0.10186672 0.02123365 0.07157994
-0.0032389509 0.09016129 -0.015903851 -0.05868332 0.08566165 -0.019323979 0.015684672 -0.025342565
-0.014510602 0.03976665 -0.027612388 -0.045935206 -0.053751074 0.0021803435 -0.0625941 0.03543117
-0.009044821 0.03238441 -0.016410101 -0.047719073 0.074982256 0.054227725 0.12103139 0.034731697
0.042794377 0.040088557 0.025046187 -0.07138075 -0.016694443 0.022708734 0.10850555 0.033145092
-0.034721296 0.038007572 0.020035202 -0.02892067 0.071185425 0.014690284 0.09023224 0.08772079
0.060539264 -0.03056683 -0.016669396 0.093530566 0.02244526 0.01741228 0.046384774 -0.05080891
0.10047794 0.045770586 0.022481529 -0.03988188 0.05892925 -0.0019244639 0.030933734 0.017664406
-0.03818363 0.01562742 0.05762024 0.07862955 0.030800961 0.014357027 0.037913427 0.060484163
0.056992702 0.06980701 -0.033777453 0.08580035 0.051479794 -0.024988886 -0.009750396 -0.035488397
-0.038610466 -0.06342554 0.058066484 0.034092054 0.090309806 -0.03532171 0.074093334 -0.033695985
-0.0606267 -0.0007810695 -0.03270836 0.051124346 0.0057028416 0.054802675 0.06004336 -0.018482205
-0.029683134 0.07223569 0.08425859 0.019997569 -0.03689768 0.071468994 0.019865531 0.03699582
0.011560795 -0.036728505 0.08333821 0.058833767 0.09230903 -0.04061314 -0.043747 0.09217457
0.10240836 -0.018722815 -0.022495627 0.011808615 -0.01246489 0.103514634 0.021104133 -0.030909441
0.085663356 0.038547236 0.011882971 0.053362526 0.09464622 0.027676921 -0.048167177 0.008841286
0.055188406 -0.045476876 0.0072883302 0.10259769 0.027916804 0.071352 0.022905292 0.09361854
0.033539977 -0.026368588 0.056796845 -0.026143787 0.033383362 0.027430499 0.055274855 0.0511318
0.10739819 -0.022996068 -0.034171183 -0.015623691 0.010131609 0.09081185 0.0069066617 0.019497398
0.11038829 0.003887489 0.13284823 0.0672436 0.011589254 -0.008531056 0.12894164 0.013437426
0.088524416 -0.0151922535 0.14228302 -0.035923507 0.03498684 0.0033187508 0.08064997 0.007913724
-0.06479408 0.014515815 -0.043270133 -0.01616163 0.04865568 0.051671125 0.012291895 -0.046399154
0.030036306 -0.072884515 -0.026224963 0.117974125 0.09555027 -0.030701712 0.089261174 -0.04160829
-0.022393413 0.03893395 -0.0015222825 -0.026771015 -0.030926468 0.11432243 0.001723022 0.033870406
0.08860832 0.019461723 0.10842712 0.06393723 -0.0077209827 -0.022918513 -0.025677083 0.012433835
0.10355197 0.040242065 0.005578113 0.088728085 0.14755806 0.07486585 0.087308906 0.029132787
0.15769763 0.025719874 0.06298131 0.07065894 0.12931775 0.023039676 0.047122948 -0.02847666
0.10281635 0.060693935 0.0365981 -0.05158147 0.020209922 -0.07131163 -0.05600679 0.027355174
-0.03768602 -0.00990826 0.07766655 0.16720535 0.06484617 0.08533217 0.060582295 -0.001203261
0.108073324 0.11111983 0.10184594 -0.043692507 0.13184324 0.03382732 -0.0046798354 0.08262666
0.0031387173 -0.019705081 0.19714239 0.13943622 0.043388743 0.1062178 0.009174526 -0.0021738855
00000000: a9ab 863d 1eda e03d 12d2 933d 828b e43d
00000010: b01c 663d 9006 ea3d 54ca f63c 7ab5 df3d
00000020: 0f20 41bd e292 403d f304 0b3d 55ae 9b3c
00000030: 323e 65bd 809f d03d 31f2 ad3c 8198 923d
00000040: 9444 54bb 7ba6 b83d cb48 82bc ec5d 70bd
00000050: 606f af3d 524d 9ebc 247d 803c 369b cfbc
00000060: e0bd 6dbc 5be2 223d 6033 e2bc 8e26 3cbd
00000070: 162a 5cbd 18e4 0e3b 5631 80bd 4620 113d
00000080: bb30 14bc 84a5 043d 7a6e 86bc 1375 43bd
00000090: 4c90 993d e41d 5e3d 4edf f73d d342 0e3d
000000a0: 2849 2f3d e633 243d a92d cd3c 1230 92bd
000000b0: c9c2 88bc ab07 ba3c 2838 de3d 26c3 073d
000000c0: eb37 0ebd d4ad 1b3d dd20 a43c 0aeb ecbc
000000d0: aac9 913d 84af 703c aecb b83d f5a6 b33d
000000e0: 05f8 773d 4a67 fabc 428e 88bc f48c bf3d
000000f0: 1fdf b73c 33a4 8e3c f6fd 3d3d 011d 50bd
00000100: 61c7 cd3d f079 3b3d 2f2b b83c 2f5b 23bd
00000110: cc5f 713d 4b3e fcba be68 fd3c f2b4 903c
00000120: 7066 1cbd 1305 803c 3303 6c3d 8808 a13d
00000130: 4c52 fc3c bc39 6b3c 1c4b 1b3d 3ebe 773d
00000140: 2e71 693d faf6 8e3d 3a5a 0abd 18b8 af3d
00000150: 7adc 523d 7eb5 ccbc 20c0 1fbc 485c 11bd
00000160: 0226 1ebd 40e5 81bd 1fd7 6d3d 1ca4 0b3d
00000170: 59f4 b83d 7fad 10bd 3fbe 973d cd04 0abd
00000180: b453 78bd b0c0 4cba 34f9 05bd c367 513d
00000190: e7de ba3b c578 603d 07f0 753d fe67 97bc
000001a0: 0b2a f3bc 4ef0 933d c58f ac3d f1d1 a33c
000001b0: 0622 17bd 565e 923d 0abd a23c ee88 173d
000001c0: 7d69 3d3c a170 16bd 39ad aa3d adfb 703d
000001d0: 840c bd3d f759 26bd 0e30 33bd 05c6 bc3d
000001e0: 79bb d13d 9760 99bc c048 b8bc ec78 413c
000001f0: 8a39 4cbc 7bff d33d 93e2 ac3c cc35 fdbc
00000200: 4570 af3d b5e3 1d3d cbb0 423c aa92 5a3d
00000210: e1d5 c13d b6ba e23c f24a 45bd 0bdb 103c
00000220: 3d0d 623d f645 3abd f2d2 ee3b bd1e d23d
00000230: c8b1 e43c ff20 923d e1a3 bb3c 14bb bf3d
00000240: 3761 093d f002 d8bc cfa3 683d 7f2b d6bc
00000250: febc 083d edb5 e03c e367 623d 946f 513d
00000260: 95f3 db3d 4062 bcbc 15f7 0bbd 82fa 7fbc
00000270: 0cff 253c 90fb b93d 4751 e23b 02b9 9f3c
00000280: 4113 e23d 3ec5 7e3b 5e09 083e 03b7 893d
00000290: dbe0 3d3c d8c5 0bbc 4709 043e a628 5c3c
000002a0: 4a4c b53d eee8 78bc a4b2 113e 8724 13bd
000002b0: 5c4e 0f3d 667f 593b d02b a53d 90a8 013c
000002c0: c2b2 84bd bed3 6d3c 063c 31bd 6565 84bc
000002d0: 2e4b 473d 1aa5 533d f263 493c 0a0d 3ebd
000002e0: b30e f63c 7a44 95bd bcd5 d6bc 6b9c f13d
000002f0: dcaf c33d 2882 fbbc 90ce b63d 746d 2abd
00000300: 6472 b7bc 3579 1f3d 5387 c7ba e34e dbbc
00000310: 8159 fdbc e121 ea3d 06d7 e13a b2bb 0a3d
00000320: 4778 b53d 316e 9f3c 0a0f de3d 86f1 823d
00000330: 4c00 fdbb 9bbf bbbc bf58 d2bc 49b7 4b3c
00000340: 0e13 d43d ddd4 243d 9ac8 b63b 12b7 b53d
00000350: 7619 173e 4453 993d 03cf b23d e2a7 ee3c
00000360: 7d7b 213e 7cb2 d23c 58fc 803d a2b5 903d
00000370: df6b 043e b4bd bc3c fe03 413d e247 e9bc
00000380: 6191 d23d 349a 783d e4e7 153d 1747 53bd
00000390: 478f a53c d50b 92bd 6067 65bd f517 e03c
000003a0: a85c 1abd 4156 22bc a40f 9f3d e137 2b3e
000003b0: 12ce 843d a2c2 ae3d 2425 783d bdb6 9dba
000003c0: 8c55 dd3d cb92 e33d 9b94 d03d eaf6 32bd
000003d0: ea01 073e 848e 0a3d 4e59 99bb 2b38 a93d
000003e0: f0b2 4d3b 8d6c a1bc b2df 493e 5ec8 0e3e
000003f0: 65b8 313d b888 d93d c050 163c bf77 0ebb

bias_hh_l0 f4 [512]
0.021465143 0.09456091 -0.06086506 0.07556161 -0.059896763 0.01754438 -0.015815217 0.077157766
-0.04588036 -0.060083732 0.0043333406 -0.030133585 0.0757952 0.030874383 0.07701553 0.061504826
-0.048886213 0.023886008 -0.120305136 0.022662675 -0.047052164 0.07297549 -0.02333689 0.07602933
0.04027353 -0.022682775 -0.040020145 0.08439481 0.015891824 0.015224907 -0.00017656112 -0.049775004
-0.034830328 0.09920273 0.016197503 0.03954344 -0.0764122 0.057678595 0.057911664 0.008371068
0.06014271 0.08476276 0.08997703 -0.044639785 0.024481213 0.06780934 0.07583484 -0.012726075
0.017518526 0.039119013 0.033941932 0.048165362 0.026695661 0.097012214 -0.07326236 0.105387054
0.032288678 0.0010606173 0.0060139294 -0.029742543 0.08157947 0.07629718 -0.04424493 -0.017398827
-0.015300275 -0.022230092 0.103916734 -0.04293998 0.034927107 0.08801669 -0.06373446 0.07876715
0.020389253 -0.01767357 0.071974434 0.058888875 -0.036967434 0.11158703 0.10708352 0.032562207
0.028127514 0.042220183 -0.04503508 0.10197832 0.09451046 -0.04336158 0.045157228 0.0065882695
-0.029028088 0.058596898 0.093516484 0.046256177 -0.058694262 0.05882029 0.061072752 0.0060941637
0.084320165 0.07556679 -0.020493958 0.093514666 0.066739924 0.0071978644 0.0830364 0.039857093
0.017693559 0.027356736 0.013369504 -0.06433319 0.01140359 0.03510579 0.036761712 -0.05098902
-0.04269724 -0.038284015 0.06053608 0.09837854 0.0791454 0.07392165 0.01838518 -0.061888
0.03428645 0.009202047 -0.019854218 -0.033049695 -0.01758798 0.03538413 -0.028414408 -0.04408132
0.10266473 0.0859863 0.017156513 0.039619446 -0.0015474524 0.042665716 0.06675826 0.020340212
-0.044145476 -0.06047819 -0.014753244 -0.06377898 -0.0336594 0.035456773 0.004047489 0.07522076
-0.0690316 0.09640601 0.118001126 -0.05761447 -0.035005715 -0.0057445266 0.05883244 0.08586206
0.01103752 0.1272525 -0.016612539 0.046886213 -0.00049609074 -0.05998288 -0.06746608 0.07690424
0.10748183 0.06381285 0.023299268 0.08264522 0.009021404 0.042197116 0.031367715 0.0615592
0.0051167705 -0.047491718 0.13560265 0.020422967 -0.01454165 0.054022923 -0.021974687 0.0816832
-0.030671792 -0.06267485 0.016218841 -0.06825298 0.023481274 0.057219684 0.05710306 0.11266905
-0.028623367 -0.011539016 -0.029131629 -0.032394875 0.015687287 0.08799948 0.04996276 0.007996115
0.060079176 -0.02531213 0.028440015 0.03942614 0.060231876 0.01952508 -0.04899299 0.02015644
0.012756064 0.11207129 -0.052453164 0.0784299 0.124403454 0.08909741 0.08082867 -0.006793639
0.022977797 -0.03310321 0.024145719 0.0418696 0.10675492 0.03533915 -0.04251136 -0.026556864
0.03839149 -0.05386975 0.105768986 -0.0007385524 0.07183833 -0.0078306105 0.10072159 -0.039572902
-0.0015256795 0.08773713 0.043922007 0.085790634 -0.0051954375 -0.024161646 0.099285394 -0.01577314
0.08474828 -0.030361071 0.013135196 0.092651665 0.015711917 0.035266094 0.0024029426 0.107312806
0.10549785 0.07233783 0.051711235 0.09681332 0.08096307 0.023871213 -0.047739618 0.09540168
-0.065005094 0.10176415 0.07290093 0.13356178 0.0755125 0.031934857 0.03569489 0.12454004
00000000: abd7 af3c 26a9 c13d a44d 79bd 0cc0 9a3d
00000010: 4f56 75bd 3bb9 8f3c ea8e 81bc e404 9e3d
00000020: 0bed 3bbd 5c1a 76bd b2fe 8d3b b5da f6bc
00000030: 843a 9b3d 46ec fc3c 51ba 9d3d 7cec 7b3d
00000040: e93c 48bd 97ac c33c 8a62 f6bd 13a7 b93c
00000050: c5b9 40bd 2c74 953d 012d bfbc 44b5 9b3d
00000060: dbf5 243d 3ad1 b9bc 2aec 23bd 30d7 ac3d
00000070: 922f 823c e371 793c 4423 39b9 e0e0 4bbd
00000080: 3faa 0ebd cd2a cb3d a0b0 843c 4df8 213d
00000090: 007e 9cbd 6440 6c3d c834 6d3d ce26 093c
000000a0: 3458 763d 1998 ad3d e145 b83d 35d8 36bd
000000b0: d38c c83c a0df 8a3d 4c4f 9b3d 0781 50bc
000000c0: 0383 8f3c 423b 203d b206 0b3d 0b49 453d
000000d0: dcb0 da3c 57ae c63d 940a 96bd 2bd5 d73d
000000e0: 2241 043d 6904 8b3a 7f10 c53b a2a6 f3bc
000000f0: 2313 a73d b241 9c3d 2c3a 35bd fc87 8ebc
00000100: 01ae 7abc e21b b6bc 4cd2 d43d d5e1 2fbd
00000110: ba0f 0f3d 1842 b43d 3687 82bd ac50 a13d
00000120: 5d07 a73c 2ac8 90bc 5567 933d 7635 713d
00000130: 2a6b 17bd be87 e43d 9b4e db3d f35f 053d
00000140: ac6b e63c 12ef 2c3d b476 38bd 02da d03d
00000150: b38e c13d ea9b 31bd c9f6 383d 69e2 d73b
00000160: 50cc edbc 4d03 703d 9285 bf3d 1e77 3d3d
00000170: 6569 70bd 8bed 703d 6c27 7a3d 8db1 c73b
00000180: 0db0 ac3d c3c2 9a3d f2e2 a7bc 9e84 bf3d
00000190: f1ae 883d 10dc eb3b fd0e aa3d 3141 233d
000001a0: 15f2 903c 3c1b e03c c40b 5b3c 1fc1 83bd
000001b0: 20d6 3a3c 17cb 0f3d 7393 163d ddd9 50bd
000001c0: 4de3 2ebd b3cf 1cbd aef4 773d b07a c93d
000001d0: fc16 a23d 3c64 973d 849c 963c 467e 7dbd
000001e0: f36f 0c3d 2fc4 163c 50a5 a2bc 1e5f 07bd
000001f0: ab14 90bc f3ee 103d 55c5 e8bc 9d8e 34bd
00000200: e341 d23d 9619 b03d d18b 8c3c 0048 223d
00000210: e3d3 caba 3fc2 2e3d 8eb8 883d 84a0 a63c
00000220: e3d1 34bd fbb7 77bd 97b7 71bc 8e9e 82bd
00000230: 70de 09bd 1f3b 113d cca0 843b 580d 9a3d
00000240: 7160 8dbd 8470 c53d 93aa f13d 27fd 6bbd
00000250: 2762 0fbd 953c bcbb 49fa 703d 73d8 af3d
00000260: b7d6 343c 7b4e 023e 0517 88bc c20b 403d
00000270: 160c 02ba 9cb0 75bd a82b 8abd f87f 9d3d
00000280: 6f1f dc3d 50b0 823d 1bde be3c e641 a93d
00000290: 83ce 133c e2d6 2c3d 6f7b 003d 8025 7c3d
000002a0: 95aa a73b ad86 42bd 6cdb 0a3e 114e a73c
000002b0: 1a40 6ebc 2447 5d3d 4204 b4bc 8649 a73d
000002c0: 6943 fbbc ac5b 80bd 60dd 843c 38c8 8bbd
000002d0: cd5b c03c 305f 6a3d e6e4 693d 08bf e63d
000002e0: 8d7b eabc 240e 3dbc 74a5 eebc 7db0 04bd
000002f0: a082 803c 1239 b43d c0a5 4c3d 2302 033c
00000300: 9515 763d 625b cfbc 09fb e83c 4e7d 213d
00000310: b3b5 763d 10f3 9f3c e0ac 48bd 1e1f a53c
00000320: cffe 503c a285 e53d 21d9 56bd db9f a03d
00000330: 3dc7 fe3d b478 b63d 8089 a53d 2d9d debb
00000340: ef3b bc3c 3b97 07bd 3ecd c53c 757f 2b3d
00000350: 53a2 da3d c9bf 103d 6420 2ebd c88d d9bc
00000360: 6540 1d3d 87a6 5cbd 699d d83d 6a9b 41ba
00000370: f91f 933d f64b 00bc 1f47 ce3d 3217 22bd
00000380: 4ff9 c7ba 86af b33d 90e7 333d 00b3 af3d
00000390: 7d3e aabb a5ee c5bc 2456 cb3d ac36 81bc
000003a0: 8290 ad3d c8b7 f8bc 0135 573c 28c0 bd3d
000003b0: 47b6 803c 2e73 103d b07a 1d3b d1c6 db3d
000003c0: 420f d83d db25 943d 29cf 533d 1046 c63d
000003d0: f7cf a53d 908d c33c 9e8a 43bd f561 c33d
000003e0: 6421 85bd b969 d03d 154d 953d 6bc4 083e
000003f0: 4ca6 9a3d 20ce 023d ce34 123d d90e ff3d

weight f4 [10, 128]
0.20505223 0.20552316 -0.21947162 0.1165073 0.0043569636 -0.17508858 -0.10358902 0.15784818
-0.12982032 0.048340067 -0.035173368 0.09728644 -0.05575518 0.08625658 -0.34041357 -0.044478007
-0.09285846 -0.053259816 0.023108417 0.0033828213 -0.02365276 0.16749991 -0.16477332 -0.3507769
-0.37115607 -0.44930255 0.25150993 0.042996954 -0.08574485 0.042496424 -0.00084578467 0.10376437
0.05267115 0.046961352 0.23535171 0.06551176 -0.015807675 -0.08830069 0.646956 -0.14107947
-0.100504115 0.09804664 0.08533894 -0.0998777 0.034868713 -0.10068202 0.09565276 0.08511349
0.06678131 0.01466299 -0.06498429 0.116325185 0.0052138753 -0.114853546 -0.03400568 -0.115622595
0.105309434 0.0075842994 0.27671802 0.00024334574 -0.2997987 0.031474765 -0.021715123 -0.08415919
0.03946948 -0.056426432 -0.1411096 -0.09383446 -0.067652576 0.024058608 -0.077468246 0.07076423
0.17061152 -0.34563065 -0.3091588 0.26379672 0.013546625 -0.12255562 -0.014397049 -0.0940293
-0.007250753 0.20643331 0.124359414 0.09260979 0.21358317 0.07028805 -0.122462794 0.03744195
0.36069906 0.061832875 0.02294862 -0.0321237 0.021315942 0.08975755 -0.19991131 0.08114306
-0.15315573 0.10685495 -0.0024148242 0.103442445 0.19077559 0.01847399 0.04125916 -0.09109604
-0.09386343 0.18002273 -0.22406939 0.21145472 -0.2890322 0.07221913 -0.1143898 -0.04071813
0.22359885 -0.25326297 -0.15667538 -0.056713678 -0.14134945 -0.023250457 0.12617892 0.020911397
0.13959242 -0.21701288 -0.47651815 0.22934781 -0.09216723 0.16364792 0.1068811 -0.0012034457
-0.12198512 -0.21687186 -0.004895559 0.05055505 0.03382189 -0.14487636 -0.05622788 0.044730693
-0.0035397215 0.041981563 -0.101606354 -0.0738027 0.06778829 -0.019429827 0.43679664 -0.07837283
0.057144396 0.030811876 0.0185727 -0.13843001 -0.005313968 0.031174045 0.04233396 0.06549058
0.35009882 0.53109735 0.034411125 0.03509287 0.16359283 -0.06642154 -0.09872665 -0.065247044
0.16829723 0.07396473 -0.29114467 -0.039437424 0.029853255 -0.06834297 -0.16173394 0.014309346
0.23370296 -0.052338403 -0.27741516 0.16782397 -0.007377229 -0.039729897 -0.3262458 -0.07570822
-0.1034183 0.08719376 -0.011515967 0.016281027 -0.06683302 0.12023017 -0.04387772 0.09057424
-0.020082451 0.045801565 -0.11738921 0.10383783 0.33657146 -0.11283107 0.07132201 0.20446429
-0.0011670494 0.0008000373 -0.091028735 -0.062070716 0.068550035 -0.060049266 -0.11991093 0.0020425408
0.029447567 0.21453053 0.088854656 -0.007998183 0.22701594 0.012142035 0.0014464081 -0.021230068
0.07098778 -0.035376854 0.12023769 -0.17458403 0.041203313 0.07061255 0.12885165 -0.01584642
-0.281492 -0.12342805 -0.02393637 0.18860616 -0.19279821 0.19613779 0.1814295 0.08757133
0.08733497 -0.1667186 -0.007641524 0.034608167 -0.07967203 -0.07270335 -0.056588817 -0.12598532
0.023867488 -0.16549249 0.030000808 0.3542142 0.0064399703 0.15825759 -0.019885207 -0.03312627
-0.03271489 0.00015224156 -0.04285395 0.25152716 -0.25074458 -0.109778516 -0.050336834 -0.1578737
-0.04677455 0.08392857 -0.118139975 -0.36398843 -0.002169651 -0.18982625 -0.14464563 0.0595014
00000000: 36f9 513e aa74 523e 2bbd 60be 619b ee3d
00000010: dcc4 8e3b 6c4a 33be 7b26 d4bd f4a2 213e
00000020: 9eef 04be 3c00 463d f311 10bd 1d3e c73d
00000030: 8b5f 64bd 4aa7 b03d b04a aebe 922e 36bd
00000040: 942c bebd f726 5abd dd4d bd3c 53b2 5d3b
00000050: 6fc3 c1bc 1985 2b3e 56ba 28be 0899 b3be
00000060: 2b08 bebe fc0a e6be e9c5 803e 931d 303d
00000070: ff9a afbd bb10 2e3d a6b7 5dba 6a82 d43d
00000080: b4bd 573d 8c5a 403d 0a00 713e 082b 863d
00000090: 197f 81bc fed6 b4bd e99e 253f 2377 10be
000000a0: 1ad5 cdbd adcc c83d 2fc6 ae3d ae8c ccbd
000000b0: 7fd2 0e3d 6032 cebd 98e5 c33d fb4f ae3d
000000c0: a4c4 883d 0a3d 703c 7c16 85bd e63b ee3d
000000d0: 28d9 aa3b 5638 ebbd 8a49 0bbd 8acb ecbd
000000e0: 79ac d73d b785 f83b fcad 8d3e a02a 7f39
000000f0: 377f 99be afeb 003d eae3 b1bc a75b acbd
00000100: c0aa 213d 671f 67bd 097f 10be 482c c0bd
00000110: 6f8d 8abd 8f16 c53c aca7 9ebd d6ec 903d
00000120: c9b4 2e3e 80f6 b0be 104a 9ebe 5d10 873e
00000130: aaf2 5d3c 71fe fabd 9ae1 6bbc 6f92 c0bd
00000140: ba97 edbb 4163 533e 26b0 fe3d 34aa bd3d
00000150: 8cb5 5a3e 2ef3 8f3d c6cd fabd bb5c 193d
00000160: 8cad b83e 7844 7d3d bffe bb3c 2494 03bd
00000170: c59e ae3c ced2 b73d 8db5 4cbe 552e a63d
00000180: dbd4 1cbe c5d6 da3d 0742 1ebb a2d9 d33d
00000190: ad5a 433e c456 973c 5dff 283d 9090 babd
000001a0: 783b c0bd e157 383e 7272 65be 9687 583e
000001b0: 07fc 93be a0e7 933d 3345 eabd 0ec8 26bd
000001c0: 19f7 643e afab 81be 836f 20be 9a4c 68bd
000001d0: e9bd 10be be77 bebc 0c35 013e 614e ab3c
000001e0: 51f1 0e3e a038 5ebe 30fa f3be 27da 6a3e
000001f0: 2cc2 bcbd 5293 273e 7ae4 da3d f0bc 9dba
00000200: 56d3 f9bd a813 5ebe ed6a a0bb d012 4f3d
00000210: d288 0a3d 785a 14be 354f 66bd 8837 373d
00000220: acfa 67bb dcf4 2b3d fe16 d0bd df25 97bd
00000230: 96d4 8a3d 4d2b 9fbc cfa3 df3e ef81 a0bd
00000240: 3e10 6a3d 3069 fc3c c625 983c 99c0 0dbe
00000250: cb20 aebb b660 ff3c 6066 2d3d ed1f 863d
00000260: 2740 b33e fff5 073f aef2 0c3d 8bbd 0f3d
00000270: e184 273e 0408 88bd 3331 cabd 3ea0 85bd
00000280: 1c56 2c3e d27a 973d ea10 95be 2389 21bd
00000290: d08e f43c 66f7 8bbd 959d 25be bf71 6a3c
000002a0: d44f 6f3e cb60 56bd 5c09 8ebe 0cda 2b3e
000002b0: afbc f1bb d1bb 22bd b109 a7be e90c 9bbd
000002c0: f9cc d3bd a492 b23d 77ad 3cbc ca5f 853c
000002d0: c0df 88bd 3c3b f63d 20b9 33bd fd7e b93d
000002e0: f483 a4bc 6c9a 3b3d c169 f0bd eea8 d43d
000002f0: 1853 ac3e fa13 e7bd 4611 923d 165f 513e
00000300: aef7 98ba 98b9 513a 466d babd dd3d 7ebd
00000310: f663 8c3d 38f6 75bd dd93 f5bd 26dc 053b
00000320: 063c f13c e4ad 5b3e 6ef9 b53d d00a 03bc
00000330: de76 683e 63ef 463c 6795 bd3a aeea adbc
00000340: 0b62 913d 52e7 10bd 2e3f f63d 28c6 32be
00000350: cec4 283d 509d 903d b0f1 033e 5ad0 81bc
00000360: b81f 90be d8c7 fcbd 3516 c4bc f921 413e
00000370: e56c 45be 58d8 483e a8c8 393e 9958 b33d
00000380: addc b23d 48b8 2abe c065 fabb 4bc1 0d3d
00000390: 172b a3bd 7ee5 94bd adc9 67bd 4c02 01be
000003a0: c085 c33c dd76 29be 41c4 f53c 905b b53e
000003b0: 6306 d33b 470e 223e 4de6 a2bc 69af 07bd
000003c0: 0c00 06bd 08a3 1f39 a087 2fbd 2bc8 803e
000003d0: 9861 80be 8fd3 e0bd ff2d 4ebd a5a9 21be
000003e0: ac96 3fbd bee2 ab3d 5ff3 f1bd b15c babe
000003f0: b430 0ebb d061 42be fc1d 14be bdb7 733d

bias f4 [10]
-0.07602415 -0.06939174 -0.064740285 0.13059178 -0.12787938 0.1396283 -0.286079 0.24374972
0.11735687 0.14929664
00000000: 8db2 9bbd 421d 8ebd 8e96 84bd dab9 053e
00000010: d0f2 02be b9fa 0e3e f278 92be 8799 793e
00000020: cc58 f03d 38e1 183e

input f4 [16, 1, 28, 28]
-1.0 -1.0 -1.0 -1.0 -1.0 -1.0 -1.0 -1.0
-1.0 -1.0 -1.0 -1.0 -1.0 -1.0 -1.0 -1.0
-1.0 -1.0 -1.0 -1.0 -1.0 -1.0 -1.0 -1.0
-1.0 -1.0 -1.0 -1.0 -1.0 -1.0 -1.0 -1.0
-1.0 -1.0 -1.0 -1.0 -1.0 -1.0 -1.0 -1.0
-1.0 -1.0 -1.0 -1.0 -1.0 -1.0 -1.0 -1.0
-1.0 -1.0 -1.0 -1.0 -1.0 -1.0 -1.0 -1.0
-1.0 -1.0 -1.0 -1.0 -1.0 -1.0 -1.0 -1.0
-1.0 -1.0 -1.0 -1.0 -1.0 -1.0 -1.0 -1.0
-1.0 -1.0 -1.0 -1.0 -1.0 -1.0 -1.0 -1.0
-1.0 -1.0 -1.0 -1.0 -1.0 -1.0 -1.0 -1.0
-1.0 -1.0 -1.0 -1.0 -1.0 -1.0 -1.0 -1.0
-1.0 -1.0 -1.0 -1.0 -1.0 -1.0 -1.0 -1.0
-1.0 -1.0 -1.0 -1.0 -1.0 -1.0 -1.0 -1.0
-1.0 -1.0 -1.0 -1.0 -1.0 -1.0 -1.0 -1.0
-1.0 -1.0 -1.0 -1.0 -1.0 -1.0 -1.0 -1.0
-1.0 -1.0 -1.0 -1.0 -1.0 -1.0 -1.0 -1.0
-1.0 -1.0 -1.0 -1.0 -1.0 -1.0 -1.0 -1.0
-1.0 -1.0 -1.0 -1.0 -1.0 -1.0 -1.0 -1.0
-1.0 -1.0 -0.94509804 0.6 0.9843137 0.77254903 -1.0 -1.0
-1.0 -1.0 -1.0 -1.0 -1.0 -1.0 -1.0 -1.0
-1.0 -1.0 -1.0 -1.0 -1.0 -1.0 -1.0 -1.0
-1.0 -1.0 -1.0 -1.0 -1.0 -1.0 -0.35686272 0.9764706
0.9764706 0.7647059 -1.0 -1.0 -1.0 -1.0 -1.0 -1.0
-1.0 -1.0 -1.0 -1.0 -1.0 -1.0 -1.0 -1.0
-1.0 -1.0 -1.0 -1.0 -1.0 -1.0 -1.0 -1.0
-1.0 -0.81960785 0.8352941 0.9764706 0.9764706 0.7647059 -1.0 -1.0
-1.0 -1.0 -1.0 -1.0 -1.0 -1.0 -1.0 -1.0
-1.0 -1.0 -1.0 -1.0 -1.0 -1.0 -1.0 -1.0
-1.0 -1.0 -1.0 -1.0 -1.0 -0.77254903 0.9764706 0.9764706
0.9764706 0.7647059 -1.0 -1.0 -1.0 -1.0 -1.0 -1.0
-1.0 -1.0 -1.0 -1.0 -1.0 -1.0 -1.0 -1.0
00000000: 0000 80bf 0000 80bf 0000 80bf 0000 80bf
00000010: 0000 80bf 0000 80bf 0000 80bf 0000 80bf
00000020: 0000 80bf 0000 80bf 0000 80bf 0000 80bf
00000030: 0000 80bf 0000 80bf 0000 80bf 0000 80bf
00000040: 0000 80bf 0000 80bf 0000 80bf 0000 80bf
00000050: 0000 80bf 0000 80bf 0000 80bf 0000 80bf
00000060: 0000 80bf 0000 80bf 0000 80bf 0000 80bf
00000070: 0000 80bf 0000 80bf 0000 80bf 0000 80bf
00000080: 0000 80bf 0000 80bf 0000 80bf 0000 80bf
00000090: 0000 80bf 0000 80bf 0000 80bf 0000 80bf
000000a0: 0000 80bf 0000 80bf 0000 80bf 0000 80bf
000000b0: 0000 80bf 0000 80bf 0000 80bf 0000 80bf
000000c0: 0000 80bf 0000 80bf 0000 80bf 0000 80bf
000000d0: 0000 80bf 0000 80bf 0000 80bf 0000 80bf
000000e0: 0000 80bf 0000 80bf 0000 80bf 0000 80bf
000000f0: 0000 80bf 0000 80bf 0000 80bf 0000 80bf
00000100: 0000 80bf 0000 80bf 0000 80bf 0000 80bf
00000110: 0000 80bf 0000 80bf 0000 80bf 0000 80bf
00000120: 0000 80bf 0000 80bf 0000 80bf 0000 80bf
00000130: 0000 80bf 0000 80bf 0000 80bf 0000 80bf
00000140: 0000 80bf 0000 80bf 0000 80bf 0000 80bf
00000150: 0000 80bf 0000 80bf 0000 80bf 0000 80bf
00000160: 0000 80bf 0000 80bf 0000 80bf 0000 80bf
00000170: 0000 80bf 0000 80bf 0000 80bf 0000 80bf
00000180: 0000 80bf 0000 80bf 0000 80bf 0000 80bf
00000190: 0000 80bf 0000 80bf 0000 80bf 0000 80bf
000001a0: 0000 80bf 0000 80bf 0000 80bf 0000 80bf
000001b0: 0000 80bf 0000 80bf 0000 80bf 0000 80bf
000001c0: 0000 80bf 0000 80bf 0000 80bf 0000 80bf
000001d0: 0000 80bf 0000 80bf 0000 80bf 0000 80bf
000001e0: 0000 80bf 0000 80bf 0000 80bf 0000 80bf
000001f0: 0000 80bf 0000 80bf 0000 80bf 0000 80bf
00000200: 0000 80bf 0000 80bf 0000 80bf 0000 80bf
00000210: 0000 80bf 0000 80bf 0000 80bf 0000 80bf
00000220: 0000 80bf 0000 80bf 0000 80bf 0000 80bf
00000230: 0000 80bf 0000 80bf 0000 80bf 0000 80bf
00000240: 0000 80bf 0000 80bf 0000 80bf 0000 80bf
00000250: 0000 80bf 0000 80bf 0000 80bf 0000 80bf
00000260: 0000 80bf 0000 80bf f2f1 71bf 9a99 193f
00000270: fcfb 7b3f c6c5 453f 0000 80bf 0000 80bf
00000280: 0000 80bf 0000 80bf 0000 80bf 0000 80bf
00000290: 0000 80bf 0000 80bf 0000 80bf 0000 80bf
000002a0: 0000 80bf 0000 80bf 0000 80bf 0000 80bf
000002b0: 0000 80bf 0000 80bf 0000 80bf 0000 80bf
000002c0: 0000 80bf 0000 80bf 0000 80bf 0000 80bf
000002d0: 0000 80bf 0000 80bf b6b6 b6be faf9 793f
000002e0: faf9 793f c4c3 433f 0000 80bf 0000 80bf
000002f0: 0000 80bf 0000 80bf 0000 80bf 0000 80bf
00000300: 0000 80bf 0000 80bf 0000 80bf 0000 80bf
00000310: 0000 80bf 0000 80bf 0000 80bf 0000 80bf
00000320: 0000 80bf 0000 80bf 0000 80bf 0000 80bf
00000330: 0000 80bf 0000 80bf 0000 80bf 0000 80bf
00000340: 0000 80bf d2d1 51bf d6d5 553f faf9 793f
00000350: faf9 793f c4c3 433f 0000 80bf 0000 80bf
00000360: 0000 80bf 0000 80bf 0000 80bf 0000 80bf
00000370: 0000 80bf 0000 80bf 0000 80bf 0000 80bf
00000380: 0000 80bf 0000 80bf 0000 80bf 0000 80bf
00000390: 0000 80bf 0000 80bf 0000 80bf 0000 80bf
000003a0: 0000 80bf 0000 80bf 0000 80bf 0000 80bf
000003b0: 0000 80bf c6c5 45bf faf9 793f faf9 793f
000003c0: faf9 793f c4c3 433f 0000 80bf 0000 80bf
000003d0: 0000 80bf 0000 80bf 0000 80bf 0000 80bf
000003e0: 0000 80bf 0000 80bf 0000 80bf 0000 80bf
000003f0: 0000 80bf 0000 80bf 0000 80bf 0000 80bf

output f4 [16, 10]
-6.227179 6.528116 -0.17224897 0.6466929 -0.117360815 -1.5758218 -2.2908747 2.4794643
0.877156 -0.13654968 -0.35468757 1.1985044 5.9336805 2.5788934 -3.9590306 -1.2452935
-0.9675129 -0.6242689 0.63289773 -3.7483706 -1.3484362 -1.5126709 1.0944196 6.375073
-5.0781717 2.6661708 -3.612189 0.39761543 1.8281784 -0.88907135 -3.6524086 0.8078631
-1.2887043 -3.9662461 7.434164 -0.40115935 1.6651983 -2.8693962 -1.2032973 2.534307
0.27052212 -3.977058 -1.2395585 1.4735695 -2.1463783 6.846678 -1.5500865 -1.8877081
2.0003486 0.39745307 3.448805 -0.70167774 0.51040316 -3.500506 1.0732063 1.4241585
6.981942 -7.384901 1.230068 -3.0589237 -4.081358 1.9912231 -0.1151524 1.4731137
-2.3615646 -1.2679292 -6.82954 8.65737 0.7865845 1.8864572 1.204034 -1.5381317
0.26657194 2.3552115 -5.202524 1.7687799 -1.8128936 -0.75726557 5.765429 -2.0797439
-3.208999 0.22254221 -1.8550686 -4.113766 7.0180664 -0.6233491 0.035276502 -0.2060263
-1.3627841 3.8665066 8.664231 -3.4395332 1.2377473 -1.4436024 -1.5509788 2.0877023
4.6266093 -6.023728 0.87777364 -4.2592955 -5.2089977 7.456875 0.86074156 -0.3468514
0.11290777 -2.1886275 -1.0531616 1.3584703 0.44917122 -1.8920482 -0.22322792 0.8442173
6.9448557 2.0621362 -3.577202 -0.84055275 0.004621029 -2.3688765 0.42060295 -4.198539
-0.92444545 -1.9410677 1.7921011 7.4523826 -5.4477215 3.2204666 -4.289477 1.1120107
0.5125363 -0.94430673 -3.1419208 0.47241783 -2.6347609 -4.325338 6.0409374 -1.0348606
0.6865561 -0.8930099 1.1642336 3.2505636 -0.733751 -1.786068 -1.6853535 -0.39131597
-1.1624321 5.127365 -0.03829685 -2.9412534 3.1072302 0.100179374 4.482856 -1.4061191
1.9156348 -2.8141243 1.1664982 1.1037639 6.9171414 -7.694833 -0.3390669 -3.1774216
00000000: 0d45 c7c0 54e6 d040 0962 30be aa8d 253f
00000010: de5a f0bd 87b4 c9bf b19d 12c0 8baf 1e40
00000020: 4c8d 603f aed3 0bbe 9c99 b5be 9868 993f
00000030: b6e0 bd40 970c 2540 c260 7dc0 c765 9fbf
00000040: edae 77bf 16d0 1fbf 9605 223f 4ee5 6fc0
00000050: 8f99 acbf 339f c1bf f115 8c3f 9900 cc40
00000060: 6280 a2c0 8ba2 2a40 1b2e 67c0 4094 cb3e
00000070: c001 ea3f 2e9a 63bf 10c1 69c0 1ed0 4e3f
00000080: 43f4 a4bf fad6 7dc0 ace4 ed40 c264 cdbe
00000090: 3825 d53f 30a4 37c0 a505 9abf 1632 2240
000000a0: e081 8a3e 1e88 7ec0 daa9 9ebf ed9d bc3f
000000b0: 435e 09c0 fc17 db40 3c69 c6bf 6ba0 f1bf
000000c0: b605 0040 f87e cb3e 39b9 5c40 27a1 33bf
000000d0: c8a9 023f 4a08 60c0 d35e 893f d34a b63f
000000e0: 126c df40 1c51 ecc0 de72 9d3f 68c5 43c0
000000f0: 7c9a 82c0 66e0 fe3f 06d5 ebbd fd8e bc3f
00000100: e023 17c0 814b a2bf 978b dac0 9684 0a41
00000110: 9a5d 493f 6e77 f13f c91d 9a3f 80e1 c4bf
00000120: 1e7c 883e c9bb 1640 147b a6c0 6167 e23f
00000130: e60c e8bf 28dc 41bf 657e b840 861a 05c0
00000140: 3d60 4dc0 1be2 633e e372 edbf f9a3 83c0
00000150: 0094 e040 ce93 1fbf 187e 103d 8ff8 52be
00000160: b66f aebf d874 7740 b1a0 0a41 5021 5cc0
00000170: 816e 9e3f f7c7 b8bf 7986 c6bf ea9c 0540
00000180: 2f0d 9440 61c2 c0c0 c6b5 603f 264c 88c0
00000190: 1cb0 a6c0 b89e ee40 8f59 5c3f 8296 b1be
000001a0: 303c e73d 7912 0cc0 00ce 86bf 5be2 ad3f
000001b0: c5f9 e53e a32e f2bf dc95 64be a01e 583f
000001c0: 423c de40 0afa 0340 e1f0 64c0 772e 57bf
000001d0: 006c 973b ac9b 17c0 4559 d73e 6e5a 86c0
000001e0: 75a8 6cbf e874 f8bf 9263 e53f eb79 ee40
000001f0: bc53 aec0 201c 4e40 6543 89c0 5e56 8e3f
00000200: 9435 033f 16be 71bf 3b15 49c0 c0e0 f13e
00000210: ec9f 28c0 2b69 8ac0 5c4f c140 5076 84bf
00000220: 24c2 2f3f 4c9c 64bf 9b05 953f 3c09 5040
00000230: 1bd7 3bbf e09d e4bf aab9 d7bf 915a c8be
00000240: 93ca 94bf 6013 a440 28dd 1cbd 7f3d 3cc0
00000250: dcdc 4640 d82a cd3d 8e73 8f40 b6fb b3bf
00000260: 8533 f53f 9d1a 34c0 d04f 953f 2348 8d3f
00000270: 3959 dd40 123c f6c0 2d9a adbe e05a 4bc0
