model/SNN_LeNet_Acc_96.1.pt (torch, 233846 bytes, 7 tensors)

weight f4 [6, 1, 5, 5]
000000 bf 71 7a be fa 66 86 3d 51 08 89 be 2c a5 7d be
       -0.24457453 0.0656261 -0.26764157 -0.2477004
000010 17 19 b8 bc 05 e9 bf bd 0d ee 75 3d 42 a7 15 3d
       -0.022472901 -0.09370617 0.060041476 0.036536463
000020 52 cf 8f bc 0c e5 d0 3c 10 fd 07 be ce 16 54 3e
       -0.017554913 0.025499843 -0.1328013 0.20711824
000030 f0 e3 1f bd af 61 05 3e 4b a0 dd 3d db 70 ba 3d
       -0.039035738 0.13025545 0.10821589 0.09103557
000040 8b 7c 35 3e 78 d6 3d 3e 6e b1 8e 3e 8d 87 29 3e
       0.1772329 0.18538845 0.27869743 0.16555615
000050 d2 d7 6f 3d f7 64 b2 bb 8d 6b b5 bc 3f 05 e3 3d
       0.05855543 -0.005444165 -0.02214601 0.11084985
000060 36 36 7b 3e d7 7d 88 bd 21 32 4d ba f2 81 2e 3e
       0.24532399 -0.06664627 -0.0007827599 0.17041758
000070 bc 5e ee bd a6 b4 b5 bd 40 06 82 3d c8 d0 7c 3c
       -0.11639163 -0.088723466 0.06348848 0.015430637
000080 62 9e 28 be 6a 05 a0 bd 0c 7f c3 bd c5 de 6e bd
       -0.16466668 -0.07813533 -0.09545717 -0.05831792
000090 40 ec 42 3e b2 7b c8 bd 41 8d b6 bd 33 68 98 be
       0.19035435 -0.09789218 -0.08913661 -0.29766998
0000a0 a1 f7 2a 3e da 86 5b 3e c0 74 a7 bc f6 36 1a be
       0.16696025 0.2143816 -0.020441413 -0.15060028
0000b0 a1 c8 66 be c2 8a 82 3e 00 15 b8 bc 70 54 3d be
       -0.22537471 0.2549649 -0.022470951 -0.18489242
0000c0 0b 2c 19 be 0d a1 82 be 6a ba 0a be 36 2e b4 bd
       -0.14958207 -0.25513497 -0.13547674 -0.087978765
0000d0 ee e7 f9 3c b4 9d 1f be 9a 72 82 be b8 2b 50 bd
       0.0305061 -0.15587503 -0.2547806 -0.050822943
0000e0 8a 38 7b be 53 0e 09 be 03 0e 8f 3b cc d6 3f be
       -0.24533287 -0.1338437 0.004365684 -0.18734282
0000f0 54 5b 2a 3e 9a 2c 64 3c 4b a8 9b 3c b0 ea 81 be
       0.16636401 0.0139266495 0.019001147 -0.25374365
000100 71 8b 28 be f6 ba 26 be 59 59 04 3e 9d 7e 0c bd
       -0.16459443 -0.16282257 0.12924708 -0.034300435
000110 dd 70 29 bd af 01 62 3d 6e e8 37 3b 5e ef 06 bc
       -0.0413674 0.055177387 0.0028062123 -0.0082357805
000120 82 76 91 3e 49 47 cd 3d 1a 4c b8 3e 2f fc b0 bd
       0.28410727 0.10023362 0.3599556 -0.0864185
000130 3b e3 b7 3c 19 5b b0 3d f6 f8 1a be 57 9c 69 bd
       0.02244722 0.086111255 -0.15134034 -0.057033863
000140 7a 02 8c 3d 0e 77 2a 3e fa 2c 87 bd 1e 45 17 3e
       0.0683641 0.16646978 -0.066003755 0.1477246
000150 80 91 98 3d f7 1d 13 3e 44 e1 ac bd fb 59 5f 3e
       0.07449627 0.143669 -0.084414035 0.21811669
000160 7d a9 25 be 44 70 bd 3b 0d 6e 85 3d 65 e4 34 bd
       -0.16177936 0.0057812054 0.06515131 -0.044163126
000170 ac 13 c2 bd fb 54 ec bd 73 fc 03 be 58 06 80 3e
       -0.09476408 -0.11539646 -0.1288927 0.2500484
000180 f8 84 69 bd 01 c1 ce 3d b3 ea c3 bd 96 ee af 3c
       -0.057011575 0.10095406 -0.0956625 0.021476071
000190 86 93 cd bd d5 74 7c be 0b ff 9d bd ee e8 c0 bd
       -0.100379035 -0.24653943 -0.07714661 -0.09419428
0001a0 33 c6 5a be 1a 70 06 3c 71 45 2e bd e0 cd 91 be
       -0.2136467 0.008205438 -0.042546693 -0.28477383
0001b0 7b 2b ff bd ed 52 66 3d e5 22 60 bd cf 73 ba 3d
       -0.12459465 0.056231428 -0.054720778 0.0910412
0001c0 1d 9b 6d be ce c1 14 be 0e da 06 3e 80 b0 93 bc
       -0.23203702 -0.14527056 0.13169119 -0.018028498
0001d0 d7 9b 48 be 94 c0 b9 bd b5 b9 fb bc ed 6e 90 3e
       -0.19590698 -0.090699345 -0.0307282 0.2820963
0001e0 a5 f9 19 be d9 db 44 3c 71 47 25 be 33 95 74 3e
       -0.15036638 0.012015306 -0.16140534 0.2388504
0001f0 1b 60 5b 3e 21 1f e4 3d 5c a5 45 3d 89 6e c1 bb
       0.2142338 0.1113875 0.048253402 -0.0059030694
000200 8a 05 4d be 48 86 02 3e c6 bd 55 3e a9 22 10 3e
       -0.20021644 0.12746537 0.20873174 0.14075722
000210 c7 dc be 3c 0c 63 7b 3d 42 63 b1 3a 1d 31 55 3c
       0.023298634 0.061373755 0.001353361 0.013012198
000220 08 72 10 3e 6a 5d 3f 3e c5 90 76 3e 7d 5f 92 3e
       0.14106 0.18687978 0.24078663 0.28588477
000230 c9 ba 90 3b da e7 db 3d 04 c9 54 bc d7 95 43 3d
       0.004416798 0.107375816 -0.012987379 0.04775032
000240 09 74 3f 3e 30 fc 51 be 13 53 15 3d 6e b9 94 3d
       0.18696608 -0.20506358 0.03645618 0.072619304
000250 9b ea e5 bd 49 4e 38 bd
       -0.11226388 -0.044996534

weight f4 [16, 6, 5, 5]
000000 95 fc 05 3e 0d 4b 99 3d 09 ef f2 3d b1 ce 1e bd
       0.13084634 0.07485018 0.118619986 -0.038771335
000010 1c a2 47 bd 92 5b 82 3c 7a f9 9a bd 5a 6f c0 bd
       -0.048738584 0.015912805 -0.07567115 -0.093962386
000020 2a b5 b1 bd 81 02 46 be 34 66 86 bc e6 98 5c bd
       -0.086771324 -0.19336893 -0.016406156 -0.053856753
000030 8d 69 c8 bd 42 09 a6 bd 0f 8a 20 be 4c ea 5a 3d
       -0.09785757 -0.081072345 -0.15677665 0.0534461
000040 fd 34 5f bc 62 83 bf 3c e3 ed 93 3c c8 2a 4d bc
       -0.013623473 0.023378078 0.01805777 -0.012522407
000050 4f 24 04 3d 7b d2 4b bd 03 6a c8 3d cc f2 89 3d
       0.03226119 -0.049761277 0.09785845 0.06735763
000060 ee f9 b8 3c 3b 7a 4c 3c 5f 03 58 3d bf 10 04 3d
       0.022580113 0.012480314 0.05273759 0.032242533
000070 94 bf 76 3c 99 0f 3d bc 51 22 2d bd 8d 5a 8b bd
       0.015060324 -0.011539363 -0.042269055 -0.068043806
000080 44 f9 54 bd 2a 64 4c bd 26 9e 91 bc 5f 51 77 bc
       -0.05199553 -0.04990021 -0.017775606 -0.015095084
000090 b5 d0 0e bc 01 fd 49 bb 1c a0 a5 3d 29 cb 4a bd
       -0.008716752 -0.0030820968 0.08087179 -0.049510155
0000a0 5d 0c 56 bd 73 01 87 3d 84 ed b6 bd 1e 13 b4 3d
       -0.052257884 0.06592073 -0.08932021 0.08792709
0000b0 4a 76 ad 3c 72 e7 9b 3d 34 f8 ee ba 14 b2 bf bd
       0.021174569 0.07612504 -0.0018231929 -0.093601376
0000c0 a4 26 b0 3a 9b 36 3c 3d 83 27 9b 3b b2 45 09 bd
       0.001343925 0.045950513 0.004734935 -0.033513732
0000d0 18 c4 8c bd 68 f8 b6 bb 3d 49 65 bd 5e 89 a9 bd
       -0.068733394 -0.0055838116 -0.05597805 -0.08278154
0000e0 f9 40 cd bd 79 01 ad bd de ea 9d bd d6 d7 0c 3b
       -0.10022158 -0.084475465 -0.07710813 0.0021490953
0000f0 da d3 04 3d dc 52 bf 3c 97 0f 51 3d b1 4b b4 bd
       0.0324286 0.02335494 0.05104026 -0.088034995
000100 26 11 ac 3d f4 77 45 bd 67 e4 db 3c 95 89 dd 3d
       0.08401708 -0.0482101 0.02684231 0.10817257
000110 36 90 88 3d fc c2 20 bd 82 9d 49 3c 5b 48 58 bd
       0.06668131 -0.03924845 0.012305619 -0.05280338
000120 e3 9b e8 bc 31 c9 92 3d ca 2d 42 3d 2b 75 8a bb
       -0.028394645 0.071672805 0.04740695 -0.0042253933
000130 72 5f c3 bc 94 88 52 bd d6 9a 0c bd 98 61 a4 3d
       -0.023849223 -0.051399782 -0.03432735 0.08026427
000140 0d 54 c3 3c 19 6c 94 3d c8 1b 19 3c 05 6b a4 3d
       0.02384379 0.072471805 0.0093450025 0.08028225
000150 6f a2 11 bd af 7d bb 3d 3b 35 80 3d ef 8e 7b bd
       -0.0355553 0.091548316 0.06260153 -0.06141561
000160 d2 29 9b bd 16 c1 65 3d c2 f9 94 3c 70 6d 57 bd
       -0.07576336 0.056092344 0.0181855 -0.052594602
000170 30 49 00 3d d4 16 5d bd aa d0 49 bc bf cb cd 3c
       0.031319797 -0.05397685 -0.012317816 0.025121568
000180 d3 43 00 3d 0c c5 09 3c 0f 28 6b bd 7b 57 9f 3d
       0.031314682 0.008408796 -0.05741125 0.077803575
000190 90 f2 8e 3d c2 46 e3 bc e5 37 6c 3d 06 8a 52 bd
       0.06979859 -0.0277437 0.057670493 -0.05140116
0001a0 fa 2c 1c 3b 02 88 0d 3d c6 8d 58 3d f7 6b 3b bd
       0.002383052 0.034553535 0.05286958 -0.04575726
0001b0 fa 12 d6 bc 89 a4 e1 bb f5 07 9d bd 20 f0 e9 bc
       -0.026132096 -0.006886069 -0.07667533 -0.028556883
0001c0 a5 2f d2 3c db 1c 0f bc aa 0b d1 bb 41 a7 dc bd
       0.025657484 -0.008734907 -0.0063795643 -0.10774089
0001d0 e2 e6 bc 3c e8 14 b0 3d c1 bf 81 bc 9f cd a5 3d
       0.023059312 0.085977376 -0.015838506 0.0809586
0001e0 51 9e ef 3c c3 7f 86 3d f9 8c 52 3d d1 8a 79 3c
       0.029250296 0.06567337 0.051403973 0.01523085
0001f0 f2 51 b6 3d f2 e0 14 3d f0 d3 75 3b c0 fd eb 3c
       0.089023486 0.036347337 0.0037510358 0.02880752
000200 e0 9a d6 3d 46 37 14 bd 7f 26 82 3d fe ba fa bc
       0.10478759 -0.036185525 0.06354999 -0.030606743
000210 71 c4 0b bd a4 19 22 bd 93 3e 85 bd 02 62 f2 ba
       -0.034122888 -0.039575234 -0.06506076 -0.0018492343
000220 8f 9d 51 bc cd 13 b2 bd 93 b2 2e bd 5b 3a fd bd
       -0.012793913 -0.08695183 -0.04265077 -0.12364646
000230 70 5d da bb 97 6c 74 bd 3e ca ad bd 61 2f ae bd
       -0.0066639706 -0.05967387 -0.0848584 -0.085051306
000240 c2 28 1b be b9 d3 e3 ba dd aa 18 3c 86 77 23 bd
       -0.15152267 -0.0017381824 0.009318081 -0.03990891
000250 a8 03 30 3c 67 85 a4 bd 8c 26 c9 bd 4a 91 ae bd
       0.010743059 -0.08033257 -0.09821805 -0.085238054
000260 85 64 f8 bd d6 4e 12 bd 36 e1 2e be d6 4c aa 3c
       -0.121285476 -0.035719715 -0.17078099 0.020788591
000270 a8 af a1 3d ed 7b ad 3c 28 93 aa 3c ff 56 2c 3d
       0.07894832 0.021177256 0.020822123 0.042075153
000280 51 10 0e bc 12 2d c4 bd e6 04 70 3c 84 36 91 3d
       -0.008670882 -0.09578909 0.014649605 0.07090476
000290 2d da 2c 3d 9a c4 8a bd 8a a0 0d 3c 4a e2 07 3d
       0.042200256 -0.0677578 0.0086442325 0.03317479
0002a0 79 cf 28 3d 19 86 a4 3d 35 8b 36 bc 74 a9 fe 3c
       0.041213486 0.080333896 -0.011141588 0.03108666
0002b0 84 7d 0f 3e a9 2b 83 3d 03 32 a3 3d a1 12 47 3c
       0.14012724 0.06404812 0.07968523 0.012150438
0002c0 59 74 e4 3c 9f ff 98 3b 2b 13 ab 3b 54 5d 0c bd
       0.02788751 0.0046691443 0.005220791 -0.034268692
0002d0 71 82 88 bd f7 62 17 bd 4a d3 08 bd 83 ee 1a bd
       -0.06665505 -0.036959615 -0.033404626 -0.03782512
0002e0 8d bd 61 3d 80 83 3c ba 2e 18 85 bd fc 16 26 bb
       0.05511241 -0.0007191226 -0.064987525 -0.002534329
0002f0 65 2d 29 bc b6 38 e6 3d 2f 87 8d bd e2 d3 ef 3c
       -0.010325764 0.112412855 -0.0691055 0.029275838
000300 0c 34 27 3d c2 d3 9b 3d 4c 42 f2 3d fa 55 cb bc
       0.04082112 0.07608749 0.118290514 -0.02482127
000310 ed 35 47 3d 6d d5 b9 3d 87 d3 b0 bb e0 e7 e3 3d
       0.048635412 0.09073911 -0.00539631 0.11128211
000320 2b a1 36 3b 90 f7 8f 3c f0 15 99 bb b0 5e 3a bc
       0.002786706 0.017574102 -0.0046718046 -0.011375114
000330 26 f5 ad bd 65 bc bc 3d e6 6b 31 3c b1 7a eb bc
       -0.08494024 0.09215621 0.010828948 -0.028745027
000340 80 7a d0 3c 52 c2 05 3e ac 39 fb bc c5 ac 93 bc
       0.025449038 0.13062409 -0.030667149 -0.018026719
000350 bc e9 a5 bc f6 d6 e5 bc 52 7d e4 bc f7 fe 9f 3c
       -0.020253055 -0.028056603 -0.027891789 0.019530756
000360 f3 43 4c bd 88 f8 22 bd 3e 07 e1 bd b0 84 7e bd
       -0.04986949 -0.0397878 -0.109877095 -0.06213826
000370 47 6e 08 3d 04 f0 1c bc 6f d6 9d bd 08 dc ed bd
       0.033308294 -0.009578709 -0.077069156 -0.11614233
000380 94 70 24 be f1 a1 d8 bb 88 01 b3 bd 00 a6 25 3c
       -0.1605857 -0.006611102 -0.087405264 0.010110378
000390 95 d3 22 3d 89 3b 9b 3d 78 66 cb bc 94 2b 4c 3d
       0.03975256 0.07579715 -0.024829134 0.049846247
0003a0 97 0a f7 bc 28 9d 50 3a 3c 0c 61 3c 5b 43 5a bd
       -0.030156417 0.00079579884 0.013735827 -0.05328689
0003b0 e4 3f 2c 3d d6 66 a1 bd de 33 02 bc 15 df ab 3d
       0.04205312 -0.078809425 -0.007946936 0.08392159
0003c0 38 f6 db 3c e9 34 a2 bd 7a 94 f1 bd 1a 60 2d bd
       0.026850805 -0.07920248 -0.11795898 -0.042327978
0003d0 a9 64 34 3d 34 ac 37 3c a9 e6 90 bb 7c 88 ec bd
       0.04404131 0.01121049 -0.004422028 -0.1154947
0003e0 75 2d cf 3c 39 6b 76 bd c8 d3 80 3b 31 ee 82 bd
       0.02529023 -0.06016085 0.0039314963 -0.06393088
0003f0 3e 1c 1e 3c 97 86 ae bd c3 b4 12 be 08 49 95 3d
       0.009650288 -0.08521765 -0.14326768 0.0728932

weight f4 [120, 256]
000000 f3 eb 8b bc 5e 44 c3 ba 84 7c c4 3c 23 bb 66 3c
       -0.017080283 -0.0014897694 0.023985155 0.014082703
000010 8d e4 f0 3c 96 14 38 3c 4b e3 2c bc 4a b5 6d bc
       0.029405857 0.011235377 -0.010552238 -0.014508555
000020 c2 25 63 bd 8e 18 0c 3d 92 e3 58 bc 9a 2f c5 3c
       -0.05545593 0.034203105 -0.013237851 0.02407055
000030 4d c8 9d 3b 1e 87 61 3c 47 3d c7 bc ab 7e 05 bd
       0.0048151375 0.013765125 -0.024321212 -0.032591503
000040 63 75 4b 3d 74 0b f2 bc 5e a7 54 bc ee 48 ab bb
       0.049672496 -0.029546477 -0.012979357 -0.0052271998
000050 44 f6 51 3d 08 62 51 3b f7 c3 be bc 05 84 84 bd
       0.051260248 0.00319493 -0.023286803 -0.06470493
000060 9d 77 b9 3c 25 b3 ac 3c 46 3a c9 3c 14 d9 7b 3a
       0.022640044 0.021081517 0.02456392 0.00096072373
000070 5d 70 b4 3b c4 df 39 3d 03 21 6d bc 6b 09 2c 3c
       0.005506559 0.045379415 -0.014473203 0.010500292
000080 97 29 d6 bc f9 71 7a bd a3 98 e5 bd 7b b2 d8 bd
       -0.026142878 -0.06114385 -0.11210754 -0.105809174
000090 b8 7a c4 3c 50 6a 19 bd 1c c2 b0 bd 09 7d b1 bd
       0.023984298 -0.037454903 -0.086307734 -0.08666427
0000a0 b5 25 64 3d af ee 34 bd b5 e1 f1 3c a7 aa 3b bd
       0.055700023 -0.04417294 0.02952657 -0.045817044
0000b0 95 e0 5f 3c 66 6f 25 3d 7a 01 48 bd 6d 04 84 bb
       0.013664384 0.04038944 -0.048829533 -0.004028848
0000c0 d1 eb 3d bc 80 f0 69 bc b2 d5 b4 bb 9c fc 44 3d
       -0.011591868 -0.014278531 -0.0055186385 0.04809247
0000d0 82 e6 1e bd c4 1a 6e bd 7d 14 b6 3c 4d 90 b5 3c
       -0.038794048 -0.058130994 0.022226566 0.022163535
0000e0 4a e8 92 3c 7b 68 55 bb e4 61 6b 3d c2 cd 05 bd
       0.01793303 -0.0032563496 0.057466403 -0.03266693
0000f0 a8 5a 01 bd ac 41 07 3c c3 23 79 3d 04 2d 71 3c
       -0.031580597 0.0082554035 0.06082512 0.014720205
000100 b9 93 58 3c 43 08 81 bc 75 f1 34 bc f4 af 8c bc
       0.013218814 -0.01575101 -0.011043896 -0.017173745
000110 b5 f4 53 bd c8 7e e4 bc 62 15 5b bd 65 dd 3d bd
       -0.051747043 -0.027892485 -0.05348719 -0.046353716
000120 d6 c0 74 3c ea 68 19 bc 61 8d 55 3d d9 ca 69 3c
       0.014938554 -0.009363392 0.052136783 0.014269554
000130 4e d6 ba 3c 36 9f 32 3d 33 b6 1d bd 9e 7a b1 bd
       0.022807267 0.043608867 -0.038503837 -0.086659655
000140 b8 bc 1f 3d 76 c1 1b 3d 11 75 6b 3d 1b e1 33 3c
       0.038998336 0.038026296 0.05748469 0.010978962
000150 b8 04 28 bc 97 92 91 3c 97 2f 32 3d 2f bc 2b bd
       -0.010255031 0.017770095 0.043502416 -0.041927513
000160 c9 51 cb 3c e4 0d 2b bd 3c c6 9c bd 14 b5 b1 3c
       0.024819272 -0.041761294 -0.07654998 0.02169279
000170 14 22 ba 3c a6 0a b3 bc a1 fb 25 bd 1b b2 19 bd
       0.022721328 -0.021855664 -0.040523175 -0.03752337
000180 7b eb 67 bd 0c b0 2b 3d 95 6d 13 bc 06 33 83 bc
       -0.056621056 0.04191594 -0.008998294 -0.01601554
000190 c2 65 5d bd 15 87 32 3d 77 c5 14 bd 25 76 f4 bc
       -0.054052122 0.043585856 -0.03632113 -0.029841492
0001a0 f1 e4 13 3d 90 73 cd bc 8d 50 ce ba 86 15 98 3b
       0.036107007 -0.025079519 -0.0015740559 0.0046412377
0001b0 38 39 31 bd 19 09 13 bd 9d a4 44 3c 56 48 36 3c
       -0.04326746 -0.035897348 0.0120021375 0.011125645
0001c0 63 56 50 3b 46 72 c3 3b 55 48 75 bb f4 48 33 3b
       0.0031789772 0.00596455 -0.0037427146 0.0027356716
0001d0 71 8b 05 bd d4 0e 6a 3c 5a 4c ac bc 66 97 12 3d
       -0.032603685 0.014285762 -0.021032501 0.035788916
0001e0 fb ce 5c bd a6 fe f8 bb 0d f5 a9 3b 98 c5 a2 bc
       -0.05390833 -0.007598716 0.005186683 -0.01986961
0001f0 a5 9c bd bb 60 bd 62 3c d3 14 34 3d 38 b9 91 bd
       -0.0057864957 0.013839096 0.043965172 -0.07115406
000200 92 69 0d ba f3 54 9a bd f6 97 fc 3b cb 76 c4 3d
       -0.00053944543 -0.07535734 0.007708545 0.095929705
000210 c0 3e a0 bc 1e 5a 21 3d 26 38 15 3d e2 bd cf bc
       -0.019561172 0.039392583 0.0364305 -0.025359098
000220 98 ab 1c bd 26 7a 65 bd ab 9e dd bc 5a b6 03 3d
       -0.038249582 -0.056024693 -0.027053198 0.032156326
000230 58 79 0f 3c d7 72 06 bc b4 b4 73 bc 99 07 6a 3d
       0.008756958 -0.008206091 -0.014874626 0.057136152
000240 46 9b 23 3d b7 03 74 bd 4c ff af 3c 55 aa b4 ba
       0.039943002 -0.059573855 0.02148404 -0.0013783673
000250 a4 e0 49 3d 50 98 3c 3d 72 72 55 bd f9 8e da bc
       0.0492865 0.046043694 -0.052111097 -0.026679503
000260 fb 27 02 3d 34 58 c8 bc 29 eb 41 3d 0e 1c 54 3d
       0.03177641 -0.024456121 0.047343407 0.051784568
000270 d8 e6 00 3d b5 52 18 3b e9 ee 7c bd f0 24 2d 3c
       0.03147015 0.0023242657 -0.06175128 0.010567889
000280 bd 51 5c bd 66 c9 b9 bb 2b 85 17 bb 8f 48 00 bc
       -0.05378889 -0.0056697605 -0.0023120146 -0.007829799
000290 84 f0 58 3d d8 97 26 bd 2e 32 ab bc 96 b4 c9 bc
       0.05296375 -0.040672153 -0.020897951 -0.024622243
0002a0 77 7f eb 3c 0d 1c 49 bc 11 91 ed 3c 6a 9b 4a bc
       0.028747303 -0.012274754 0.028999837 -0.012366155
0002b0 6f dd fe bc 2c 44 16 3d 59 90 9e 3b b4 c7 3c 3d
       -0.031111447 0.036686108 0.004838985 0.04608889
0002c0 4a 4e 23 bd b0 b5 55 bd 7b 0c c2 3c 6c a2 e8 bc
       -0.039869584 -0.052175224 0.023687592 -0.028397761
0002d0 c6 40 aa bc e9 3d 96 bd a9 f6 a0 bd 3a 05 4d 3d
       -0.02078284 -0.07336027 -0.07859547 0.050053813
0002e0 27 ff 88 3d 75 e5 1a bd 7e c1 97 bc 7c e3 27 bd
       0.066892914 -0.037816484 -0.018524881 -0.04098843
0002f0 5f 3e 88 3d 24 0e d9 bc d4 15 c3 3b f1 14 91 bd
       0.06652521 -0.026496 0.00595353 -0.070840724
000300 1e 54 3a bd 32 6b a8 bd e9 c0 c1 3c 2f 9f 3c bc
       -0.045490377 -0.08223571 0.023651557 -0.011512562
000310 d4 c9 c5 3c 06 7e a2 bc 5f 05 ce 3c 90 bc 32 3d
       0.02414409 -0.019835483 0.025149046 0.04363686
000320 3b 7e 1c bd 14 8d 7d bd d5 1c 19 3d 63 9a 12 3c
       -0.03820632 -0.06190212 0.037381012 0.0089479415
000330 f0 14 08 3d c9 d9 02 3c 9c 46 29 3d d5 7b 71 ba
       0.033223093 0.007986494 0.041327104 -0.0009211873
000340 5a ae 81 bd e2 5c f0 bc ae 25 24 bd 84 d8 84 ba
       -0.06332083 -0.029341165 -0.040074997 -0.0010135327
000350 aa d0 5e bc 8a 45 a8 bd 42 4f 7d bd 5d 4b 46 3d
       -0.013599554 -0.082163885 -0.061843164 0.048411716
000360 aa 84 78 3d ac 15 26 3d a2 54 af 3c c4 ff 1f bd
       0.060673393 0.04054801 0.02140266 -0.039062276
000370 32 e7 3b bd 33 57 18 3d 3c 3c 68 bd f5 73 71 bd
       -0.045874782 0.037192535 -0.05669807 -0.058948476
000380 56 30 a4 bd 70 e3 d6 bd 84 29 be bc 66 7e 5c bd
       -0.08017032 -0.10492599 -0.023213156 -0.05383148
000390 4c 5f 90 3d a4 f4 1d 3d 9d 96 ef 3c 63 5d 5d bd
       0.070494264 0.038563386 0.029246623 -0.05404414
0003a0 52 96 94 3d 7e 37 9f bb fd ad 14 3d 5b ed 81 bd
       0.07255234 -0.00485891 0.03629874 -0.063441
0003b0 a8 34 94 3d e4 a3 1e bd 4f a4 3a bd cf 38 4d 3c
       0.07236606 -0.038730517 -0.045566853 0.012525751
0003c0 3f f6 2c bd e2 27 8b bb c7 fa 80 3d 81 85 14 3d
       -0.042227026 -0.0042466978 0.06297832 0.03626013
0003d0 8a 87 0a 3a 22 58 cd 3c 40 75 0d 3d c1 ca 1f bc
       0.0005284479 0.025066439 0.034535646 -0.00975293
0003e0 6a 8f fa 3a 8b 96 98 3a 30 7f e6 3c 19 f8 83 bd
       0.0019116227 0.0011641545 0.02813682 -0.06443805
0003f0 4e d5 0e 3d a9 94 3f bd 8f 64 89 bd 35 50 57 bd
       0.034871392 -0.046772633 -0.06708633 -0.052566726

weight f4 [84, 120]
000000 3d 0d c9 bd 18 b9 c4 3d ee af ea bc 31 38 d1 3d
       -0.09816978 0.09605616 -0.028648343 0.10215796
000010 23 cb 05 bd 5f 6e 9c bd a1 bf f9 3c 47 10 02 be
       -0.03266443 -0.07638239 0.030486884 -0.12701522
000020 d7 7d 49 bd 60 f6 b6 3d aa e5 68 bd 47 1f a9 3d
       -0.049192276 0.08933711 -0.05685965 0.08257919
000030 bd e5 87 3b 7e 2c 43 3d f6 ec 00 be bb cf 13 bd
       0.00414726 0.047649853 -0.12590393 -0.03608678
000040 69 95 38 bd c7 39 f9 bb 87 0e 48 3d 30 fe 5c bd
       -0.045064364 -0.0076057645 0.04884198 -0.05395335
000050 a3 38 17 be 1d 10 b6 bb 99 02 df 3c f5 9b 82 3c
       -0.14767699 -0.00555612 0.027222918 0.015943507
000060 67 50 14 3d 78 3f 8f 3d 06 f3 61 bd 67 ec 87 bd
       0.03620949 0.069945276 -0.055163406 -0.06636887
000070 1e b8 90 bd 32 fb 74 bd c9 c5 59 3d 5b fb 9c 3d
       -0.070663676 -0.05980987 0.05316714 0.0766513
000080 04 0b d8 bc e4 d6 92 3d 1c 79 2d 3c c3 d4 f5 bd
       -0.02637244 0.071698934 0.010587957 -0.12003472
000090 d6 c2 4d bc f6 15 45 bd 50 06 35 bd 01 fa b7 bd
       -0.01255866 -0.048116647 -0.044195473 -0.08983231
0000a0 3d c9 81 bd 2d 4e d7 3c 0d 1f 0b bd 4e 71 65 3d
       -0.06337211 0.026282394 -0.03396516 0.05601626
0000b0 1d e3 1e bd 78 08 4b 3d 2c fc 25 3c 2e 1e bc 3d
       -0.03879081 0.049568623 0.010130923 0.09185444
0000c0 96 c4 d7 bd 19 5d c8 bc a6 43 1b 3c a8 80 c2 bd
       -0.10535543 -0.024458455 0.009476578 -0.094971955
0000d0 e9 73 cb bc ba 17 dc bd 7e 2e 54 bd a2 ae 98 3d
       -0.024835544 -0.10746713 -0.05180215 0.074551836
0000e0 35 fc 3c 3d b7 b0 da b9 61 96 93 3d a3 1b 87 3d
       0.04613896 -0.00041711863 0.07206417 0.06597068
0000f0 9a 83 2f bd 5f ef 9f 3d 7e fa b0 bc 66 8c 49 3d
       -0.042850114 0.07809328 -0.021603819 0.04920616
000100 89 bd c2 3c 57 da 5a 3c 0d 16 85 bd dd e1 58 bd
       0.023772018 0.01335772 -0.064983465 -0.052949775
000110 51 fc 2e bd 94 00 e5 bc c5 29 9a bd 55 2f 84 3d
       -0.042721096 -0.027954377 -0.07527498 0.0645434
000120 12 c3 42 bd 6e 73 12 bd b0 af ae bd 67 e8 a3 bd
       -0.047549315 -0.035754614 -0.085296035 -0.080033116
000130 b4 e3 0a bd d2 2f 84 bd 0f 0f 7d bd bb 80 da 3d
       -0.03390856 -0.064544335 -0.06178194 0.10669085
000140 38 0d 6e 3c 21 cb 5b bd 00 10 66 3c f0 71 d3 3d
       0.014529519 -0.053660516 0.014041901 0.10324466
000150 24 ed 0a 3d ce 63 c1 3c d0 cf 46 3c 59 38 50 bd
       0.03391756 0.02360716 0.012134507 -0.050834987
000160 e2 b0 d7 bd 59 50 14 3d 1b 44 0f 3d dd 9b b1 bd
       -0.105317846 0.036209438 0.03497706 -0.08672307
000170 00 c4 59 3c 25 84 46 bd b4 94 fe bc 5a 78 17 bc
       0.013291359 -0.048465867 -0.031076767 -0.009245003
000180 cc cd b3 3c db 46 c1 bd 18 6a 2d bd c2 0e e0 3c
       0.021948718 -0.09437343 -0.042337507 0.027350787
000190 a6 8c 5a bd 0c a9 90 bb 9e 3a d6 bd c1 09 c3 bb
       -0.05335679 -0.004414683 -0.10460399 -0.0059520905
0001a0 5d 98 91 3a b6 38 80 3c 61 e0 b5 3d dc c8 80 3d
       0.001110803 0.015652042 0.088806875 0.06288311
0001b0 5c e1 05 3d 47 43 d2 bc df f6 78 3c 86 3b 01 bd
       0.032685623 -0.025666846 0.015195577 -0.031550907
0001c0 32 10 b4 3b fa ed ea bd 32 f4 ba bb 31 59 a1 3d
       0.0054950947 -0.11471172 -0.00570538 0.0787834
0001d0 24 54 7e bd 90 bc e6 3d cb 09 e4 bd 11 cc fb bc
       -0.06209196 0.11266434 -0.1113468 -0.030736955
0001e0 6d 97 dd bb ce 23 08 bd 72 b7 a6 3c 58 f4 f8 bd
       -0.006762436 -0.03323727 0.020351145 -0.1215598
0001f0 57 e5 9a 3b 05 b6 a3 3d f0 87 3b bd 8d c2 27 be
       0.0047270465 0.07993702 -0.045783937 -0.16382809
000200 3d 6e ed 3b 7b cb ad bd 3b b3 32 3c 3a fa 0c bd
       0.0072458074 -0.084860764 0.01090699 -0.034418322
000210 50 8e a7 3d ec c1 3d 3d b1 b8 24 bd 8c fd 17 3d
       0.08181441 0.046327516 -0.040215198 0.037107036
000220 f7 2d 4a 3b 39 25 83 bc 8d db d8 bb 9e 15 ab 3d
       0.003085015 -0.01600896 -0.0066179694 0.083537325
000230 53 88 35 bc 02 d9 de 3d 05 11 9a 3d ab 0e a3 bd
       -0.0110798655 0.10881235 0.075227775 -0.07961782
000240 4a 2b 00 3d e0 c0 c6 bd 73 3b 18 bd e4 01 e2 bc
       0.031291284 -0.09704757 -0.03716607 -0.027588792
000250 33 ab 38 3a 63 6a c5 bd 87 19 8a bd 84 fe f3 bb
       0.00070445536 -0.09639432 -0.0674315 -0.007446112
000260 79 a3 9f 3d 00 86 4e bc b5 53 c9 bd c7 99 17 3d
       0.07794852 -0.01260519 -0.09830419 0.037011888
000270 4f d1 8f 3d a2 c2 d6 bc 00 88 59 bc a2 54 d0 bb
       0.07022344 -0.026215855 -0.013277054 -0.0063577453
000280 fb 09 18 be ff e7 30 3d 75 47 99 bd 08 99 9a 3d
       -0.14847557 0.04319 -0.074843325 0.0754872
000290 72 71 99 bd 92 f2 43 bc e8 bd 13 be 69 99 ad 3d
       -0.07492341 -0.011959689 -0.14427912 0.08476526
0002a0 53 ec c5 3c b4 a3 d3 3d 61 7e 85 bb 57 ae 61 3c
       0.02416054 0.10333958 -0.0040739034 0.013774476
0002b0 95 75 cc bc da aa b6 bc d5 a9 32 bd ab 0b 6c 3d
       -0.024958411 -0.022298265 -0.043618996 0.057628315
0002c0 7a 67 87 3d 3b e0 a3 3d 88 a1 9e 3c a2 7c 7f 3d
       0.066115335 0.08001753 0.019364133 0.06237472
0002d0 54 76 99 bc 61 34 3d bd e5 8e 01 3d 33 da 39 3d
       -0.018733181 -0.04619253 0.031630415 0.045374107
0002e0 81 e5 06 3c 3c a3 1d bd 70 88 cf bd 66 3c 8b bd
       0.008233429 -0.03848575 -0.10133445 -0.067986295
0002f0 6c 15 f7 bc 2b ba 7c bd 7d 64 e2 bb 6c 4e 84 bd
       -0.030161582 -0.06170098 -0.006908952 -0.0646027
000300 bf 00 89 bd 73 d7 17 bd da 93 b2 3b 22 43 52 3d
       -0.066895954 -0.037070703 0.005449754 0.051333554
000310 2e 22 f9 3c 2f 81 32 3d f0 09 e3 bd ce 7c 90 3d
       0.030411806 0.04358023 -0.1108588 0.070550546
000320 d2 22 74 bc f1 82 96 bd 99 18 bb 3c c1 cc f2 bb
       -0.01490088 -0.07349194 0.022838878 -0.0074096625
000330 40 f5 c1 3b bd 50 a0 bd 5d 2c d5 bd 45 04 c3 3d
       0.0059191287 -0.078278996 -0.10408852 0.09522299
000340 53 ce 6f 3c c0 f2 93 3c 25 9e b1 3c 39 bb 22 be
       0.014636594 0.018060088 0.021681855 -0.15891732
000350 c7 1c 00 be 66 f7 48 3d 6b 6a a1 3c 37 60 0c be
       -0.12510978 0.049064063 0.019704064 -0.13708578
000360 86 75 57 3b da 86 d8 3b fe 5d 61 bd f7 4f 87 3d
       0.0032876446 0.0066078724 -0.05502128 0.06607049
000370 1c 5d 01 bd a6 63 09 bc 47 f2 34 3d 44 8a 5b bd
       -0.031582937 -0.008385574 0.044176366 -0.053598657
000380 3a e0 9f bd 54 67 80 3d 40 a3 3c 3d 84 cd 07 3d
       -0.0780644 0.06269708 0.046054125 0.03315498
000390 f8 c4 8b 3c 05 06 e4 bd 98 37 93 3d 93 17 09 3d
       0.017061695 -0.11133961 0.07188338 0.033469748
0003a0 19 f2 89 bd 23 49 ea bd 90 da 11 3d 32 2c ad 3c
       -0.067356296 -0.11439731 0.035608828 0.021139238
0003b0 e2 82 ae bd 4b bb c8 3c 5b e9 7d 3d 7e 56 ca 3d
       -0.08521058 0.02450337 0.061990123 0.09879778
0003c0 e5 9d c6 bd ac ec c0 bc d6 88 b1 bd ca ee 4d bd
       -0.09698085 -0.023550354 -0.086686775 -0.050276555
0003d0 08 73 9b bd 0c 3d 7a bd ba 1d 89 bd 24 32 55 bd
       -0.075903 -0.061093375 -0.06695123 -0.05204977
0003e0 50 de 16 bd 28 3c 50 bc 33 e3 3f bd 2c ad a3 bd
       -0.036833107 -0.012709655 -0.046847533 -0.07992014
0003f0 d1 84 7c bd a4 1f 5b bd 87 6a 2b bd 22 42 92 3c
       -0.0616501 -0.05349697 -0.04184964 0.0178538

weight f4 [10, 84]
000000 65 89 5d 3d c5 01 9d bd 42 46 5a 3c 81 55 f6 3d
       0.054086108 -0.07666353 0.013322415 0.12028027
000010 10 7e ad 3d 38 df d8 3d 09 e2 a3 bc 85 1a 84 3d
       0.0847131 0.105894506 -0.020005243 0.06450371
000020 bb e9 47 bd 98 53 c5 bd 11 73 c1 bd de 2c e8 3c
       -0.048806887 -0.09635085 -0.09445775 0.028341707
000030 33 75 d1 3b 82 09 82 3b 25 84 c5 bb 08 6f f3 bd
       0.006392145 0.0039684186 -0.0060277157 -0.11886412
000040 c2 0b f5 3d 90 44 25 bd ae 38 fb b8 ae 44 0b be
       0.11965133 -0.04034859 -0.0001197917 -0.13600418
000050 70 e4 12 3d 69 86 d2 bd d7 8f fd 3d 37 b8 23 3d
       0.035862386 -0.10279543 0.12380951 0.039970603
000060 59 5b a2 3d 5c 67 01 be f2 bd fd 3d 46 7f c1 bd
       0.079275794 -0.12637085 0.12389745 -0.094481036
000070 7e 69 7f be 78 e4 10 3e b1 ce 9e bd 03 24 a8 3e
       -0.24942586 0.14149654 -0.07754267 0.32839975
000080 f2 c4 1a 3d 1c 72 06 ba bf e1 70 bc 5e 61 d7 bd
       0.037785478 -0.0005128698 -0.01470226 -0.10516618
000090 9d 34 f1 bd b4 6b a9 3d 98 ab af bd 31 ec dc 3d
       -0.11777613 0.08272496 -0.08577651 0.107872374
0000a0 0a c1 b2 3d 2e 89 07 be 31 45 14 be 50 60 26 3d
       0.087282255 -0.13235924 -0.1447952 0.040619195
0000b0 7c 5f 2b bc 04 d4 b9 bd 15 41 c7 bd 43 7f ad 3c
       -0.010459777 -0.09073642 -0.0972921 0.021178847
0000c0 b5 ee 3f 3d ea 30 1c bb 13 87 4a 3e 82 20 75 bc
       0.04685851 -0.0023832866 0.19778089 -0.014961364
0000d0 de a6 63 bd 86 93 13 3e d9 6d 60 be fe 03 bf bc
       -0.05557906 0.14411744 -0.21916904 -0.023317333
0000e0 6c ae 4e bd 35 2f 44 3e 88 8f 81 3e bc b0 fc ba
       -0.05045931 0.19158633 0.25304818 -0.0019278745
0000f0 d4 a8 87 3c 08 80 28 bd 4f 48 a4 bb d6 ed b6 bd
       0.016559996 -0.041137725 -0.0050135027 -0.08932082
000100 58 74 7d 3d 99 a0 0b bd 0e 6e a8 bb e2 bc 40 3d
       0.061878532 -0.034088705 -0.0051400727 0.047055133
000110 21 df 27 3d 9e 1c d7 3b 0e cc 9f 3d f3 57 1e 3e
       0.040984277 0.0065646907 0.07802592 0.15463237
000120 f5 cd e7 bd f2 67 88 bd 7c e0 46 bc a1 5e ed bc
       -0.1131858 -0.06660451 -0.012138482 -0.028975787
000130 2f 70 03 3e eb ae dc bd 3d 23 84 3e 69 0e d3 3c
       0.12835763 -0.107755505 0.25808135 0.025763707
000140 1a ac 03 3c eb a3 81 3d 3d d9 eb bc a6 92 6f 3b
       0.008036638 0.06330093 -0.02879011 0.0036555915
000150 47 45 31 bd eb 78 59 bc bc b2 74 bc 3b 6a b8 3d
       -0.04327896 -0.013273458 -0.014935192 0.09004637
000160 c3 46 28 bc 91 d6 4c bd d1 0a 2b 3d 09 35 1d 3e
       -0.010270777 -0.050009314 0.041758362 0.15352263
000170 77 2e bb bd 9e 09 e5 3b ea ed 18 be 1c 24 5b 3e
       -0.09139722 0.006989672 -0.14934507 0.21400493
000180 3f 34 b1 3d 8d 96 92 bd db 47 cc 3d 05 3a 5f 3e
       0.08652543 -0.071576215 0.09974643 0.21799476
000190 d1 47 5c 3d ca 14 a9 3c 80 1d d4 bd 8a 04 48 3e
       0.053779427 0.020639796 -0.10357189 0.19532982
0001a0 3c 08 0c bd 4b b2 93 bd 78 76 9c bd f9 ad a8 bd
       -0.03418754 -0.07211741 -0.076397836 -0.08236308
0001b0 ef 3a 32 3e 45 6b 49 3e 24 48 55 3d 64 d9 eb 3c
       0.17405294 0.19669826 0.05207075 0.028790183
0001c0 88 5c 3e be 6d 58 e0 bc 4a 53 2f 3c 1c 73 84 bd
       -0.18589985 -0.027385915 0.01070101 -0.06467268
0001d0 ea 01 dc bd ac 7f 75 3d 74 8a 6a 3c 30 11 06 3e
       -0.107425526 0.05993621 0.014315236 0.13092494
0001e0 5d d9 1e 3d 98 23 48 bd e2 ef 16 be b2 1e 15 3b
       0.038781513 -0.04886207 -0.14739946 0.0022753892
0001f0 fc 80 20 be a2 b4 21 bd 2f 53 69 3d 4d a3 c0 3b
       -0.15674204 -0.039478905 0.056964096 0.005878842
000200 bd e1 de bd d6 59 2d be ec 99 c6 3d 6a 9b 1a bd
       -0.108829 -0.16928801 0.09697327 -0.03774587
000210 06 4b c4 3c c9 5a b8 3d 1f 7e c5 bd 10 63 44 3b
       0.023961555 0.09001691 -0.09643196 0.0029966272
000220 9a f4 48 3d 9e 21 10 3e cd c8 11 3e 40 1c 5c 3c
       0.049061395 0.14075324 0.14236756 0.01343447
000230 ec c8 ab 3d 2f de bb 3d e9 53 10 be 39 b9 33 3c
       0.08387932 0.091732375 -0.14094509 0.0109694535
000240 ec 60 4a bd 50 39 1f 3e 05 ed 90 3d cb 1d d0 bd
       -0.04940884 0.15549207 0.07076458 -0.101619326
000250 2c 9e 95 bd 66 a4 3a 3c 76 bc 8f 3d dc 89 92 bd
       -0.073055595 0.011391735 0.07018368 -0.07155201
000260 4a d3 10 3d 91 11 a8 3d 7d 25 23 3c 39 30 74 bc
       0.03535775 0.082064755 0.009957668 -0.014904075
000270 dc 6d 39 be 81 eb 8b bd e7 1a 83 bd 75 b9 0c 3d
       -0.18108314 -0.06832028 -0.064016156 0.034356553
000280 5c f5 a7 3c a6 79 a3 bd b7 b6 da 3d ec 74 d5 3d
       0.020502739 -0.07982187 0.10679381 0.10422692
000290 47 51 5b bd 6a a5 e0 3b 51 a6 bc bd d2 36 27 be
       -0.05354431 0.0068556564 -0.0921141 -0.16329506
0002a0 1b ff 02 bc 5a 27 bc bc 3d 64 79 bd 47 4d 08 be
       -0.007995392 -0.022967983 -0.06088661 -0.13310729
0002b0 63 85 a8 3c 98 05 77 3c e6 18 0a 3e df 18 73 be
       0.020571416 0.015077017 0.1348606 -0.23739956
0002c0 d6 a3 da bc 79 70 d0 3d 1d b4 bf 3d a6 29 24 bb
       -0.026689451 0.101777025 0.09360526 -0.0025049238
0002d0 32 ac f4 3d 58 ee 2e 3d 6b 66 ca 3d 6a 86 78 bc
       0.11946906 0.04270777 0.09882816 -0.015168766
0002e0 21 ce 8b bd 0a b7 79 bc c7 01 11 3d 50 41 46 be
       -0.06826425 -0.015241394 0.035402086 -0.19360852
0002f0 03 ab 92 bd 17 5a 7b 3d eb 25 8c 3b ef e5 17 3e
       -0.07161524 0.061365213 0.004276981 0.14833806
000300 74 f5 b2 3c df e7 14 3d 2e ef c5 3d 0e b2 3a 3d
       0.021845557 0.036353942 0.096647605 0.045579962
000310 4c 12 48 be 30 db df bd 6f 9d 90 be 03 0f d6 bd
       -0.1953823 -0.109304786 -0.28245112 -0.10452082
000320 f7 ad e4 ba 2b 68 7c bc e8 59 5a be 8c 9b 39 bc
       -0.0017446865 -0.015405695 -0.21323359 -0.011328589
000330 5a 9a b2 3c cd 43 74 be 76 f0 d7 bc 0c 33 b8 3d
       0.021802116 -0.23853989 -0.026359778 0.089941114
000340 16 54 6d 3e 47 34 85 bc 68 20 d4 3d 65 95 2b 3e
       0.23176607 -0.01626028 0.103577435 0.16756208
000350 28 bd 56 bd dc e1 18 bb ee 6d b9 3b d4 88 45 bd
       -0.052426487 -0.0023327982 0.0056588566 -0.048226193
000360 86 64 45 be 58 ae 34 bd 43 05 fd bd b3 3f aa 3d
       -0.19276628 -0.04411158 -0.12354519 0.08312931
000370 83 9e 2a be f3 51 00 3e 9b 2f 9d bc 23 49 be 3d
       -0.1666203 0.12531261 -0.01918774 0.092912935
000380 99 6e 8e 3e 64 95 06 bd 55 c2 b7 bd f0 d2 69 be
       0.27818754 -0.032857314 -0.08972613 -0.22834373
000390 08 4e 17 bd 2a 03 0d 3d 1f 6a 66 3d 95 d8 0b bd
       -0.03693965 0.034426846 0.05625355 -0.034142096
0003a0 eb 2e 28 bd e1 fc fd 3d 65 2b a3 3d 9b 71 d0 3d
       -0.04106037 0.124017484 0.07967261 0.101779185
0003b0 5c 89 68 3c a9 21 29 bc b9 75 d2 3d e5 0a a1 3d
       0.014192905 -0.010322967 0.1027636 0.07863406
0003c0 78 21 03 3e 8c e7 50 bc 39 08 9b 3c 78 63 fb 3c
       0.12805736 -0.012750518 0.01892482 0.030687079
0003d0 47 02 fb 3d 5e 89 b3 bb da d5 0b be f6 0d b1 be
       0.12256294 -0.005479022 -0.13655797 -0.34580964
0003e0 11 28 75 bd bf 14 8a 3d a8 c0 30 bd 52 19 8f bd
       -0.059852663 0.06742238 -0.04315248 -0.06987251
0003f0 12 ee cc 3d aa 24 02 3e cb 2e e8 ba 8a c8 11 3e
       0.10006346 0.12709299 -0.0017714141 0.14236656

input f4 [16, 1, 28, 28]
000000 00 00 00 00 00 00 00 00 00 00 00 00 00 00 00 00
       0.0 0.0 0.0 0.0
000010 00 00 00 00 00 00 00 00 00 00 00 00 00 00 00 00
       0.0 0.0 0.0 0.0
000020 00 00 00 00 00 00 00 00 00 00 00 00 00 00 00 00
       0.0 0.0 0.0 0.0
000030 00 00 00 00 00 00 00 00 00 00 00 00 00 00 00 00
       0.0 0.0 0.0 0.0
000040 00 00 00 00 00 00 00 00 00 00 00 00 00 00 00 00
       0.0 0.0 0.0 0.0
000050 00 00 00 00 00 00 00 00 00 00 00 00 00 00 00 00
       0.0 0.0 0.0 0.0
000060 00 00 00 00 00 00 00 00 00 00 00 00 00 00 00 00
       0.0 0.0 0.0 0.0
000070 00 00 00 00 00 00 00 00 00 00 00 00 00 00 00 00
       0.0 0.0 0.0 0.0
000080 00 00 00 00 00 00 00 00 00 00 00 00 00 00 00 00
       0.0 0.0 0.0 0.0
000090 00 00 00 00 00 00 00 00 00 00 00 00 00 00 00 00
       0.0 0.0 0.0 0.0
0000a0 00 00 00 00 00 00 00 00 00 00 00 00 00 00 00 00
       0.0 0.0 0.0 0.0
0000b0 00 00 00 00 00 00 00 00 00 00 00 00 00 00 00 00
       0.0 0.0 0.0 0.0
0000c0 00 00 00 00 00 00 00 00 00 00 00 00 00 00 00 00
       0.0 0.0 0.0 0.0
0000d0 00 00 00 00 00 00 00 00 00 00 00 00 00 00 00 00
       0.0 0.0 0.0 0.0
0000e0 00 00 00 00 00 00 00 00 00 00 00 00 00 00 00 00
       0.0 0.0 0.0 0.0
0000f0 00 00 00 00 00 00 00 00 00 00 00 00 00 00 00 00
       0.0 0.0 0.0 0.0
000100 00 00 00 00 00 00 00 00 00 00 00 00 00 00 00 00
       0.0 0.0 0.0 0.0
000110 00 00 00 00 00 00 00 00 00 00 00 00 00 00 00 00
       0.0 0.0 0.0 0.0
000120 00 00 00 00 00 00 00 00 00 00 00 00 00 00 00 00
       0.0 0.0 0.0 0.0
000130 00 00 00 00 00 00 00 00 00 00 00 00 00 00 00 00
       0.0 0.0 0.0 0.0
000140 00 00 00 00 00 00 00 00 00 00 00 00 00 00 00 00
       0.0 0.0 0.0 0.0
000150 00 00 00 00 00 00 00 00 00 00 00 00 00 00 00 00
       0.0 0.0 0.0 0.0
000160 00 00 00 00 00 00 00 00 00 00 00 00 00 00 00 00
       0.0 0.0 0.0 0.0
000170 00 00 00 00 00 00 00 00 00 00 00 00 00 00 00 00
       0.0 0.0 0.0 0.0
000180 00 00 00 00 00 00 00 00 00 00 00 00 00 00 00 00
       0.0 0.0 0.0 0.0
000190 00 00 00 00 00 00 00 00 00 00 00 00 00 00 00 00
       0.0 0.0 0.0 0.0
0001a0 00 00 00 00 00 00 00 00 00 00 00 00 00 00 00 00
       0.0 0.0 0.0 0.0
0001b0 00 00 00 00 00 00 00 00 00 00 00 00 00 00 00 00
       0.0 0.0 0.0 0.0
0001c0 00 00 00 00 00 00 00 00 00 00 00 00 00 00 00 00
       0.0 0.0 0.0 0.0
0001d0 00 00 00 00 00 00 00 00 00 00 00 00 00 00 00 00
       0.0 0.0 0.0 0.0
0001e0 00 00 00 00 00 00 00 00 00 00 00 00 00 00 00 00
       0.0 0.0 0.0 0.0
0001f0 00 00 00 00 00 00 00 00 00 00 00 00 00 00 00 00
       0.0 0.0 0.0 0.0
000200 00 00 00 00 00 00 00 00 00 00 00 00 00 00 00 00
       0.0 0.0 0.0 0.0
000210 00 00 00 00 00 00 00 00 00 00 00 00 00 00 00 00
       0.0 0.0 0.0 0.0
000220 00 00 00 00 00 00 00 00 00 00 00 00 00 00 00 00
       0.0 0.0 0.0 0.0
000230 00 00 00 00 00 00 00 00 00 00 00 00 00 00 00 00
       0.0 0.0 0.0 0.0
000240 00 00 00 00 00 00 00 00 00 00 00 00 00 00 00 00
       0.0 0.0 0.0 0.0
000250 00 00 00 00 00 00 00 00 00 00 00 00 00 00 00 00
       0.0 0.0 0.0 0.0
000260 00 00 00 00 00 00 00 00 00 00 00 00 00 00 80 3f
       0.0 0.0 0.0 1.0
000270 00 00 80 3f 00 00 80 3f 00 00 00 00 00 00 00 00
       1.0 1.0 0.0 0.0
000280 00 00 00 00 00 00 00 00 00 00 00 00 00 00 00 00
       0.0 0.0 0.0 0.0
000290 00 00 00 00 00 00 00 00 00 00 00 00 00 00 00 00
       0.0 0.0 0.0 0.0
0002a0 00 00 00 00 00 00 00 00 00 00 00 00 00 00 00 00
       0.0 0.0 0.0 0.0
0002b0 00 00 00 00 00 00 00 00 00 00 00 00 00 00 00 00
       0.0 0.0 0.0 0.0
0002c0 00 00 00 00 00 00 00 00 00 00 00 00 00 00 00 00
       0.0 0.0 0.0 0.0
0002d0 00 00 00 00 00 00 00 00 00 00 00 00 00 00 80 3f
       0.0 0.0 0.0 1.0
0002e0 00 00 80 3f 00 00 80 3f 00 00 00 00 00 00 00 00
       1.0 1.0 0.0 0.0
0002f0 00 00 00 00 00 00 00 00 00 00 00 00 00 00 00 00
       0.0 0.0 0.0 0.0
000300 00 00 00 00 00 00 00 00 00 00 00 00 00 00 00 00
       0.0 0.0 0.0 0.0
000310 00 00 00 00 00 00 00 00 00 00 00 00 00 00 00 00
       0.0 0.0 0.0 0.0
000320 00 00 00 00 00 00 00 00 00 00 00 00 00 00 00 00
       0.0 0.0 0.0 0.0
000330 00 00 00 00 00 00 00 00 00 00 00 00 00 00 00 00
       0.0 0.0 0.0 0.0
000340 00 00 00 00 00 00 00 00 00 00 80 3f 00 00 80 3f
       0.0 0.0 1.0 1.0
000350 00 00 80 3f 00 00 80 3f 00 00 00 00 00 00 00 00
       1.0 1.0 0.0 0.0
000360 00 00 00 00 00 00 00 00 00 00 00 00 00 00 00 00
       0.0 0.0 0.0 0.0
000370 00 00 00 00 00 00 00 00 00 00 00 00 00 00 00 00
       0.0 0.0 0.0 0.0
000380 00 00 00 00 00 00 00 00 00 00 00 00 00 00 00 00
       0.0 0.0 0.0 0.0
000390 00 00 00 00 00 00 00 00 00 00 00 00 00 00 00 00
       0.0 0.0 0.0 0.0
0003a0 00 00 00 00 00 00 00 00 00 00 00 00 00 00 00 00
       0.0 0.0 0.0 0.0
0003b0 00 00 00 00 00 00 00 00 00 00 80 3f 00 00 80 3f
       0.0 0.0 1.0 1.0
0003c0 00 00 80 3f 00 00 80 3f 00 00 00 00 00 00 00 00
       1.0 1.0 0.0 0.0
0003d0 00 00 00 00 00 00 00 00 00 00 00 00 00 00 00 00
       0.0 0.0 0.0 0.0
0003e0 00 00 00 00 00 00 00 00 00 00 00 00 00 00 00 00
       0.0 0.0 0.0 0.0
0003f0 00 00 00 00 00 00 00 00 00 00 00 00 00 00 00 00
       0.0 0.0 0.0 0.0

output f4 [16, 10]
000000 9a c3 87 be fe 29 a4 3f 4c 0f 09 be d5 2f 2d be
       -0.2651642 1.2825315 -0.13384742 -0.16912778
000010 cc ce e0 be 4c aa 8a bd 40 8d 0e be 6a 3d 79 3d
       -0.43907773 -0.06770763 -0.1392107 0.060849585
000020 7c e4 8b 3e 15 5f 81 be b5 59 cb bd dc f4 26 3f
       0.27322757 -0.25267854 -0.0992922 0.65217376
000030 71 8c 9d 3f 8c d0 3f 3e 0c 0d d8 be a5 fb 46 bf
       1.2308484 0.18731898 -0.42197454 -0.7772773
000040 ac d3 0c bf 39 28 a5 3e 69 4d b3 3e 8e ef 66 be
       -0.55010486 0.3225725 0.35019997 -0.2255232
000050 7b 18 c4 be 90 20 ab bb 74 59 7f bf 82 bc ce 3f
       -0.38299927 -0.0052223876 -0.9974587 1.6151278
000060 34 91 f3 3e 0e 55 dd 3e 33 7e 0a c0 76 b3 4f bf
       0.4757172 0.43228954 -2.1639526 -0.8113321
000070 f6 7f 9f 3e 05 a0 d3 3f cc 2f 47 bf 6f d3 b6 be
       0.31152314 1.6533209 -0.7780731 -0.35708186
000080 9d ca 49 bf 92 98 45 be 0f 14 0d 40 6d a4 d6 be
       -0.7882479 -0.19296482 2.2043493 -0.41922322
000090 6d 48 a6 bf 10 0b 1c 3d 58 e1 04 3f 77 28 6a 3f
       -1.2990853 0.038096488 0.5190635 0.91467994
0000a0 a6 fa eb be ff 4e 9f be a3 fd 8a bf 38 9b 42 3f
       -0.46089667 -0.31114957 -1.0858654 0.76018095
0000b0 59 13 e3 be 34 ab f4 3f e5 2c af bf 5d 02 ce be
       -0.443507 1.9114747 -1.3685576 -0.40236178
0000c0 60 e9 28 bc 1a db 6b 3f 90 f6 a6 3c ea d9 90 be
       -0.010309547 0.921312 0.020381242 -0.28291255
0000d0 fb 98 03 bf 7a 76 95 be 96 d0 89 bc 16 87 47 3e
       -0.51405305 -0.29191953 -0.016823094 0.19485125
0000e0 da 24 9e 3f d0 11 21 bf 72 95 bc 3e c2 21 05 be
       1.2354996 -0.62917805 0.36832768 -0.13001159
0000f0 b0 68 b6 be 30 cf 49 be 52 4f 0c 3f 02 6a ae 3d
       -0.35626745 -0.19707942 0.54808533 0.08516313
000100 64 e5 0e be b4 67 9b be bb d3 02 c0 48 50 cb 3f
       -0.13954693 -0.30352557 -2.044173 1.5883875
000110 bb 62 c8 be db b2 af 3e 6a e8 d4 3e a8 d6 f1 bd
       -0.39137825 0.34316143 0.41583568 -0.118085206
000120 cc e7 97 3d e5 79 29 3f 3c 92 09 bf 8f fe 43 be
       0.074172586 0.6620162 -0.5373876 -0.19140075
000130 9c 37 94 bf cb e9 2f bf 0a 5b d9 3f b1 7d 89 be
       -1.1579471 -0.68716115 1.6980908 -0.26853707
000140 78 ef 76 bd 04 72 c2 be 20 e0 70 bf 46 41 02 be
       -0.06028697 -0.37977612 -0.9409199 -0.12720212
000150 88 54 99 3f 8d 1c 9b be 54 f2 57 bf c0 ea c4 3c
       1.1978922 -0.3029522 -0.8435414 0.024037719
000160 c0 19 8d bc aa 06 e6 3f e4 4f ec 3f 30 69 f9 bb
       -0.017224193 1.7970784 1.8461881 -0.0076114163
000170 39 60 d3 be 08 98 7f bc 6d e0 20 bf f0 b9 3b be
       -0.4128435 -0.015600212 -0.62842447 -0.18332648
000180 b4 e4 b6 3e 25 07 1e bf 25 35 6b 3e 0a 79 80 3e
       0.35721362 -0.6172965 0.22969492 0.25092345
000190 1c 1e 06 bf ec 36 a6 3f 0d b8 60 be 9e db 81 be
       -0.52389693 1.2985511 -0.2194521 -0.25362867
0001a0 85 f3 13 be a0 e2 1b 3e b0 88 14 be f0 77 b0 bc
       -0.14448364 0.1522317 -0.14505267 -0.021541566
0001b0 02 0d 3e 3e ad 4a 21 be d0 29 db 3c 68 dc 9f 3e
       0.1855965 -0.15751143 0.026753336 0.31222844
0001c0 fb 00 da 3f 26 83 0f 3f 4e e6 05 bf d5 fd 4b bf
       1.7031549 0.5605949 -0.5230454 -0.7968419
0001d0 1b a9 8e bf 96 fc 95 3e 5f dd 23 3e 58 c0 11 bf
       -1.1145357 0.2929427 0.16002415 -0.5693412
0001e0 45 fd af be 6c e8 e7 be 07 db 86 bf fb a4 e4 3f
       -0.34372917 -0.4529451 -1.0535592 1.7862848
0001f0 e4 5a 04 bd ac d7 40 3f 1e 06 db bf cd a9 3f bf
       -0.032313243 0.7532909 -1.7111242 -0.7486847
000200 3e 16 f9 3e 15 ae 83 3f b8 72 74 bf fa 4c b9 be
       0.48649782 1.0287501 -0.95487547 -0.3619154
000210 20 5d 47 bf af 32 33 bf ad c0 0f 40 77 14 10 bf
       -0.7787647 -0.6999921 2.246135 -0.56281227
000220 f1 bd db bf 32 c1 1a 3f bd ae 2f 3f 4b 49 a7 3f
       -1.716734 0.6045104 0.68626004 1.3069242
000230 64 c2 92 3e 24 d5 bd be 21 c9 e9 bf cd bc 20 be
       0.28663933 -0.37076676 -1.8264505 -0.15697022
000240 e5 07 3b bf 89 ce 82 3f 55 35 1d 3f 5a fa 11 bf
       -0.7305892 1.021928 0.61409503 -0.5702263
000250 b4 0d 0f 3f 46 3d fe 3d 4e 03 8c 3e 0e 47 85 be
       0.55880284 0.12414031 0.2734627 -0.26030773
000260 24 ef c6 be 55 88 13 bf b9 d8 44 bd 00 e1 a2 ba
       -0.38854325 -0.576299 -0.048058245 -0.0012426674
000270 01 1a a4 3f 58 38 ab be 10 6b 7f 3d 08 dd 01 be
       1.2820436 -0.33441424 0.062357962 -0.12681973
