model/SNN_SimpleLSTM_Acc_73.35.onnx (onnx, 515823 bytes, 6 tensors)

lstm.input_to_gate.weight f4 [512, 28]
0	0x3e068152	0.1313527
1	0x3e0433c0	0.12910366
2	0x3e0c8046	0.13720807
3	0x3e1dfc9b	0.15428393
4	0x3d91c784	0.07118133
5	0xbd354e7b	-0.044264298
6	0xbd4aeaac	-0.049540207
7	0x3e071c35	0.13194354
8	0x3e24abad	0.16081114
9	0xbbb9a1a1	-0.0056650196
10	0x3ddad4e9	0.10685141
11	0xbe102482	-0.14076427
12	0xbd98c69f	-0.07459759
13	0x3e23bc94	0.15989906
14	0x3df8f837	0.12156718
15	0xbde56d31	-0.11202467
16	0x3de83d69	0.11339838
17	0xbe0f00f9	-0.13965215
18	0x3dd93ee3	0.10607698
19	0x3e202d94	0.15642387
20	0x3da006a6	0.07813768
21	0x3e052b79	0.13004865
22	0x3db73f9a	0.08947678
23	0x3db89b9f	0.09014057
24	0xbd50bd48	-0.050961763
25	0x3e226823	0.15860038
26	0xbe403cd7	-0.18773209
27	0x3ddac570	0.106821895
28	0xbd02bd9b	-0.031919103
29	0x3e24828f	0.16065429
30	0x3cae40e6	0.02127118
31	0x3dff5f80	0.12469387
32	0x3d345413	0.044025492
33	0xbe1150ab	-0.14190929
34	0xbaec8b16	-0.0018046822
35	0x3d90031d	0.07031844
36	0xbde0e1d1	-0.10980571
37	0xbcabd554	-0.020975746
38	0x3db86ae6	0.09004764
39	0xbdd9940a	-0.10623939
40	0xbdb0f113	-0.08639731
41	0xbde7f012	-0.11325087
42	0x3e225de2	0.15856126
43	0xbc490042	-0.012268128
44	0xbe029330	-0.1275146
45	0xbde0d21c	-0.10977575
46	0x3d47b49a	0.04875622
47	0xbd46af42	-0.048506983
48	0x3e07efd1	0.13275076
49	0x3dedcbaf	0.11611115
50	0x3d9f27ca	0.07771261
51	0x3d274a15	0.040842135
52	0x3dbf1364	0.0932987
53	0x3d929177	0.071566515
54	0x3c7534da	0.014966214
55	0x3dde7342	0.108618274
56	0xbe376832	-0.17910841
57	0xbe173dc9	-0.14769663
58	0x3dbe7c33	0.09301033
59	0x3df98c39	0.121849485
60	0x3d259e61	0.040434245
61	0x3d36e49c	0.044651613
62	0x3e587039	0.2113656
63	0x3e774a99	0.2414955
64	0x3e762b52	0.24039963
65	0x3dfcc174	0.12341586
66	0x3e6820a1	0.22668697
67	0x3e9ad3ae	0.30239624
68	0x3e5d7ac4	0.21628863
69	0x3e5680b2	0.20947531
70	0x3eb8f2a6	0.36122626
71	0x3e680186	0.22656831
72	0x3e4400a8	0.19140875
73	0xbe3329b7	-0.17496382
74	0x3dd190d9	0.102327056
75	0x3d504c35	0.050853927
76	0x3c8a316e	0.016869273
77	0x3c3a9163	0.011387202
78	0x3b122f1a	0.0022305907
79	0xbdc38195	-0.095462
80	0xbd9c7a41	-0.076405056
81	0xbdc4b740	-0.09605265
82	0xbe292355	-0.16517384
83	0x3e3a5c93	0.18199377
84	0xbe292580	-0.16518211
85	0xbd56e9b0	-0.052468956
86	0x399a5627	0.00029437357
87	0x3dd16b49	0.10225541
88	0x3dd9fb0a	0.10643585
89	0x3daa497a	0.08314796
90	0x3e38a1f8	0.18030536
91	0x3c2c92cb	0.010533045
92	0x3d9904b5	0.07471601
93	0xbe2e1f13	-0.17004041
94	0xbe3c13dc	-0.18366951
95	0xbe17c035	-0.14819415
96	0xbc8d4470	-0.017244548
97	0xbdc4d560	-0.096110106
98	0x3daf73d9	0.08567018
99	0xbd83cb51	-0.06435264
100	0xbdeed9b3	-0.116626166
101	0xbd1e64a3	-0.038670193
102	0xbe147f3f	-0.14501666
103	0x3e1587f3	0.14602642
104	0x3dc2810d	0.09497271
105	0x3e3fcd4b	0.18730657
106	0xbd81b9dd	-0.06334279
107	0xbdb2bc79	-0.087273546
108	0x3ce21e61	0.027602376
109	0x3dbcf2c9	0.09225995
110	0xbe0464ba	-0.12929049
111	0xbd48b77b	-0.049003106
112	0xbe02a3ac	-0.12757748
113	0x3d2662d1	0.040621582
114	0xbcf5a1b0	-0.029984325
115	0x3da02c59	0.07820959
116	0x3c8506c1	0.016238572
117	0xbe00f71e	-0.12594268
118	0xbd1cd348	-0.03828743
119	0xbe2e5b05	-0.17026909
120	0xbe0df2ca	-0.13862148
121	0xbced48e7	-0.028965427
122	0xbdd4ecd5	-0.103967346
123	0x3cdd672a	0.027026732
124	0x3d42227b	0.047396164
125	0xbde4ae7e	-0.11166094
126	0xbd9e43a4	-0.07727745
127	0x3c2c8582	0.010529878
128	0xbd9bbc4d	-0.07604275
129	0x3ca66ea4	0.02031643
130	0x3e2d9683	0.16951947
131	0xbd50be63	-0.050962817
132	0xbe1be714	-0.15224868
133	0x3e2ce899	0.16885604
134	0x3e14b79a	0.14523163
135	0x3d333c9c	0.043758973
136	0x3cc12107	0.023575319
137	0xbdb97474	-0.09055415
138	0x3d2b58e7	0.04183283
139	0xbe37aa83	-0.17936139
140	0xbd3ba0f4	-0.045807794
141	0x3cb81c73	0.022474503
142	0xbc1eab79	-0.009684437
143	0x3e10ce2f	0.14141153
144	0x3db796d0	0.08964312
145	0x3e17a454	0.1480878
146	0x3d40b115	0.04704388
147	0x3e12ffd4	0.14355403
148	0xbd893ff8	-0.06701654
149	0x3e2bd511	0.16780497
150	0xbd2719ce	-0.040796094
151	0xbe19bcd9	-0.15013446
152	0xbcc79f75	-0.024368027
153	0xbe234b43	-0.15946679
154	0x3e48eda5	0.19621904
155	0xbd01ac7e	-0.031658642
156	0x3d8371a0	0.064181566
157	0x3dd633a4	0.104590684
158	0x3e1bd632	0.15218428
159	0xbdbdf5a8	-0.09275371
160	0xbd2275ce	-0.03966313
161	0xbc9d5536	-0.01920567
162	0x3e0dd305	0.13850029
163	0x3e28bf61	0.16479255
164	0x3e0a1408	0.13484204
165	0xbdbb61ea	-0.09149535
166	0x3e0270d9	0.1273836
167	0xbd8d9c1a	-0.0691454
168	0xbd9245bf	-0.07142209
169	0xbce05460	-0.027383983
170	0xbd6fe2c3	-0.058565866
171	0xbdb1d685	-0.086834945
172	0x3e3199f1	0.1734388
173	0x3e026221	0.12732746
174	0x3d05e1f3	0.032686185
175	0x3d6a848e	0.05725532
176	0xbda10c0f	-0.07863628
177	0xbb74b230	-0.0037337653
178	0xbca3d818	-0.020000502
179	0xbd179196	-0.037004076
180	0x3bb89155	0.0056325593
181	0xbe0f22dc	-0.13978142
182	0x3d537686	0.051626705
183	0x3e7075ac	0.23482388
184	0x3e104ab4	0.14090997
185	0x3e2fe20c	0.17176074
186	0x3defc68c	0.11707792
187	0x3de62fc3	0.112395786
188	0x3de95602	0.11393358
189	0xbe1311a9	-0.14362206
190	0x3db74c04	0.08950046
191	0x3e29c115	0.16577561
192	0x3caff805	0.02148057
193	0xbdccfe9d	-0.10009501
194	0xbe0a22d2	-0.13489845
195	0xbd9e88e5	-0.07740954
196	0x3dc56e97	0.09640234
197	0x3e34dd51	0.1766255
198	0x3e33e5f3	0.17568187
199	0x3cdc270a	0.026874084
200	0xbc8e3b96	-0.017362397
201	0x3db14472	0.08655633
202	0xbe1d59e8	-0.15366328
203	0xbe05c1ec	-0.13062257
204	0x3e23cfad	0.15997191
205	0xbdbd2937	-0.09236377
206	0xbd3c44c6	-0.045964025
207	0x3d044c04	0.032299057
208	0xbe36fb49	-0.17869295
209	0x3d6f8203	0.0584736
210	0x3c1bc015	0.009506245
211	0x3d3b7c92	0.045773096
212	0xbe33b798	-0.17550504
213	0x3db90f70	0.090361476
214	0x3da28530	0.0793556
215	0x3dae735a	0.08518095
216	0xbe1b60e7	-0.15173684
217	0x3d8fdc81	0.0702448
218	0x3d66a555	0.056310017
219	0xbd211e10	-0.03933531
220	0xbcf36f96	-0.029716294
221	0xbe3b3a27	-0.18283902
222	0x3d6ef4b3	0.058338832
223	0x3dde27a1	0.10847402
224	0xbdccb2d0	-0.09995043
225	0x3ce1fcbc	0.027586333
226	0x3e07107f	0.13189887
227	0x3e0c96aa	0.13729349
228	0xbd189b41	-0.037257437
229	0x3cc63f58	0.024200127
230	0x3e175e95	0.14782174
231	0x3d504936	0.05085107
232	0xbdd44e94	-0.1036655
233	0xbdd93a30	-0.106068015
234	0x3cb5e671	0.02220461
235	0xbdcb9b95	-0.09941784
236	0xbe679ed6	-0.22619185
237	0xbcef7103	-0.029228693
238	0xbe5f0549	-0.2177936
239	0xbe6e001d	-0.2324223
240	0xbdb7dcfc	-0.08977696
241	0x3d8e370c	0.06944093
242	0x3e14f07f	0.14544867
243	0x3d2e08a5	0.042488713
244	0x3e221206	0.15827188
245	0x3be63a20	0.007025972
246	0x3e23f169	0.1601006
247	0xbe3d5e4b	-0.18493001
248	0x3e18a70b	0.14907472
249	0x3d6cc430	0.057804286
250	0x3dc5aa7f	0.0965166
251	0xbcdfc4b8	-0.027315482
252	0x3da5ffd4	0.08105436
253	0x3e0ac737	0.13552557
254	0x3d1d37c5	0.038383264
255	0xbe00fc7c	-0.12596315

lstm.input_to_gate.bias f4 [512]
0	0x3dee13c0	0.11624861
1	0x3b4fb754	0.0031694965
2	0xbe2287b8	-0.15872085
3	0xbc4ee2f4	-0.012627352
4	0xbddbd55b	-0.10734054
5	0xbdb6e4da	-0.08930369
6	0x3d41a7a6	0.047279023
7	0x3e299dd3	0.16564111
8	0xbd94ad9e	-0.07259677
9	0x3c9e97ec	0.019359551
10	0x3e14f5d2	0.14546898
11	0xbe2705f8	-0.1631087
12	0xbd9618b7	-0.07328933
13	0xbca6a1a2	-0.020340744
14	0xbd68b305	-0.05681135
15	0xbd882965	-0.066485204
16	0xbd8115a4	-0.06302956
17	0xbd3cdec4	-0.046110883
18	0xbd7209ab	-0.05909125
19	0x3df199b2	0.11796893
20	0x3ddb5d8f	0.10711204
21	0x3e2ec5c4	0.17067629
22	0xbd7d6419	-0.06186304
23	0x3e25c113	0.16186933
24	0xbd5a420c	-0.053285643
25	0x3e3b7413	0.18305998
26	0x3e3fc078	0.18725765
27	0xbe61793c	-0.22018903
28	0x3e4dcbee	0.20097324
29	0x3c35b6da	0.0110909585
30	0x3dc8ce8e	0.09805022
31	0xbd9eebdc	-0.0775983
32	0xbdbb2d4d	-0.091395
33	0x3e415456	0.18879828
34	0x3e367350	0.17817426
35	0xbe287396	-0.16450343
36	0x3dbf63a8	0.0934518
37	0xbe3e3685	-0.18575485
38	0x3dcefd28	0.101068795
39	0x3daa9c3e	0.08330582
40	0x3cb62111	0.022232564
41	0x3e082d32	0.1329849
42	0x3d641d3d	0.055691946
43	0x3d9fa97f	0.07796001
44	0x3e21525a	0.15754071
45	0x3d6c15e4	0.057638064
46	0xbd53fdca	-0.051755704
47	0x3e1af08e	0.15130827
48	0x3e32d04c	0.17462271
49	0x3dcc6236	0.0997967
50	0xbe118562	-0.14211038
51	0x3abd46ca	0.0014440652
52	0x3e58cd61	0.21172096
53	0x3e2b8376	0.16749367
54	0xbd98f329	-0.07468254
55	0x3e41945a	0.18904248
56	0xbbe43f8d	-0.0069655837
57	0x3db9c2ca	0.09070356
58	0xbdb57f30	-0.0886215
59	0xbccb7b41	-0.024839045
60	0x3e3abd40	0.18236256
61	0x3c19e798	0.009393595
62	0xbde14415	-0.10999314
63	0x3d67a901	0.05655766
64	0xbd96cd87	-0.0736342
65	0x3d62b185	0.055345077
66	0xbe0db2cd	-0.13837738
67	0x3dc2c130	0.09509504
68	0x3dcfee08	0.10152823
69	0xbd691127	-0.056901123
70	0xbbd51fb9	-0.006504026
71	0x3d94afdf	0.07260107
72	0x3e20f53f	0.15718554
73	0x3dbbf216	0.091770336
74	0x3de4d100	0.11172676
75	0xbdcd3334	-0.10019532
76	0x3d461558	0.0483602
77	0x3de0638d	0.10956488
78	0x3c4a76cf	0.012357428
79	0x3e266dc7	0.16252814
80	0x3e14cefd	0.14532085
81	0xbdca5585	-0.09879593
82	0xbd941db0	-0.07232225
83	0xbdf82899	-0.121171184
84	0x3dc000f4	0.09375182
85	0x3e1dd342	0.1541262
86	0x3e07cec2	0.13262466
87	0x3e3c02c6	0.18360433
88	0xbe2a75ac	-0.16646451
89	0x3e00bad9	0.12571277
90	0xbe13675e	-0.143949
91	0xbe1d4f39	-0.15362252
92	0x3dcc90ed	0.0998858
93	0x3df78979	0.12086768
94	0xbe3196c4	-0.17342669
95	0xbe050009	-0.12988295
96	0xbe742ba6	-0.23844776
97	0x3d9da2e1	0.07697082
98	0xbdb5e29c	-0.08881113
99	0x3d4c3e3a	0.04986403
100	0x3d539081	0.05165148
101	0xbddb01eb	-0.10693725
102	0x3e29404f	0.16528438
103	0x3deb7e2f	0.11498677
104	0x3e337e36	0.17528614
105	0xbe38cd86	-0.18047151
106	0x3e2f34a1	0.1710992
107	0xbe3246b8	-0.1740979
108	0xbbbe52fb	-0.005808232
109	0xbdd3cf46	-0.10342269
110	0x3e3894fc	0.18025583
111	0xbe2c27d7	-0.16812073
112	0x3e0bd684	0.1365605
113	0xbdb437a3	-0.08799674
114	0xbe2b9cc1	-0.16759016
115	0x3e367689	0.17818655
116	0xbd08062e	-0.03320902
117	0xbdc57245	-0.09640936
118	0xbe242724	-0.16030556
119	0x3cdf5582	0.027262453
120	0x3da7abdc	0.081870764
121	0x3e4965c9	0.19667734
122	0xbca9f3d9	-0.020746158
123	0xbd84bfbe	-0.064818844
124	0xbe29297f	-0.16519736
125	0x3dba2f60	0.09091067
126	0x3e22d0fe	0.15900037
127	0x3e35aa96	0.17740855
128	0x3dcda349	0.1004091
129	0xbdfbb125	-0.12289647
130	0x3e65a7a0	0.22427225
131	0x3abbf6a0	0.0014340468
132	0xbde2b551	-0.110697396
133	0xbdd08cfd	-0.101831414
134	0x3db85712	0.09000982
135	0xbcf8d1d7	-0.030373497
136	0xbe142c42	-0.14470008
137	0x3e403cde	0.18773219
138	0x3dd4d20b	0.10391625
139	0xbc669f0f	-0.014076008
140	0xbe2ca9c1	-0.16861631
141	0xbe1c8844	-0.15286356
142	0x3a58f344	0.00082759955
143	0xbdc77914	-0.09739891
144	0xbe0617f3	-0.13095073
145	0xbdc48dd4	-0.09597364
146	0x3c758232	0.014984654
147	0x3e83f418	0.25772166
148	0x3dfa55a8	0.12223369
149	0x3e246090	0.1605246
150	0x3d1c4ae3	0.038157355
151	0x3b8ffea0	0.0043943673
152	0xbe3331be	-0.17499444
153	0x3cc25722	0.023723189
154	0xbdc33ccc	-0.095330805
155	0x3d9c2885	0.07624916
156	0x3e139913	0.14413862
157	0xbcbb5164	-0.022865959
158	0xbd978cfc	-0.073999375
159	0x3e1b7830	0.15182567
160	0x3e28cdf8	0.16484821
161	0x3e2416db	0.16024344
162	0x3df73083	0.120698
163	0x3e2766fd	0.1634788
164	0xbe002d18	-0.12517202
165	0x3dd79450	0.10526335
166	0x3d96f3ac	0.073706955
167	0xbc821a3e	-0.015881654
168	0xbdbd4ab5	-0.09242765
169	0xbe2e93e5	-0.17048605
170	0xbe3bfb4f	-0.18357585
171	0xbd1a5631	-0.037679855
172	0xbe1dd3ac	-0.15412778
173	0xbd1c6c14	-0.03818901
174	0xbe21977a	-0.1578044
175	0xbe3ab475	-0.18232901
176	0xbe12fc10	-0.14353967
177	0x3e3207e4	0.17385823
178	0xbda05200	-0.0782814
179	0x3e1d50d9	0.15362872
180	0x3e572ffd	0.210144
181	0xbd9613b0	-0.07327974
182	0x3e46273c	0.19350904
183	0xbdb0a9e4	-0.08626154
184	0x3e2a12b3	0.16608696
185	0xbdcec36f	-0.1009587
186	0x3dd22d98	0.102626026
187	0x3d3bf0f0	0.045884073
188	0x3dbb399a	0.09141846
189	0x3d2d054f	0.04224139
190	0xbe1cd640	-0.15316105
191	0x3e10acd4	0.14128429
192	0xbdc3854b	-0.09546908
193	0x3d711707	0.05885985
194	0x3ddd7553	0.108133934
195	0x3d5e49b4	0.054269508
196	0x3d94b382	0.07260801
197	0x3e14d2f7	0.14533602
198	0xbd8d45af	-0.06898057
199	0xbd96a7c8	-0.073562205
200	0xbe2f67e1	-0.1712947
201	0xbdbe70e9	-0.0929888
202	0x3e321f64	0.17394787
203	0xbe32b880	-0.17453194
204	0xbdd3b800	-0.103378296
205	0x3e0a95e4	0.13533741
206	0x3d485f9e	0.048919313
207	0x3e2f6d8e	0.17131636
208	0x3dae1d57	0.0850169
209	0x3da165a4	0.078807145
210	0x3e497193	0.19672231
211	0xbcb2fc7a	-0.021848906
212	0x3dcc67bc	0.09980723
213	0xba3914eb	-0.0007060307
214	0xbda69f4e	-0.08135854
215	0x3d6d9654	0.058004692
216	0xbd0bd5f7	-0.0341396
217	0x3e313419	0.1730503
218	0xbd9ba001	-0.07598878
219	0x3e11c4fb	0.14235298
220	0x3e234812	0.15945461
221	0xbe0c6717	-0.137112
222	0x3e091980	0.13388634
223	0xbc2387d3	-0.0099811135
224	0x3d86e32a	0.06586297
225	0x3de5b611	0.11216367
226	0x3d2f6740	0.042823076
227	0x3e248470	0.16066146
228	0xbd142c6b	-0.036175173
229	0x3df71ab1	0.12065638
230	0x3e12ab01	0.14323045
231	0xbcea0544	-0.028566964
232	0x3e61477c	0.21999925
233	0x3df28c81	0.11843205
234	0x3ca1e23d	0.0197612
235	0xbd9bbd7e	-0.07604502
236	0xbdf7595a	-0.12077589
237	0xbe2126ef	-0.15737508
238	0xbe3f71b5	-0.1869572
239	0x3dd5e1c9	0.10443456
240	0x3d987d6e	0.07445799
241	0xbe3c9027	-0.18414365
242	0xbdbff764	-0.09373358
243	0x3de4a255	0.11163775
244	0x3db617fb	0.08891293
245	0xbdf65213	-0.12027373
246	0x3d9aa413	0.07550826
247	0x3c72ff99	0.014831447
248	0xbe219cf6	-0.15782532
249	0x3d049ae4	0.032374278
250	0x3d22d974	0.03975816
251	0x3cfcd8ac	0.030865036
252	0xbdbe83c2	-0.093024746
253	0xbdc1b854	-0.09458986
254	0x3e05ceb1	0.13067128
255	0xbd346aae	-0.04404705

lstm.hidden_to_gate.weight f4 [512, 128]
0	0x3da58460	0.08081889
1	0x3d2e3c13	0.04253776
2	0xbd3b03fd	-0.0456581
3	0x3d1acf26	0.03779521
4	0xbbdd35e9	-0.0067508114
5	0xbda57c8d	-0.08080397
6	0x3c8225d7	0.015887184
7	0xbd8325cb	-0.06403693
8	0xbd83e47f	-0.064400665
9	0x3bca3798	0.006171178
10	0x3cf07a1c	0.029355101
11	0xbd36baa8	-0.044611603
12	0x3d86e261	0.06586147
13	0xbd3e528b	-0.046465438
14	0x3d1e2cfd	0.038617123
15	0x3cab0e6b	0.020880898
16	0x3b9a3cac	0.0047069397
17	0xbd0329da	-0.032022335
18	0x3d623720	0.055228353
19	0x3d203c8a	0.039120235
20	0xbd96743d	-0.073463894
21	0x3d8b37ba	0.067977384
22	0xbcc10925	-0.02356393
23	0x3cb0c215	0.02157692
24	0x3d94fc15	0.07274643
25	0x3d9d2fcf	0.076751344
26	0x3d19adb3	0.037519168
27	0xbd98ede5	-0.0746725
28	0xbd30775c	-0.04308258
29	0x3d8cc83f	0.068741314
30	0x3c1d0d33	0.0095856665
31	0x3d0fd5ec	0.03511612
32	0x3ced92d2	0.029000673
33	0xbcfe6e6e	-0.031058516
34	0xbd3009c0	-0.04297805
35	0x3d89a626	0.067211434
36	0x3d94bbea	0.07262404
37	0xbccd1489	-0.025034206
38	0x3bba9e8d	0.0056951703
39	0xbbe9240a	-0.007114892
40	0x3cad3ff5	0.021148661
41	0x3c303955	0.0107558565
42	0xbd8e1cee	-0.06939112
43	0x3d9ffcc5	0.07811884
44	0xbdb0d332	-0.08634032
45	0x3d4d09e5	0.050058264
46	0x3d018214	0.031618193
47	0x3d672c95	0.056439
48	0xbc9eea51	-0.01939884
49	0x3d3b5791	0.045737807
50	0x3d6c0619	0.057623003
51	0xbd4ef377	-0.050525155
52	0xbda945d0	-0.08265269
53	0xbce85b23	-0.02836377
54	0x3ce4f4a3	0.027948683
55	0x3bd93c44	0.0066294987
56	0xbd0871e9	-0.03331176
57	0xbd5cc945	-0.053902883
58	0x3d9aa2ed	0.07550607
59	0xbd769bdc	-0.060207233
60	0x3da333f2	0.07968892
61	0x3baebe60	0.005332753
62	0xbd016992	-0.03159482
63	0x3b3909c5	0.0028234583
64	0x3da8f781	0.082503326
65	0x3d23997a	0.03994129
66	0x3cec466c	0.028842174
67	0x3cb9b70f	0.022670297
68	0xbcb12476	-0.021623831
69	0x3ca70772	0.020389292
70	0xbb9934c9	-0.004675482
71	0x3cf6f1ee	0.030144658
72	0x3d8fa8c1	0.07014609
73	0x3bac1658	0.005251687
74	0x3c957273	0.01824305
75	0xbc97a124	-0.018509455
76	0xbc7ecd19	-0.015551829
77	0xbd548976	-0.051888905
78	0xbd9f3985	-0.07774643
79	0xbd2a8e19	-0.04163942
80	0x3d8b6bae	0.06807648
81	0x3d38c303	0.045107853
82	0xbcc8e812	-0.024524722
83	0x3d725b9d	0.0591694
84	0x3d9df76d	0.07713208
85	0x3d90e014	0.070739895
86	0xbd8b743d	-0.0680928
87	0x3b9609b8	0.0045787953
88	0x3c45bc01	0.012068749
89	0xbc90d4b9	-0.017679559
90	0xbbc7fc0b	-0.006103044
91	0x3d3ab9f1	0.045587484
92	0xbd5118ef	-0.05104917
93	0xbda1802e	-0.078857765
94	0x3d972120	0.07379365
95	0xbd5d712f	-0.05406302
96	0xbd437e3a	-0.0477278
97	0xbd52531e	-0.051348798
98	0x3d84a721	0.0647719
99	0xbce3dc3c	-0.027814977
100	0x3d1fd88e	0.039024882
101	0x3c5653a2	0.013081463
102	0x3c9dcd35	0.01926289
103	0xbda0056a	-0.07813533
104	0xbcdbd9e1	-0.026837291
105	0x3bf4bb3a	0.007468608
106	0xbd872434	-0.06598702
107	0x3c73a18c	0.014870059
108	0xbd1aa95c	-0.03775917
109	0xbd03124d	-0.031999875
110	0xbd91393a	-0.07090993
111	0xbdad1356	-0.08450954
112	0xbd594c8c	-0.053051516
113	0x3d99b49e	0.07505153
114	0xbccd7196	-0.025078576
115	0xbd83d39b	-0.06436845
116	0xbb91c526	-0.0044485508
117	0xbc3a4198	-0.011368178
118	0xbd28ce7e	-0.04121255
119	0xbd460926	-0.04834857
120	0xbd1237f2	-0.035697885
121	0x3c18a7b7	0.00931733
122	0x3daee313	0.08539405
123	0xbc05e69d	-0.008172658
124	0xbd2df154	-0.042466477
125	0x3d910562	0.07081105
126	0x3d98e564	0.07465628
127	0xbd10edd9	-0.03538308
128	0x3d602f77	0.054732766
129	0xbda0a0f6	-0.07843201
130	0xbd6f1b1a	-0.058375455
131	0xbcd02bc6	-0.025411498
132	0xbb96b6ca	-0.004599427
133	0xbd5f49cc	-0.054513738
134	0x3b4a8084	0.0030899355
135	0xbd713a30	-0.058893383
136	0xbd9a3555	-0.075297035
137	0xbd5d088c	-0.05396323
138	0xbdb1cf0d	-0.0868207
139	0x3d743627	0.059621956
140	0x3d8413ab	0.06449064
141	0x3d8c7fef	0.06860339
142	0xbd81651a	-0.06318112
143	0x3b484d04	0.0030563483
144	0xbd938b83	-0.07204344
145	0xbd92d1b3	-0.07168903
146	0x3c418ed9	0.011813843
147	0xbd9c1f0d	-0.0762311
148	0xbc61b34b	-0.013775657
149	0xbda85384	-0.08219054
150	0x3ca57cdb	0.020201137
151	0xbcc39a3a	-0.023877252
152	0x3d266ff8	0.040634125
153	0xbccf577f	-0.025310276
154	0x3d2f5bed	0.042812277
155	0xbd727acc	-0.05919914
156	0xbc5e727c	-0.0135771
157	0x3c1332ca	0.008984277
158	0xbd9f9467	-0.077919774
159	0xbcf405b0	-0.029787868
160	0xbd0fdb69	-0.035121355
161	0x3d0888ba	0.033333518
162	0x3d050acb	0.032480996
163	0xbbdf6f7a	-0.006818709
164	0xbd1e6802	-0.03867341
165	0xbd1a61d0	-0.037690938
166	0x3c814251	0.015778692
167	0x3d399bd5	0.04531463
168	0xbdb2891e	-0.08717559
169	0xbca9503a	-0.020668138
170	0xbd6bd182	-0.05757285
171	0x3cafac6c	0.021444522
172	0x3d341067	0.043960955
173	0x3c51a1a7	0.012794889
174	0xbd3614f1	-0.044453565
175	0xbbc89261	-0.0061209654
176	0xbcb17449	-0.021661894
177	0xbda0ceab	-0.07851919
178	0x3c0822a0	0.0083090365
179	0x3d60d878	0.05489394
180	0xbd1af01d	-0.037826646
181	0xbbba7d38	-0.005691197
182	0xbd564df9	-0.052320454
183	0x3d2f8aee	0.042857103
184	0x3d9cfacd	0.07665024
185	0x3c0322dd	0.0080039175
186	0xbca04795	-0.019565383
187	0xbd9fedcd	-0.07809029
188	0x3d467ca0	0.048458695
189	0x3d969cd7	0.073541336
190	0xbce6417b	-0.028107395
191	0x3dac04b1	0.08399332
192	0x3cc78ffe	0.024360653
193	0x3a3703b5	0.00069814484
194	0x3da76b59	0.08174772
195	0x3d5d5ad8	0.054041713
196	0xbb859097	-0.0040760743
197	0xbd7223da	-0.059116222
198	0x3ce6c511	0.02817014
199	0x3d3d7530	0.046254337
200	0x3ab5a0fc	0.0013857181
201	0xbc2a5e04	-0.010398392
202	0xbda7bcaa	-0.08190282
203	0x3dadf248	0.08493477
204	0xbd8aaa21	-0.06770731
205	0x3c67f91b	0.014158512
206	0xbda174b1	-0.07883585
207	0x3da698ad	0.08134589
208	0xbd7300d1	-0.05932695
209	0x3a491f0a	0.00076721667
210	0x3d7179a7	0.058953907
211	0x3da4cff1	0.08047474
212	0x3cbd708d	0.023124957
213	0x3d11a400	0.035556793
214	0xbbe90022	-0.0071106115
215	0xbd9ebf31	-0.077513106
216	0x3dacab7b	0.08431145
217	0x3cc3beb8	0.023894653
218	0xbcaf488f	-0.021396903
219	0x3d0c4b46	0.034251474
220	0xbabf27cf	-0.0014584007
221	0x3d13d5dc	0.036092624
222	0x3b9c6d80	0.0047737956
223	0x3c51b553	0.012799579
224	0x3ba5eb22	0.0050634304
225	0xbd97c329	-0.07410271
226	0x3c34dfe3	0.011039707
227	0xbd6397b2	-0.05556459
228	0x3da50b71	0.08058823
229	0x3d8f1226	0.069858834
230	0xbd3aefdd	-0.045638908
231	0x3d32edb2	0.043683715
232	0xbc25465d	-0.010087577
233	0x3d91b793	0.07115092
234	0xbcd73724	-0.02627141
235	0x3ce2b8b1	0.027675958
236	0xbd2adfd8	-0.04171738
237	0xbbaea0e0	-0.0053292364
238	0x3cbfbb72	0.02340481
239	0x3d90e16f	0.07074248
240	0xbdb0f5f4	-0.08640662
241	0x3d75844e	0.05994063
242	0xbd914c0b	-0.07094582
243	0x3d0925c9	0.0334833
244	0xbd9aa2d6	-0.0755059
245	0x3c855c04	0.016279228
246	0xbd23bbf8	-0.039974183
247	0xbcff1832	-0.031139467
248	0xbd98604a	-0.07440241
249	0xbdafeb70	-0.08589828
250	0xbd6c96ee	-0.057761125
251	0xbca1a662	-0.019732658
252	0x3d03023f	0.031984564
253	0x3d3d7713	0.046256136
254	0xbd9d2536	-0.07673113
255	0x3c735003	0.014850619

lstm.hidden_to_gate.bias f4 [512]
0	0xbd2531f4	-0.040330842
1	0xbd49a3ea	-0.049228586
2	0xbdda2d6b	-0.10653194
3	0x3d8bf013	0.068329
4	0x3d092808	0.033485442
5	0x3d843567	0.06455498
6	0xbca7ab45	-0.02046741
7	0x3d829c9b	0.063775264
8	0x3e1418fe	0.14462659
9	0x3dc82a17	0.09773653
10	0x3c1baacd	0.009501171
11	0x3c9b9b67	0.018995
12	0xbdd3ed43	-0.103479885
13	0x3d1b6088	0.037933856
14	0xbda8f4ad	-0.08249793
15	0x3d640f85	0.055678863
16	0xbd7a1859	-0.061058376
17	0x3a3d73aa	0.0007227013
18	0xbc287893	-0.010282653
19	0x3dca9555	0.09891764
20	0xbdaab6fc	-0.08335683
21	0x3d9dd9a6	0.07707529
22	0x3c8cce19	0.017188119
23	0x3cd041cf	0.025422005
24	0xbcd6f51e	-0.026239928
25	0x3caeaba5	0.02132208
26	0x3d46276d	0.048377443
27	0xbe309ee6	-0.17248115
28	0xbd08277f	-0.03324079
29	0x3d36147b	0.044453125
30	0x3daf6c17	0.085655384
31	0x3c7f2f54	0.015575249
32	0xbc2735ce	-0.010205699
33	0x3d1b1a13	0.037866663
34	0x3d9349a0	0.07191777
35	0x3cc6e108	0.024277225
36	0xbc1d2c84	-0.009593133
37	0x3cad584d	0.02116027
38	0xbd22b144	-0.039719835
39	0xbd7a4b72	-0.061107107
40	0xbd90afa5	-0.070647515
41	0xbd9a8ed5	-0.07546774
42	0x3d013a6b	0.031549852
43	0xbd06f4cf	-0.03294831
44	0x3d97857f	0.07398509
45	0x3d20b5bf	0.039235827
46	0xbc87cc97	-0.016577048
47	0x3d95bad9	0.07311029
48	0xbd097a5e	-0.033563964
49	0xbc53497c	-0.012895938
50	0xbd118d13	-0.03553493
51	0x3ce854b7	0.028360708
52	0xbc2ad6ec	-0.010427218
53	0xbd93a2da	-0.07208796
54	0x3d757855	0.05992921
55	0x3d18eaa5	0.03733315
56	0x3e193322	0.14960912
57	0x3bc10c6c	0.0058913734
58	0xbd4d4eb2	-0.050123878
59	0x3d559ba8	0.0521504
60	0x3d72e345	0.059298772
61	0xbd982273	-0.07428446
62	0xbd415442	-0.047199495
63	0xbd023ea2	-0.031798013
64	0xbcae2b9e	-0.021261033
65	0x3d88136c	0.066443294
66	0xbcb049ef	-0.02151963
67	0xbc01fec8	-0.00793428
68	0xbd3919b9	-0.045190547
69	0xbc8653b8	-0.016397342
70	0xbd9ee11f	-0.07757782
71	0x3d283d44	0.041074052
72	0x3d908afc	0.07057759
73	0xbd616eee	-0.05503743
74	0x3db71b14	0.089407116
75	0xbd23cb81	-0.039989
76	0xbd6184b4	-0.055058196
77	0x3d9dcad5	0.07704703
78	0x3cde307f	0.027122734
79	0xbceb295d	-0.028706247
80	0xbca73d6f	-0.020415036
81	0x3d0b3e82	0.03399516
82	0x3dc59d1a	0.09649105
83	0x3d0d6d1a	0.034527875
84	0x3d1ac445	0.037784833
85	0xbd1b3963	-0.037896525
86	0xbcf2609a	-0.029587079
87	0x3dcae7d8	0.09907502
88	0xbd558089	-0.052124534
89	0xbc8a3a7e	-0.016873594
90	0xbd9edde1	-0.07757164
91	0xbcd4e6dd	-0.02598899
92	0x3dad29d1	0.084552415
93	0x3d3456d4	0.04402812
94	0xbd76e33d	-0.060275305
95	0x3bf64577	0.007515605
96	0xbdd6355e	-0.10459398
97	0x3e00eada	0.12589589
98	0xbcec6438	-0.028856382
99	0xbd85e2d7	-0.06537407
100	0xbd0abe61	-0.033872966
101	0xbc91ac37	-0.017782314
102	0x3d0e9953	0.03481419
103	0x3d50851c	0.050908193
104	0xbd126c30	-0.035747707
105	0xbb6b3294	-0.0035888301
106	0xbd99916b	-0.074984394
107	0x3cd0b952	0.025478993
108	0xbd44f151	-0.0480817
109	0xbd58cd86	-0.052930377
110	0xbd380bdf	-0.044933196
111	0x3c7b196e	0.015325887
112	0x3d1c3e66	0.038145445
113	0xbd9bf857	-0.076157264
114	0xbd30d2c8	-0.043169767
115	0xbdacef5f	-0.08444094
116	0xbd2bab56	-0.041911446
117	0xbd0d73cd	-0.034534264
118	0xbd5af4d3	-0.05345614
119	0xbd7c2e19	-0.0615674
120	0xbd1bd8ca	-0.038048543
121	0xbc5ff1fd	-0.013668534
122	0xbd5a9c35	-0.053371627
123	0x3cbb6ba8	0.022878483
124	0x3d4d957a	0.05019138
125	0xbd863d24	-0.065546304
126	0xbd3fcf8f	-0.046828803
127	0x3d74f8cd	0.059807587
128	0xbd83bd4f	-0.06432592
129	0xbc969201	-0.018380167
130	0x3e05746f	0.13032697
131	0x3d248369	0.040164385
132	0xbda8cdec	-0.082424015
133	0xba8ed21e	-0.001089636
134	0x3e3cb24d	0.18427391
135	0xbca882d6	-0.0205702
136	0xbd565fe0	-0.052337527
137	0x3c08337f	0.008313059
138	0xbde1e53b	-0.1103005
139	0xbd76710e	-0.06016641
140	0xbd9bb74a	-0.07603319
141	0xbc56267b	-0.013070698
142	0x3dde5bb4	0.10857335
143	0x3d34852a	0.044072308
144	0xbc0a0bfb	-0.008425708
145	0xbcad7f1e	-0.021178778
146	0xbd9e53b9	-0.077308126
147	0x3de9a639	0.114086576
148	0x3cba632f	0.022752373
149	0x3de9f42e	0.11423527
150	0x3d0e4e34	0.03474255
151	0x3da25abe	0.07927464
152	0xbb698841	-0.0035634192
153	0x3dac91a5	0.08426217
154	0x3d3ceb69	0.046122942
155	0x3b699d94	0.0035646902
156	0x3df12c17	0.117759876
157	0x3d2275f3	0.039663266
158	0x3b4e8ec4	0.00315182
159	0x3d163794	0.036674097
160	0x3d729ea8	0.059233338
161	0xbd0c245a	-0.034214355
162	0xbd842727	-0.0645278
163	0x3d3a4ae0	0.045481563
164	0x3d231d56	0.0398229
165	0xbda5125a	-0.08060141
166	0x3cec0cb5	0.028814653
167	0x3d9e09e1	0.07716728
168	0x3d1db802	0.03850556
169	0x3d9ba1ff	0.07599258
170	0xbdad927c	-0.08475205
171	0xbd7b050c	-0.06128411
172	0x3c8f3369	0.017480569
173	0x3d1778db	0.03698049
174	0x3d54a764	0.05191745
175	0xbcd38f21	-0.025825085
176	0x3dccb82b	0.09996065
177	0xbd3a2506	-0.045445465
178	0x3d590b18	0.052989095
179	0x3d5bdc45	0.053676862
180	0x3d4e1c93	0.05032022
181	0xbd0587f6	-0.032600366
182	0x3e49f288	0.19721425
183	0xbc728b11	-0.014803664
184	0x3cfeafdb	0.031089714
185	0x3a543a95	0.00080958876
186	0xbc3fede2	-0.0117144305
187	0xbd65bc84	-0.056087986
188	0x3da6568a	0.08121975
189	0x3d9344a4	0.071908265
190	0xbda184a1	-0.07886625
191	0x3a057b5e	0.00050919305
192	0x3c0cec23	0.008601221
193	0x3cab9930	0.020947069
194	0x3d85a93a	0.06526418
195	0x3de446f6	0.11146347
196	0xbd05e794	-0.032691553
197	0xbd66b807	-0.056327846
198	0xbd366205	-0.044527072
199	0x3d3052b3	0.043047618
200	0xbd7cad8b	-0.06168894
201	0x3d919e34	0.07110253
202	0x3da6f58d	0.08152304
203	0x3d9ed8c6	0.0775619
204	0x3c69a7e3	0.014261219
205	0x3d1f8368	0.03894368
206	0x3d47a4c1	0.048741106
207	0xbd97ed6b	-0.07418331
208	0xbd93a4e6	-0.07209186
209	0xbda45f86	-0.08026032
210	0x3d1dd845	0.03853633
211	0xb9d33e4c	-0.0004029147
212	0x3cea4bce	0.0286006
213	0x3c1c6e56	0.0095477905
214	0x3db0994c	0.08622989
215	0x3dbd5c5b	0.09246131
216	0x3d63e1ac	0.05563514
217	0x3d866263	0.065617345
218	0xbd3c46f2	-0.045966096
219	0xbd8748fa	-0.06605716
220	0x3cd902f0	0.026490659
221	0x3d77890d	0.060433436
222	0x3d37c87e	0.04486894
223	0x3d41b0a9	0.047287617
224	0xbd57d0ee	-0.052689485
225	0x3d926f5d	0.07150147
226	0x3da7c921	0.08192659
227	0x3da0b3a4	0.07846764
228	0x3d78905b	0.060684543
229	0xbd2d0b7f	-0.04224729
230	0x3d204e6a	0.03913728
231	0xbaf9a5e3	-0.001904663
232	0x3dbd052c	0.09229502
233	0xbd94e590	-0.07270348
234	0x3cb81a61	0.022473516
235	0xbd4b33f7	-0.049610104
236	0xbbb12f92	-0.005407282
237	0x3d54ceb1	0.05195493
238	0x3cb738a2	0.022365872
239	0x3d093cc2	0.03350521
240	0x3cc45bb4	0.023969509
241	0x3d951033	0.072784804
242	0xbd5a2630	-0.053259075
243	0xbcae0ba2	-0.021245781
244	0xbdafcf49	-0.085844584
245	0x3d7014ad	0.058613468
246	0x3dd7936f	0.105261676
247	0x3d6f30e1	0.058396224
248	0x3cbbc6af	0.022921888
249	0x3d81b5e2	0.063335195
250	0xbcfbba40	-0.03072846
251	0xbd81f00c	-0.063446134
252	0x3d3fbd24	0.046811238
253	0x3d04cfd9	0.03242478
254	0xbda82c5b	-0.08211585
255	0x3d43d756	0.047812782

fc.weight f4 [10, 128]
0	0x3d249d0e	0.04018884
1	0xbc8e6a67	-0.017384721
2	0x3ec90b61	0.39266494
3	0xbdaa7ada	-0.08324213
4	0xbd504eca	-0.05085639
5	0x3d32141f	0.04347622
6	0xbdf4ba5f	-0.1194961
7	0x3cc236ff	0.023707865
8	0xbddb6bb5	-0.10713903
9	0xbcc96f51	-0.024589213
10	0xbd577cb6	-0.052609168
11	0x3da080d3	0.07837071
12	0xbdb69220	-0.0891459
13	0xbd3d2925	-0.046181817
14	0xbd40f45d	-0.047108043
15	0x3abb1154	0.0014272132
16	0x3ce09192	0.027413163
17	0x3cab43db	0.02090638
18	0xbda910db	-0.08255168
19	0x3dcacc07	0.099021964
20	0xbd93273b	-0.07185217
21	0x3ced2ed8	0.028953
22	0xbc3065a9	-0.010766425
23	0xbd99ce40	-0.07510042
24	0x3d4f9ee6	0.050688647
25	0xbd404b0c	-0.04694657
26	0x3d45e79c	0.048316583
27	0xbd7dd01a	-0.06196604
28	0xbca924e0	-0.020647466
29	0xbd00ed09	-0.031476054
30	0x3d81c0df	0.06335615
31	0xbda32ceb	-0.07967552
32	0x3da6ba40	0.08140993
33	0x3cfe5caa	0.031050045
34	0xbd37e19f	-0.044892903
35	0xbd67ade8	-0.056562334
36	0xbdb3887c	-0.08766267
37	0xbcecdb77	-0.028913243
38	0x3c356704	0.011071924
39	0x3c4cd2ef	0.012501462
40	0xbcf8f419	-0.030389832
41	0x3d884bfa	0.066551164
42	0xbc761543	-0.015019718
43	0xbd50a33f	-0.050936934
44	0xbd62a89a	-0.055336572
45	0xbde88929	-0.11354286
46	0xbb59866b	-0.0033191692
47	0x3cc102f7	0.023560984
48	0x3d5843bf	0.052798983
49	0xbdaae809	-0.083450384
50	0xbca0a8c4	-0.019611724
51	0xbceb0093	-0.028686797
52	0xbacdc42d	-0.0015698724
53	0xbd7eba9f	-0.062189694
54	0xbe81a041	-0.25317577
55	0xbc4db89b	-0.01255622
56	0xbde29fe0	-0.1106565
57	0x3d7457fe	0.05965423
58	0x3c1dfa7c	0.00964224
59	0x3d332b27	0.043742325
60	0xbce8b934	-0.028408624
61	0x3d3992b3	0.04530592
62	0xbd834880	-0.06410313
63	0xbd616188	-0.055024654
64	0x3d42e474	0.04758115
65	0x3b809008	0.00392342
66	0x3d8647c9	0.06556661
67	0xbd51add7	-0.051191177
68	0x3b92f461	0.0044846986
69	0x3d7b284a	0.06131772
70	0xbda45224	-0.080234796
71	0x3e0fdaf6	0.1404837
72	0xbce8e31f	-0.028428612
73	0x3d979375	0.07401172
74	0x3d19ce5f	0.037550326
75	0xbc197f8f	-0.009368791
76	0x3d3b14b8	0.045674056
77	0xbd301318	-0.04298696
78	0xbd17857d	-0.03699254
79	0xbda56352	-0.080755845
80	0x3d89d9f6	0.06731026
81	0xbb4b80c8	-0.0031052101
82	0xbe8181fc	-0.25294483
83	0xbbf6658c	-0.0075194295
84	0x3d3c8ee0	0.046034694
85	0xbc6063e0	-0.013695687
86	0x3d99a95b	0.07503005
87	0x3d6f84e4	0.058476344
88	0x3d9936dc	0.07481167
89	0x3f3de9f8	0.74185133
90	0x3cf39809	0.029735582
91	0xbcbfb28f	-0.023400573
92	0x3d7f9867	0.0624012
93	0xbd95e7a7	-0.07319575
94	0x3d7ffd4f	0.062497433
95	0x3da2d1e6	0.07950191
96	0xbd77677d	-0.06040143
97	0x3cf75892	0.0301936
98	0x3d444c86	0.04792454
99	0x3cf58a5e	0.029973205
100	0xbc59b3c4	-0.013287488
101	0x3cba7939	0.022762882
102	0x3d81f06b	0.06344684
103	0x3d5f2982	0.054482944
104	0xbeb1e33f	-0.34743688
105	0xbced08f7	-0.028934939
106	0x3d844684	0.06458762
107	0xbb274c0b	-0.0025527503
108	0xbd893678	-0.06699842
109	0x39efcbac	0.0004573738
110	0xbca7018f	-0.020386485
111	0xbd8c55e7	-0.06852322
112	0xbd753706	-0.059866928
113	0xbd2488ed	-0.040169645
114	0xbd9e5426	-0.07730894
115	0x3db288c8	0.08717495
116	0xbd09a391	-0.033603255
117	0xbd90a339	-0.07062382
118	0xbe47d12d	-0.19513388
119	0xbdadfa77	-0.08495038
120	0x3dae5e23	0.08514049
121	0xbdd81a23	-0.1055186
122	0xbd957bfd	-0.072990395
123	0x3d5b2ebc	0.053511366
124	0x3d8c5154	0.068514496
125	0xbd345ac1	-0.044031862
126	0x3d2ad8b3	0.041710567
127	0x3e1bc3e3	0.15211444
128	0xbd792026	-0.060821675
129	0x3d31ab5f	0.043376323
130	0xbf2d90c2	-0.6779901
131	0xbd1d58d0	-0.038414776
132	0xbd4451b7	-0.04792949
133	0x3bfbe8cb	0.007687663
134	0xbd531965	-0.05153789
135	0x3d5671bd	0.052354563
136	0x3e027082	0.12738231
137	0xbe307fc9	-0.17236246
138	0xbda82dcf	-0.08211862
139	0xbd9f7351	-0.07785667
140	0x3dabb326	0.08383779
141	0xbcf18247	-0.029481066
142	0x3c83774c	0.016048096
143	0x3d9c7962	0.076403394
144	0xbd5c956d	-0.05385344
145	0x3daaeacd	0.08345566
146	0x3bf5c09d	0.007499768
147	0x3f12e81b	0.57385415
148	0x3d6218e0	0.055199504
149	0x3e365fdb	0.17810003
150	0x3cec71f7	0.028862936
151	0x3d70fd99	0.0588356
152	0xbd5ebe4a	-0.054380693
153	0xbc2bd5bb	-0.010487969
154	0xbbbd0c23	-0.005769269
155	0xbc9ece9c	-0.019385628
156	0xbdfc68b8	-0.12324661
157	0x3d83c7b7	0.06434577
158	0x3d9d4010	0.076782346
159	0xbd6397bb	-0.055564623
160	0xbcd5e010	-0.026107818
161	0x3c3484df	0.011018007
162	0xbd6942de	-0.056948535
163	0xbd200ca5	-0.03907456
164	0xbdb434f7	-0.08799165
165	0x3d84b4ce	0.06479798
166	0x3d9ba5f4	0.076000124
167	0x3d4bdb2d	0.04976957
168	0x3b961017	0.004579555
169	0x3d9a9d6c	0.07549557
170	0xbd9173f6	-0.07102196
171	0x3d6f6819	0.058448885
172	0x3cae3d3c	0.021269433
173	0xbdaa8d37	-0.08327716
174	0x3c16fbb1	0.009215281
175	0xbd8ce428	-0.06879455
176	0xbdbcb89a	-0.092148975
177	0x3e42e3ad	0.19032164
178	0xbcd7b771	-0.026332589
179	0xbd735cea	-0.05941478
180	0x3da44b59	0.08022184
181	0x3b9ed650	0.0048473254
182	0x3e1dd0a8	0.15411627
183	0x3d44a1ce	0.04800587
184	0x3dc3ee02	0.09566881
185	0xbd9a80a0	-0.075440645
186	0x3d5462d8	0.051852077
187	0xbda195e5	-0.07889918
188	0xbe37d74d	-0.17953224
189	0x3d8a0545	0.06739286
190	0xbdb214e7	-0.08695393
191	0xbcffb903	-0.03121615
192	0xbd537d21	-0.051633004
193	0xbdb23e94	-0.08703342
194	0xbbbab268	-0.005697537
195	0x3d3a0318	0.045413107
196	0xbd144794	-0.036201075
197	0xbdc1f858	-0.09471196
198	0x3bee4444	0.0072713215
199	0xbb9c4256	-0.00476865
200	0x3d1fc857	0.03900942
201	0x3c249024	0.010044131
202	0xbd8ab041	-0.06771899
203	0xbd8c0300	-0.0683651
204	0xbcf46b1b	-0.029836228
205	0xbd5dc04b	-0.054138463
206	0x3d74ab97	0.059733953
207	0xbd66b54d	-0.056325246
208	0xbcd61d87	-0.026137127
209	0xbb0809b3	-0.0020757734
210	0x3e451b27	0.19248639
211	0xbd8d2206	-0.06891255
212	0xbd1e14e1	-0.03859413
213	0x3d8de31e	0.06928085
214	0x3db77713	0.089582585
215	0xbba517ec	-0.005038252
216	0xbc2e32a9	-0.0106321955
217	0x3df9de65	0.122006215
218	0x3d466ca4	0.04844345
219	0x3d4cb63f	0.04997849
220	0xbd05da8c	-0.032679126
221	0xbbccb9f0	-0.0062477514
222	0x3b08cdf0	0.0020874701
223	0xbbc88208	-0.0061190166
224	0x3d27722f	0.04088038
225	0xbe1936f0	-0.14962363
226	0x3d210a02	0.039316185
227	0xbda6e15f	-0.08148455
228	0xbc8b4ae1	-0.017003478
229	0x3d4da2e8	0.050204188
230	0x3cfca4d9	0.030840324
231	0xbd00c4e6	-0.031437777
232	0x3f06c604	0.526459
233	0x3cfe08c8	0.031010047
234	0x3c97a8fd	0.018513197
235	0xbd9b01cf	-0.07568704
236	0xbdb25e6c	-0.08709416
237	0x3c803bab	0.015653452
238	0x3d393f74	0.04522653
239	0x3da941fd	0.082645394
240	0xbdbc30c9	-0.091889925
241	0x3cb76866	0.022388648
242	0x3c14bbc1	0.009077967
243	0xbda487bb	-0.08033701
244	0xbd960daa	-0.07326825
245	0xbd950a94	-0.07277408
246	0xbeb43d31	-0.35202935
247	0xbe0e172a	-0.13876024
248	0x3d967b73	0.07347765
249	0x3c8fc30e	0.017549064
250	0xbd19df07	-0.03756621
251	0xbd391926	-0.04519
252	0xbd4b9943	-0.04970671
253	0xbda21cde	-0.07915662
254	0xbdac4896	-0.08412282
255	0xbd95fdcc	-0.073237985

fc.bias f4 [10]
0	0xbe452687	-0.19252978
1	0xbed0f91b	-0.40815052
2	0xbe81f7bd	-0.25384322
3	0xbbbe3ff6	-0.0058059646
4	0x3ea137fd	0.31488028
5	0x3e3a46ba	0.18191043
6	0xbeeb601c	-0.45971763
7	0x3ce34d72	0.02774689
8	0x3f0f5712	0.55992234
9	0x3ea55234	0.32289279
