model/SNN_HybridLSTM_Acc_77.31.onnx (onnx, 333770 bytes, 5 tensors)

fc.weight f4 [10, 128]
000000 4b 87 9e bd bd 05 3a 3d 9c ea a3 bc 46 2d 2c bd
       -0.07740649 0.04541563 -0.020009331 -0.042035364
000010 8c ff 40 3d 3f d3 27 be 27 15 f9 bc 54 a4 dc 3d
       0.04711871 -0.16389178 -0.030405594 0.107735306
000020 9e 01 d5 bd 6b 4e c3 3c b6 06 73 bd 4a 5b c6 3d
       -0.10400699 0.023841104 -0.059332572 0.09685381
000030 93 79 a8 bc f6 26 59 3d 88 bf 77 bd 83 89 3c 3d
       -0.020565784 0.05301567 -0.060485393 0.04602958
000040 13 66 15 3d 1a f3 e6 3c d5 99 05 3c ef 45 e8 3c
       0.0364743 0.028192092 0.008154352 0.02835366
000050 ee 89 09 3e 76 b7 dd 3c 60 86 00 3d aa fc d8 bd
       0.13431522 0.02706502 0.03137815 -0.10595067
000060 8a 30 e6 bd e3 8a 07 3d fb 29 17 bd ab 60 18 be
       -0.11239727 0.033091437 -0.03690527 -0.14880626
000070 04 9f c6 bc f9 d6 82 bb 78 83 14 be 0a 54 a8 3d
       -0.024245746 -0.003992912 -0.14503276 0.08219154
000080 d7 a5 eb 3d e3 07 82 3d 09 d0 84 bd 2f 71 ac 3d
       0.11506241 0.063491605 -0.06484992 0.084200256
000090 51 68 1e 3d ce ad ff bc 6d 9e c8 3d a1 3a 81 3e
       0.038673703 -0.031210806 0.09795842 0.25240043
0000a0 18 d6 ed bd a2 95 90 3c 3b a0 68 bc 72 e2 f8 3d
       -0.11613101 0.017649475 -0.014198358 0.12152566
0000b0 d4 1f 11 bd 72 ba a2 bd 60 74 5c 3e 72 c9 5b 3c
       -0.035430744 -0.07945718 0.21528769 0.0134147275
0000c0 cc e3 d4 bd f3 9e 65 3e 82 53 90 3c 06 44 09 bb
       -0.10395011 0.22423916 0.017617945 -0.0020945086
0000d0 13 c7 18 3d 08 da 8b bd ee 5d 82 3d 9e dc 48 bb
       0.037299227 -0.068286955 0.06365572 -0.0030649076
0000e0 af 5f 9c bd 89 c6 25 3d 4c 3b cf 3d 60 d5 9e bd
       -0.07635438 0.04047254 0.10118732 -0.07755542
0000f0 e9 87 34 3e 57 e8 a1 3d 00 5b e7 3d e4 15 0b 3e
       0.1762997 0.079056434 0.11296654 0.1358257
000100 19 99 89 3d cd c0 88 bd c5 ea 1f 3c d8 b5 56 bd
       0.06718654 -0.06677399 0.009760563 -0.052419513
000110 82 19 82 bb 87 21 3f bd 06 a9 08 3d 66 7f d0 3d
       -0.003970326 -0.046662834 0.03336432 0.10180549
000120 de b4 93 bd 7b 13 5f 3e 16 d6 11 3e e0 b6 7c 3d
       -0.07212232 0.21784775 0.14241824 0.06169784
000130 2d c5 92 bd ea c6 37 bd e6 18 08 bd 9d 12 62 bd
       -0.071665145 -0.044867434 -0.03322687 -0.055193532
000140 ba 3e f6 bc e4 d1 f2 bc c8 5d 4a 3d 04 a2 9b bd
       -0.030059207 -0.0296411 0.049405843 -0.075992614
000150 9f 0c 8e 3c 62 2a 8f bc a5 fb f2 3a a7 0f a6 3e
       0.017340003 -0.017476264 0.0018538131 0.32433817
000160 fd 4e 6e bd 74 ae 0f 3d b1 3f bc bd 62 5f 56 3c
       -0.058180798 0.03507848 -0.09191836 0.0130842645
000170 46 7c ae bd 35 46 7e bd cc de a7 bd a5 09 00 3d
       -0.08519797 -0.062078673 -0.08196792 0.031259198
000180 8b 62 23 bd 39 53 7a 3d 4b 47 4c be ce d3 cf bd
       -0.0398889 0.061114524 -0.19949071 -0.101478204
000190 97 78 35 bd 66 7c 99 ba bb ae 59 3c 56 41 b3 3d
       -0.044304457 -0.0011710047 0.013286288 0.08752696
0001a0 15 ed 95 bd dd 25 7e 3d b2 b6 f0 3a 85 a8 0e bd
       -0.073206104 0.062047828 0.0018364994 -0.03482868
0001b0 60 45 f0 3c 9a d5 75 bd c7 10 24 bd 54 80 19 3d
       0.029329956 -0.06001816 -0.040055063 0.0374759
0001c0 9f 2e 02 bd 48 14 da bb 73 f8 9d 3d bf 91 2c 3d
       -0.031782743 -0.0066552497 0.077134036 0.04213118
0001d0 a2 f2 71 bd e9 49 6d 3d 21 fc ce bc 02 f4 d8 bd
       -0.059069283 0.057931814 -0.025266709 -0.10593416
0001e0 04 9b 5d 3c fc 75 03 3e 43 10 df bd 6d 55 57 3d
       0.013525728 0.12837976 -0.108917736 0.052571703
0001f0 72 fa e9 bb 7d 33 d0 bc 5c fb 5a 3e 7f 2e 90 3c
       -0.007140451 -0.025415177 0.21384948 0.017600296
000200 fc c6 65 3d 7b 8b 1f be 1d 8f 51 bd 6a 43 dd 3c
       0.05609797 -0.15580551 -0.051161874 0.027009685
000210 3c 89 17 be 0d 60 91 3e 57 21 19 3e af 0e 17 bd
       -0.14798445 0.28393593 0.14954124 -0.036879238
000220 ce 48 9c be ee ea 18 be 35 1e e6 bc b2 fa 37 bd
       -0.30524296 -0.14933369 -0.028090576 -0.044916816
000230 36 8a a0 3c 10 0f de bb 74 d2 44 bc 16 ea ac 3d
       0.019597154 -0.006776698 -0.012013067 0.08443086
000240 05 b5 17 3d 95 3c c5 3c c2 d0 01 3e 1c 4a be 3c
       0.037037868 0.02407674 0.12677291 0.023228697
000250 c6 0c b9 bd 43 24 46 be fe dc 47 3d 72 b6 5c bd
       -0.090356395 -0.1934977 0.04879474 -0.05388493
000260 99 79 65 be 58 1b 35 bd c5 db a6 3d d4 c3 8a 3d
       -0.22409667 -0.04421553 0.081473865 0.067756325
000270 db 09 1e bd 57 c1 85 bd 2c 08 41 bb 7b e7 83 bd
       -0.038583618 -0.06531017 -0.0029454334 -0.06440636
000280 3d 88 7d bd 51 91 3f bd 25 7b c0 3c e3 5f ea bb
       -0.061897505 -0.046769444 0.02349622 -0.007152544
000290 03 24 67 bc bd 2b b2 bd aa 4b bb bc 88 62 d1 bc
       -0.014107707 -0.08699749 -0.022863228 -0.025559679
0002a0 50 7f fa 3d c4 76 12 3e b3 d3 df bd 05 cc 3b bd
       0.12231314 0.14303118 -0.1092905 -0.045848865
0002b0 fd 05 a3 bd fd 8e 96 bd b6 81 93 bd 8f 82 98 bd
       -0.079601265 -0.073514916 -0.07202475 -0.07446777
0002c0 37 f3 af bc db d4 48 be 3e f6 77 3c ae 7f 35 bd
       -0.021478279 -0.19612448 0.015134392 -0.044311218
0002d0 f8 78 9c 3c 85 62 54 be 5b 84 0e 3e 21 b7 65 3d
       0.019100651 -0.20740707 0.13917677 0.05608285
0002e0 b2 f1 36 3d cd b7 00 be bf a5 a2 bc b4 e5 83 3a
       0.044664092 -0.12570114 -0.019854425 0.0010062964
0002f0 50 75 b6 bd 0d 61 9c 3b f1 9d 48 3d 44 86 7c bd
       -0.08909094 0.0047723115 0.04897875 -0.061651483
000300 1c 2f 16 bd 7a ea 8d 3e 83 8d 59 bd 38 9e 47 3d
       -0.03666602 0.27717954 -0.05311347 0.048734874
000310 09 48 1a 3d b2 de a9 3b 98 1b a0 bd 42 92 f3 bc
       0.037666354 0.005184018 -0.07817763 -0.029732827
000320 e8 47 a5 bc dc d3 b4 bd ea 67 32 bd c1 99 12 3e
       -0.02017589 -0.088294715 -0.04355613 0.14316465
000330 ad 9e 81 bd 99 f6 74 bd dd 44 d0 3c a8 9e 3c bc
       -0.06329093 -0.059805486 0.025423462 -0.011512436
000340 5e da e3 3d d1 af 31 3e e7 67 1e 3d 45 31 27 bd
       0.111256346 0.17352225 0.038673308 -0.04081847
000350 29 9b 93 bd 72 60 a4 3d 5a 4b d5 3b 4b 7e e7 bd
       -0.07207329 0.08026208 0.0065092267 -0.11303385
000360 9a 40 c7 bd 5b a2 27 bd f5 22 b3 3d f9 f3 09 3b
       -0.09729119 -0.04092632 0.08746902 0.002104996
000370 d5 e4 0b 3d 52 95 95 bd e7 c8 d2 3d 04 87 26 3d
       0.034153778 -0.07303871 0.10292225 0.040656105
000380 8f 6d 2c 3e 3c 19 2e 3e ad 27 a5 bd 0c bc 3b bd
       0.16838668 0.17001814 -0.08064208 -0.045833632
000390 8c 2c 16 3c 62 4d 63 bd 33 be 93 3d c0 9e 77 bc
       0.009165894 -0.05549372 0.07214012 -0.015113533
0003a0 54 44 1c 3e d8 39 6a bd dc 07 d3 3c 51 1f a9 bd
       0.1526044 -0.05718407 0.025760584 -0.08257926
0003b0 b5 e8 4d 3b 00 e1 09 be 46 6a 54 be 44 e9 bf bc
       0.0031419222 -0.13464737 -0.20743665 -0.02342666
0003c0 99 79 e1 bc d1 76 86 3c 64 7f f8 bb a1 27 de 3d
       -0.027523803 0.016414078 -0.0075835455 0.10847402
0003d0 32 77 80 bc 8e cc 91 bd 97 94 06 be 60 80 d4 bc
       -0.015681837 -0.07119094 -0.1314262 -0.02594012
0003e0 0f f2 08 3b cf a9 9e bd 70 49 fa bd fd f9 8e bd
       0.0020896231 -0.07747232 -0.12221038 -0.06981275
0003f0 e2 30 de 3d 85 83 f1 bc 4d bf 10 bd e8 42 17 3d
       0.108491674 -0.029481659 -0.03533869 0.03692904

fc.bias f4 [10]
000000 27 e7 50 be c6 b0 4c 3d c7 76 be bd d3 df 67 3e
       -0.20400678 0.04997327 -0.09299999 0.22643976
000010 ef 9f 8c be 21 8b d4 3e 10 96 22 be a7 34 15 be
       -0.2746577 0.41512397 -0.15877557 -0.14570867
000020 76 3c 90 3e 3c e1 a6 bb
       0.28171128 -0.005092768

onnx::LSTM_128 f4 [1, 512, 28]
000000 03 d0 9f bd ae df 13 bd af 6b af 3d 42 aa 8f bc
       -0.07803347 -0.03610199 0.08565461 -0.01753724
000010 ad 85 3c 3d 8c 49 8e 3d 2d ff 87 3c 6e 5e 1e bd
       0.04602592 0.06947622 0.01660117 -0.038664274
000020 52 28 39 3d 42 6d 8d bd 9e f1 a5 bd 7e e8 ce bb
       0.045204468 -0.06905605 -0.081027254 -0.0063143363
000030 d2 57 07 bc 0e 77 72 3d bd 4d b3 3c eb 76 ed 3c
       -0.008260684 0.05919557 0.021887654 0.028987369
000040 46 e7 87 3c 00 46 a3 3d cd f3 41 3d ba 30 f1 bb
       0.016589772 0.07972336 0.047351647 -0.007360545
000050 4c 6f 9a 3d f3 bb 9e 3d 4c 1c 10 bd fd de a5 ba
       0.075407594 0.07750692 -0.035183236 -0.0012654957
000060 54 97 25 3d 79 95 8c bd e0 29 01 3d a4 38 38 bc
       0.04042752 -0.06864447 0.031534076 -0.011243973
000070 7b b0 b0 bd 13 4e 97 bd a0 c4 36 3d 72 02 2a bd
       -0.08627411 -0.07387938 0.04462111 -0.04150624
000080 b6 b9 9c 3c bc 98 67 bc b1 64 8f 3c 9e ee 70 bd
       0.019131523 -0.014135536 0.017504068 -0.058821313
000090 0b a7 b5 bc e5 9e 7a bd ef 14 43 3c f4 51 31 3c
       -0.022174379 -0.06118669 0.011906846 0.010822762
0000a0 15 3c 23 3c 5d 71 01 3e 7d b2 08 3d a5 cb 21 bc
       0.009963055 0.12640901 0.033373345 -0.009875213
0000b0 8c 75 83 3d 01 33 b7 bc f1 b1 04 bc 1f 71 72 3d
       0.06418905 -0.022363188 -0.008099065 0.059189912
0000c0 0f af dd bc 96 18 57 3d d8 da d7 3c d6 ff 95 3d
       -0.027061014 0.05251368 0.02634947 0.073241875
0000d0 d4 cc 0e 3d 92 4c 94 bc 66 e0 b4 3d 1d 39 3d 3c
       0.034863308 -0.018102918 0.08831863 0.011549261
0000e0 7a 3e 92 3d 4d 6b a6 bb 54 32 96 3d 87 b5 05 bd
       0.07140823 -0.005078709 0.07333818 -0.03264382
0000f0 77 4d 41 3d d8 c9 7e bd 66 7b 08 3d 69 b6 4c bb
       0.047193017 -0.062204212 0.033320807 -0.0031236655
000100 75 8a fd 3c 0d fd a8 bc 1a ce 6f bd e2 4a 22 bd
       0.03094981 -0.020628477 -0.058546163 -0.039622195
000110 55 eb 13 3d ac c3 73 bb f0 f0 a4 3d aa 39 3d bd
       0.036113102 -0.0037195487 0.08053768 -0.04619757
000120 67 2e 37 bc 80 e8 5f 3c e9 f8 b9 bc 21 e4 6d bd
       -0.011180497 0.013666272 -0.022701697 -0.05807889
000130 1a 01 e8 3c 3c cd af bc 53 48 59 3a 57 81 41 bd
       0.028320838 -0.021460168 0.000828867 -0.04724249
000140 a6 86 ff bc da 29 a3 3d 18 c7 85 ba d5 52 8b bb
       -0.031192135 0.07966967 -0.0010206429 -0.0042518177
000150 e2 dc 9e 3c d0 3d 41 3d e7 a6 95 3c 5c 15 8f bd
       0.019392435 0.04717809 0.018268062 -0.06986496
000160 92 ed 87 ba f4 c2 c3 bc 3c e8 29 3c 5b db 83 bd
       -0.0010370484 -0.023896672 0.01037031 -0.06438323
000170 56 e1 78 3d 2b 7d 80 bd fd b4 ba bb f8 3a 91 3d
       0.060761772 -0.06273874 -0.005697845 0.070913255
000180 26 09 57 3d 82 f9 1f bc 91 e1 a7 bd 0d 75 1b 3d
       0.05249896 -0.009764077 -0.0819732 0.037953425
000190 39 e0 53 3d c7 c0 92 3c 49 8d a0 3c 4a 63 70 bb
       0.051727507 0.017914189 0.01959862 -0.0036680275
0001a0 b7 0b d1 3c 82 be 71 bd 0a 94 9e bd 71 7f 9c 3d
       0.025518281 -0.059019573 -0.0774308 0.07641495
0001b0 a7 97 92 bd 22 2d a8 bd 7e e4 d0 bc 58 44 a8 3c
       -0.07157832 -0.082117334 -0.025499579 0.020540401
0001c0 7e d7 a2 3d 4c 46 2c 3d 6b a3 a9 3d a5 7e 8d bc
       0.07951258 0.042059228 0.08283123 -0.017272303
0001d0 45 90 8f bb 05 cb 2b 3d c0 0d 72 bc 87 c6 a9 3d
       -0.004381212 0.04194166 -0.014773786 0.08289819
0001e0 fc a9 c0 3c f6 91 54 3d c7 12 09 3d b1 78 31 bd
       0.023518555 0.05189701 0.033465173 -0.04332799
0001f0 03 60 80 bd 4e 47 cb bc 8d f5 85 bd b5 dc ba bb
       -0.06268313 -0.024814274 -0.06540976 -0.00570258
000200 aa d0 2c bd 2d 81 48 3c ea 95 6d 3c 40 89 89 3d
       -0.042191185 0.012237829 0.014501074 0.067156315
000210 a8 14 14 bc b9 a8 5a bd 17 eb 01 bd c3 6d 7b bd
       -0.009038128 -0.053383563 -0.03171834 -0.061383974
000220 b7 35 89 bd 90 eb 02 bd 88 e1 82 3c 23 7a f0 3b
       -0.066996984 -0.03196293 0.015976682 0.0073387786
000230 aa fe 05 bd 3c 19 63 bd a4 f8 f0 3c cc 23 8d bd
       -0.03271357 -0.055443987 0.029415436 -0.06891593
000240 29 6c 05 bd df b9 a3 bc 8f 7f 28 bd 84 96 31 3d
       -0.032573853 -0.019986091 -0.041137274 0.043356434
000250 03 b7 61 3d c3 f1 bd 3c 57 9d 89 bc 7f bb 47 3c
       0.055106174 0.02318657 -0.016798658 0.012190699
000260 26 a5 7a 3d ed 74 e4 bb da fe ad 3d 60 fe 97 bc
       0.061192654 -0.0069719465 0.08495875 -0.018553913
000270 35 9a 40 bd 7e 62 d5 3b b0 b7 1c 3d 4d 0e d0 3c
       -0.047022063 0.0065119853 0.038261116 0.025397444
000280 6d 69 ab 3d 4b d7 87 bd b7 0f 4c 3b a4 b3 57 ba
       0.08369718 -0.06632861 0.0031137296 -0.00082283677
000290 f7 2a a4 bd 3a b2 a7 3d 37 d9 73 3d c1 fe f2 3c
       -0.080160074 0.08188291 0.059533324 0.029662492
0002a0 0e ce 4f 3d 6f b2 f3 bc 35 53 70 bd 7f 08 9f 3d
       0.05073362 -0.02974817 -0.058673102 0.077652924
0002b0 d8 ba 26 bd cd db 20 bc 3d aa 01 3d da c2 22 bd
       -0.04070553 -0.00981803 0.031656493 -0.039736606
0002c0 c1 5a 20 bb 4d 03 45 bd 19 f3 ba 3c 6d 1f cc bd
       -0.0024468156 -0.04809885 0.022820996 -0.099669315
0002d0 4a 0c 2a bc 6e cd 31 bd ef af e2 3c a6 50 7a 3c
       -0.0103789065 -0.043408804 0.027671782 0.015278017
0002e0 f9 31 71 bd d6 34 2c bd 64 b3 3b 3c d9 87 44 3d
       -0.05888555 -0.042042576 0.011456344 0.047981117
0002f0 a3 48 a1 3d 7b e7 39 bd 06 86 e6 3b e6 15 52 bd
       0.078751825 -0.045386773 0.00703502 -0.051290415
000300 5d 13 2b bd e8 96 0f bc ae bc 1c bd b3 9f 0f bc
       -0.041766513 -0.008764006 -0.038265876 -0.008766103
000310 c6 a1 db 3b 8b 07 c4 3c 17 5e 50 bd 12 7f 70 3d
       0.0067026345 0.023929378 -0.05087098 0.058714934
000320 20 48 8c bd ab 65 66 bd fd 87 9c bb f5 16 81 3d
       -0.06849694 -0.056249302 -0.0047769533 0.06303207
000330 e8 0a 46 3d ac 3c 66 bc 67 3f 82 bd 64 80 51 bc
       0.048350245 -0.014052551 -0.06359749 -0.012786958
000340 86 11 95 bd 25 7a 95 3d b8 02 5e 3d 1a 3a a9 3d
       -0.07278733 0.07298688 0.05420181 0.08263035
000350 bf 21 ae 3d c4 09 88 3d 4d 40 cc 3b 34 38 8c bc
       0.0850253 0.06642488 0.006233251 -0.017116643
000360 1a 96 4e 3c 3d 4a 7a 3c 93 67 67 bd 5f a0 97 bd
       0.012609029 0.015276489 -0.05649526 -0.07403635
000370 70 06 05 3c d3 28 29 3d a5 09 30 bc 29 59 8b 3d
       0.008119211 0.0412987 -0.010744487 0.06804115
000380 a2 64 1b bc fc 16 5e 3a 00 4c 11 3a 23 a0 4c bd
       -0.009484442 0.0008472053 0.0005542636 -0.049957406
000390 ae 82 dc bc dc 16 1f bd 43 08 05 3d b5 27 c3 3b
       -0.026917782 -0.03884016 0.032478582 0.005955661
0003a0 eb 7d ff 3c 9a 26 21 3c 6f 8d 80 bd 45 f8 b2 bc
       0.031187972 0.0098358635 -0.06276976 -0.0218469
0003b0 57 30 e4 3d 37 c6 9a 3c 4e c6 2f bd 6a d2 19 3d
       0.111420326 0.018893344 -0.042913727 0.037554182
0003c0 8e 0b 59 3d 7c 6d ed 3b 6e bd 71 3d 13 d2 c4 bd
       0.052989535 0.0072457176 0.059018545 -0.09610381
0003d0 1a c1 5d 3d 26 15 81 bd b0 d2 94 3d 0f ea b9 3d
       0.054139234 -0.06302862 0.07266748 0.09077846
0003e0 57 42 d1 3c 00 cc 8a 3d 66 b0 75 bd 0b f8 b5 3c
       0.025544329 0.06777191 -0.05998268 0.022213003
0003f0 ac ab 90 bd 84 ba 02 3c 97 fe 92 bd 5d 97 ee bc
       -0.07063994 0.007979039 -0.071774654 -0.02912491

onnx::LSTM_129 f4 [1, 512, 128]
000000 0b 1f 94 bd 66 a2 fe bc f2 34 90 3c 21 64 a2 bc
       -0.072324835 -0.031083297 0.017603371 -0.019823136
000010 8d dc 6c 3c ea a3 0f 3a bc 23 ab 3d b2 2e 86 3c
       0.01445688 0.0005479442 0.08356425 0.016379688
000020 aa 0d 29 bd 62 ba 91 bd cf b4 ee 3c 09 a0 08 3c
       -0.041272797 -0.07115628 0.02913895 0.008338937
000030 d7 15 4d 3c b8 0e c8 3c 2a ff 9e bb 45 83 b1 bd
       0.012517414 0.024421081 -0.0048521953 -0.08667616
000040 7a 16 8f bb a1 0b 13 bd fa 83 69 bd 8f c7 a4 3b
       -0.004366693 -0.035899762 -0.05701063 0.005028672
000050 0f 3c b5 3c ee 8b 46 bc 59 69 8b bd 94 8a b2 3d
       0.022123365 -0.012118323 -0.06807203 0.08717838
000060 54 2b d7 bc 35 92 74 3d 59 7d 9b 3d 03 99 a1 3d
       -0.026265778 0.059709746 0.075922675 0.07890513
000070 71 60 1c 3c 2f e0 a7 bd 5c d8 91 bb c9 66 b6 bd
       0.009544478 -0.081970565 -0.004450841 -0.089063235
000080 28 20 b7 bc fd c7 91 3d 97 28 61 3d b6 56 e7 bc
       -0.0223542 0.07118223 0.05497035 -0.02823959
000090 08 e9 da bb 5f 20 9f bd f1 b8 1a bc b1 8c 12 3d
       -0.0066806115 -0.07769846 -0.0094435075 0.035778705
0000a0 ee 0f a9 3d e5 84 98 3d e9 d9 9d bd 99 6e 57 3d
       0.082549915 0.074472226 -0.07707579 0.05259571
0000b0 2e b4 ab 3d ca 93 3a 3d 44 19 06 bd 3f 8e 6d 3d
       0.08383976 0.0455511 -0.03273894 0.057996985
0000c0 6d d0 d2 3c 2c 20 ab bc 62 fb a5 bd f3 19 1f bd
       0.02573415 -0.020889364 -0.08104588 -0.038843106
0000d0 5d df 98 b9 76 82 7c 3d 42 71 2c 3d a7 f0 ab 3d
       -0.00029158118 0.061647855 0.0421002 0.0839551
0000e0 b0 9f 61 bd 59 4a 29 bd 12 69 8a bd 9a d3 9e bd
       -0.05508393 -0.04133067 -0.06758322 -0.077552035
0000f0 40 75 58 bc ce 53 a8 3d 01 e2 06 39 bc 0d fe bb
       -0.013211548 0.082191095 0.00012863429 -0.007753102
000100 aa c6 8f 3d 23 a5 7c 3d ed 8e 5e bd 6a 43 0e 3d
       0.07020314 0.061680924 -0.054335523 0.03473226
000110 ff 9b 20 3c c9 1a 57 bc e8 f3 18 3d 5c d6 28 bd
       0.009802817 -0.013128945 0.037341982 -0.041220054
000120 be 41 5f bd a7 b9 dc bc ba 9c 61 3d 94 58 f5 bc
       -0.054506056 -0.026943995 0.055081107 -0.029949464
000130 4f b7 52 bd d9 9c 8c bd 0b 02 ad 3d 2e cb 19 3d
       -0.051444348 -0.06865854 0.08447655 0.037547283
000140 d1 59 32 bd 21 07 13 3b d3 01 35 bc d2 eb 81 bd
       -0.043542687 0.002243467 -0.011047798 -0.06343807
000150 68 1c 9b bd 31 dc c1 3c 93 eb 31 3c d0 e1 72 bc
       -0.075737774 0.023664566 0.010859388 -0.014824346
000160 95 90 75 bd ef db 69 3c 63 e0 ae 3d 4b 49 a5 3d
       -0.059952337 0.014273628 0.08538892 0.0807062
000170 b3 9c 55 bd 92 44 b9 bd c8 3c 84 3d 83 63 b3 3d
       -0.052151393 -0.09046282 0.064569056 0.08759215
000180 d9 6a 8a bd 2e 7b ae bc cb 9b a2 bc c7 62 0d 3c
       -0.06758661 -0.021298971 -0.019849679 0.008629507
000190 2b bc 99 3d 3f 6e 80 3d 6c 5c c3 bc fb 73 6a 3c
       0.07506593 0.06271028 -0.023847781 0.014309878
0001a0 ee 4a 21 3b 1f 4f 90 bc fc 3b 7c bc bb b7 20 bd
       0.0024611312 -0.017615853 -0.015395161 -0.03923772
0001b0 fe 45 92 bd 25 36 54 bd 69 ef 16 bd 68 5c c8 bc
       -0.07142256 -0.05180945 -0.036849413 -0.024458125
0001c0 c7 06 a5 bd db 8f 9b bd 4d 24 95 3d bf b8 cb 3b
       -0.08057933 -0.07595798 0.072823144 0.006217092
0001d0 c6 80 7a bd 4c 95 0e 3d ad 33 4c 3d 66 a9 1b 3d
       -0.061157964 0.03481035 0.04985397 0.038003348
0001e0 80 ab 95 bd 47 17 4e 3c b0 79 72 bd 7d a7 81 3d
       -0.07308102 0.012578792 -0.05919808 0.06330774
0001f0 63 4d 1b bd 94 da 57 3c 85 eb 8e bd 19 5c 90 3d
       -0.0379156 0.013174672 -0.069785155 0.07048816
000200 a1 f9 5a 3c 24 26 72 3d 22 c8 91 bd 22 4e 85 bd
       0.01336518 0.059118405 -0.071182504 -0.06509043
000210 7d 1c 2b 3d 25 02 a3 bd 2f 97 57 3d 5c bd 57 bc
       0.041775215 -0.079593934 0.052634414 -0.013167705
000220 bc 55 c8 3c a1 80 b5 3c cd 78 5b bd 6f 82 97 bd
       0.024454944 0.022156062 -0.053582 -0.07397925
000230 1c b0 6e 3d e4 bb ad bd ae 7f 0c 3d 7c e9 af 3c
       0.05827342 -0.08483103 0.034301452 0.021473639
000240 c3 18 11 3d f0 35 10 bc c9 e7 3d 3c 73 ce 53 bc
       0.035424005 -0.008801922 0.011590906 -0.012927639
000250 49 aa 88 bd 11 5a 7b bd 4f 9d 60 3d dc 91 7e bd
       -0.06673104 -0.06136519 0.05483752 -0.06215082
000260 51 35 a8 3c a0 be f1 3c 1f 4e 1d bd 84 66 0c bd
       0.020533236 0.029509842 -0.03840458 -0.034277454
000270 26 22 3e bd 52 5f 1f bd c5 23 6e 3d b0 0d b7 bb
       -0.046419285 -0.038909264 0.05813958 -0.0055863485
000280 82 54 7b 3d 0c 91 f5 bc 54 eb 14 3d 92 b4 6a 3a
       0.06135989 -0.02997639 0.03635724 0.00089532987
000290 37 77 bb 3d 59 a1 4f 3b d3 93 ad bd c0 90 16 3b
       0.09153598 0.0031681864 -0.08475461 0.0022974461
0002a0 e0 ca 7d 3c 40 d6 76 3c 10 55 83 bd ad 7e 0f 3c
       0.015490264 0.01506573 -0.06412709 0.008758229
0002b0 5d ec 35 bd 28 b6 89 bc 50 98 0f 3d 1f f2 39 3c
       -0.044414867 -0.016810492 0.035057366 0.01134923
0002c0 9c 3c 5a bc 34 27 16 3d bb d8 60 3c 1d 3f c8 3b
       -0.013320114 0.03665848 0.013723548 0.0061110393
0002d0 80 23 51 3d 33 5b 90 3d 52 9f e2 3c f2 b2 79 bd
       0.051059246 0.07048645 0.02766386 -0.06096167
0002e0 c0 58 22 3d d1 2a 99 bd 7c 1d 47 3d 09 2c c6 3d
       0.03963542 -0.0747887 0.048612103 0.09676368
0002f0 86 6d 96 3c ee 9a 5c bb 0a d7 76 3d 02 14 28 3d
       0.018362772 -0.0033661681 0.06026367 0.041034706
000300 56 04 06 bc ee 6b b0 bd 41 6f 85 3c ba 84 6d bd
       -0.008179745 -0.08614336 0.016288402 -0.057987906
000310 55 81 85 3d 01 bb 79 3d 50 43 8b 3d 65 3d 7a bd
       0.06518809 0.060969356 0.06799948 -0.061093707
000320 bf 52 6f 3c 3c 70 18 bd 98 67 a7 bd 03 fb 66 bd
       0.014607131 -0.03721641 -0.08174056 -0.056391727
000330 fd 68 0c 3d 15 a2 6f bd c4 83 a5 bd d2 1c 87 3d
       0.034279812 -0.058504183 -0.08081773 0.06597294
000340 2e f0 02 bd 25 cc 86 3c b3 bb 4f bc bb 72 9b 3d
       -0.031967334 0.016454766 -0.012679028 0.075902425
000350 8b ed 53 b9 10 c6 9e bc 05 e1 33 bb ad c9 9d 3b
       -0.0002021102 -0.019381553 -0.0027447355 0.0048153014
000360 cf 63 33 3d 97 d6 a9 3d 61 66 74 bc 82 5e 9d 3d
       0.043796357 0.08292883 -0.014916987 0.076840416
000370 1b 6c 6c bd f7 3c 56 bd ee d0 c7 3c 85 34 87 bd
       -0.057720285 -0.052304234 0.024391618 -0.06601814
000380 cb ef f1 3b e5 44 99 3c 4f cb 95 3d 16 db 59 3a
       0.007383322 0.01870961 0.07314169 0.00083105394
000390 81 37 4e bc 1c b6 37 3b 26 c9 82 3d de 42 6d 3d
       -0.012586475 0.002803213 0.06386022 0.057925098
0003a0 c7 af e5 3a 3e f2 d6 bc b1 a7 aa 3d 6d 0c 89 3d
       0.0017523699 -0.026238557 0.08332766 0.06691823
0003b0 92 d6 99 bc 30 97 c9 bc 7f 82 88 bd bc 39 28 3c
       -0.018779073 -0.024608225 -0.06665515 0.010267671
0003c0 9e 4e 7e 3d c4 97 48 bd 70 e2 bf bc 82 db 9c 3d
       0.062086694 -0.04897286 -0.023423404 0.07659055
0003d0 da 6b 2f 3d 9c 6c 70 bd aa 40 30 bd 04 d6 37 bd
       0.042827465 -0.058697328 -0.04303042 -0.044881836
0003e0 f2 50 86 3c bf 45 be bc bb da 62 3c 7b 40 89 3d
       0.01639602 -0.023226617 0.013846095 0.06701752
0003f0 76 2b 20 3d b2 53 56 bd 1e b4 f0 bb 92 49 bc 3b
       0.039103948 -0.05232591 -0.0073456904 0.005746075

onnx::LSTM_130 f4 [1, 1024]
000000 1b ac b2 3d 59 46 3b 3d 5a e8 dc bc 03 b0 84 3d
       0.08724233 0.045721386 -0.026966263 0.06478884
000010 54 bb f5 ba 2b 3d d3 3d 40 58 31 3e 63 f8 b3 3d
       -0.0018747845 0.10314401 0.17318821 0.087876104
000020 9c 14 0d 3d 56 e0 03 3e 61 d5 b3 3d 8a f9 cb 3d
       0.034443483 0.12878546 0.08780933 0.09959705
000030 c5 b4 a3 3d cb ed ec 3d 50 8e 0a 3e 49 04 bc 3d
       0.079934634 0.11568793 0.1353085 0.09180505
000040 a2 95 1b bd 59 7d 61 3d ff a2 af 3d b0 33 b2 3d
       -0.037984498 0.05505118 0.08576011 0.08701265
000050 95 0b d3 3d 44 07 fb 3d 0b ae ff 3b fe 28 16 bc
       0.103049435 0.12257245 0.00780273 -0.009165047
000060 9c 7f 23 b9 ec ae 8b bd 59 b8 98 ba e3 02 77 3d
       -0.0001559243 -0.06820473 -0.001165162 0.060305487
000070 3e 7d 02 bb c6 37 25 3d 3a 8e 73 3d 55 70 99 3b
       -0.0019911076 0.040336393 0.05946181 0.0046825805
000080 14 64 92 3d e5 99 80 3d 10 47 11 bc 57 68 bb 3d
       0.07147995 0.06279353 -0.00886704 0.091507606
000090 3c ab 2e 3d 31 81 76 bc 6a da 4b 3d ee 73 b6 3d
       0.04264377 -0.01504545 0.049768843 0.089088306
0000a0 ce 31 91 3c 93 ef e3 3d cd 29 9b 3c 7c a6 ba 3d
       0.017723944 0.111296795 0.01894083 0.091137856
0000b0 94 af b8 3d 4d de b5 3c 72 47 92 3c 13 85 9a 3d
       0.09017864 0.022200728 0.017856333 0.07544913
0000c0 30 37 ba 3b 20 20 36 3e 16 97 12 3d c2 7f e2 bc
       0.0056828484 0.17785692 0.035788618 -0.02764881
0000d0 d7 e1 e2 ba a9 0d 4d 3d c3 6c 9b bd 13 b0 24 bd
       -0.0017309737 0.050061855 -0.07589104 -0.04020698
0000e0 0e 1f 93 bd 8c cd ce 3d f4 c8 1d bc c1 c3 a2 bc
       -0.071836576 0.10097799 -0.0096304305 -0.019868733
0000f0 b1 4e 84 bd cb a1 7b 3d 67 7c 32 3c fa d1 2e bd
       -0.06460322 0.061433595 0.010893918 -0.042680718
000100 be e1 64 bd 8c 76 ec 3d 01 5d 83 3d 00 4a 08 3e
       -0.055879347 0.115460485 0.064142235 0.13309479
000110 7c f1 2b bd 9d 00 b0 3d 30 35 e8 3a 45 c7 88 3c
       -0.041978344 0.08593867 0.0017716046 0.016696582
000120 22 bc ba 3d 6c e7 13 3d f6 4c a0 3d ec 3e 4f bd
       0.09117915 0.036109373 0.07827179 -0.050597116
000130 f5 3f a2 3c 7e 5d cb 3d 6a 30 b4 bc c3 01 73 bb
       0.019805888 0.099299416 -0.021995742 -0.0037079907
000140 ad ca e5 3d 67 47 7a bd c6 a4 80 bc f7 94 ab 3d
       0.11220298 -0.06110325 -0.01570357 0.08378022
000150 26 a1 07 3d f1 ab c1 3d ec c7 f2 bb 74 59 36 3e
       0.033112668 0.09456623 -0.0074090865 0.17807561
000160 66 d7 fe 3b 3e 25 2c 3d 1e 3c ba 3d 8a 9f e3 3d
       0.0077771423 0.042027704 0.09093498 0.11114414
000170 a7 7d fb 3c 94 89 e6 3d d7 17 c3 bc c3 15 80 bb
       0.030699564 0.1125671 -0.023815079 -0.003908844
000180 51 f2 04 3d bc 63 b2 3d f4 53 01 3e 96 dd e9 3d
       0.032457653 0.08710429 0.12629682 0.11419217
000190 df 14 68 3d aa a9 95 bc be 7c a6 bb c0 4c 1d bd
       0.05666053 -0.018269379 -0.0050807884 -0.038403273
0001a0 f2 da 0f 3d b1 04 3b bd 43 c1 31 bc 30 1a b6 39
       0.035120912 -0.04565877 -0.0108493 0.00034733256
0001b0 54 ff af 3d 29 2d e9 3d a0 2f 4e 3e 5b 9d ac bc
       0.08593622 0.11385567 0.20135355 -0.021071127
0001c0 90 d9 e8 3b 94 bb 4b 3d 5c 74 46 bd b8 d3 c2 3d
       0.0071060136 0.049739435 -0.048450813 0.095130384
0001d0 16 51 27 3d 2e 50 1d 3d 64 cc 01 3e 1c 65 f1 bc
       0.040848814 0.038406543 0.12675625 -0.029467158
0001e0 ee d0 b3 3c 76 50 9a 3d 74 ad 06 bd 32 01 4d 3d
       0.021950211 0.07534878 -0.03288026 0.050049968
0001f0 de 19 f3 3b a8 51 1c bd 7c a2 f9 3c bc 49 3b bd
       0.007418855 -0.03816381 0.030472986 -0.045724615
000200 a9 b1 b9 bc 38 21 e1 3d aa 53 ce 3d 34 b0 cb 3c
       -0.022667723 0.10992664 0.100745514 0.024864294
000210 94 b7 7e 3d 9c 39 0d 3e 3e 53 26 3e ac 42 ac 3d
       0.062186792 0.13791507 0.16242692 0.08411154
000220 0e 26 22 3e 6b 65 c4 3d e1 95 2d bc c7 16 70 3d
       0.15834829 0.095896564 -0.010594816 0.058615472
000230 cf 37 f8 3c 17 0f d5 3d 12 f3 11 3e dd 6c 3c 3c
       0.03030005 0.10403269 0.1425288 0.011500564
000240 28 91 5b 3c 49 fc d2 bc f2 83 f9 bb fe cf 25 bc
       0.013401307 -0.025755065 -0.007614606 -0.01012039
000250 78 4f 04 3e 55 af d2 3d 5c 24 ae 3d 51 3e f4 3d
       0.1292094 0.10287348 0.08503029 0.119259484
000260 a5 23 c7 3d ba 8e a0 3c 19 0b 8c bd ca 52 e2 bc
       0.097235955 0.019599307 -0.06838054 -0.027627368
000270 40 06 4c bb bc e8 ad 3d 01 72 94 3d 3d 72 2b 3d
       -0.0031131655 0.08491656 0.07248307 0.041856993
000280 b5 f0 5e 3d 10 82 73 3d c3 b9 b1 3d 70 ee 21 bd
       0.054428775 0.05945021 0.08678009 -0.039534032
000290 c3 5d fe 3b 73 98 36 3d 55 f6 50 3c 1b 83 01 3e
       0.007762642 0.04457898 0.012754043 0.12647669
0002a0 4e a4 a6 3d 92 bb 41 bd af 67 f3 3d bf d2 7a 3c
       0.081368074 -0.04729802 0.118850105 0.015309035
0002b0 e0 96 ff 3d e6 a0 71 bd 64 a8 31 3d a4 59 8c bd
       0.12479949 -0.058991335 0.04337348 -0.06853035
0002c0 b0 46 a3 bc 7a 7d 60 3e 49 52 1b 3d f5 bf 98 bb
       -0.019931167 0.21922866 0.03792027 -0.004661555
0002d0 4d cf b9 3d f2 48 08 3e 77 c1 cd 3d b8 0a 30 3d
       0.090727426 0.13309076 0.10046666 0.042978972
0002e0 c3 cd 0a 3d 98 04 b1 bc b9 dd 26 3e cf 80 af 3d
       0.033887636 -0.021608636 0.16295518 0.0856949
0002f0 28 84 48 3c a6 17 34 3d 94 fc 4d bd 07 8e 0d 3d
       0.01223854 0.043967865 -0.050289705 0.034559276
000300 10 20 92 bb 10 ae 81 3d b2 ba a7 b9 db 8b 4d 3e
       -0.0044593886 0.06332028 -0.0003199182 0.20072882
000310 02 f7 86 3c 91 f0 b4 bc b0 37 43 3c de 50 e1 3c
       0.016475204 -0.022087367 0.011915132 0.02750438
000320 87 09 62 3d bb 73 ea 3d 88 51 e2 bc 68 01 bc 3d
       0.055184867 0.11447855 -0.027626768 0.09179956
000330 c3 09 8a bd c8 b6 fc bc 50 1c 06 3e e1 9c 18 bd
       -0.06740143 -0.030848876 0.13096738 -0.037258986
000340 53 19 e4 3d 71 f9 7a 3d 29 9c fe bb 46 7e 04 3c
       0.11137643 0.061273042 -0.0077700806 0.008086747
000350 c8 f8 05 3d 89 4e 83 bd 5c cc 57 bc 10 75 d2 3d
       0.03270796 -0.06411464 -0.013171282 0.10276234
000360 63 62 1e bd d5 86 0d 3e 5c 96 c4 3d bb ac fa 3d
       -0.038668048 0.13820966 0.09598991 0.12239977
000370 d1 45 37 3d b9 0f 59 3d a9 74 52 3d f5 7b 64 bd
       0.044744316 0.05299351 0.051380787 -0.055782277
000380 3d 13 5a bc 98 01 34 3c 83 68 11 3e 15 6d 1f 3e
       -0.013310251 0.010986708 0.14200024 0.15568955
000390 d0 a9 4e 3d 43 46 d7 bc 53 69 2a 3c 41 72 83 3d
       0.050454915 -0.02627862 0.010401088 0.064182766
0003a0 a2 1d 86 bc 7f 3e ef 3d 1e 30 0f 3d 9c a7 f1 3c
       -0.016371552 0.11681842 0.034957998 0.029498868
0003b0 37 cb 05 bd 09 4d 38 3e 73 29 2d 3e 69 ac 67 3c
       -0.032664504 0.17998137 0.16910343 0.014140227
0003c0 db 4c 6d 3d 75 cf 05 3e 62 3a a0 3d c0 f2 c3 3c
       0.057934623 0.1306742 0.07823636 0.023919463
0003d0 da 84 3c 3d 68 84 27 3d b9 b1 23 3c ad e2 c0 bc
       0.046025135 0.040897757 0.009991103 -0.023545587
0003e0 78 b6 f9 3d 18 3d 00 3e 2f 99 22 bc 1a 96 45 3d
       0.12193006 0.12523305 -0.009924217 0.04823885
0003f0 ac 79 02 3c 55 7b 7e 3d 22 4f 74 bc 0c c7 f6 3c
       0.007963579 0.062129337 -0.014911445 0.03012421
