model/SNN_LeNet_Acc_96.1.onnx (onnx, 217691 bytes, 5 tensors)

conv1.weight f4 [6, 1, 5, 5]
-0.24457453 0.0656261 -0.26764157 -0.2477004 -0.022472901 -0.09370617 0.060041476 0.036536463
-0.017554913 0.025499843 -0.1328013 0.20711824 -0.039035738 0.13025545 0.10821589 0.09103557
0.1772329 0.18538845 0.27869743 0.16555615 0.05855543 -0.005444165 -0.02214601 0.11084985
0.24532399 -0.06664627 -0.0007827599 0.17041758 -0.11639163 -0.088723466 0.06348848 0.015430637
-0.16466668 -0.07813533 -0.09545717 -0.05831792 0.19035435 -0.09789218 -0.08913661 -0.29766998
0.16696025 0.2143816 -0.020441413 -0.15060028 -0.22537471 0.2549649 -0.022470951 -0.18489242
-0.14958207 -0.25513497 -0.13547674 -0.087978765 0.0305061 -0.15587503 -0.2547806 -0.050822943
-0.24533287 -0.1338437 0.004365684 -0.18734282 0.16636401 0.0139266495 0.019001147 -0.25374365
-0.16459443 -0.16282257 0.12924708 -0.034300435 -0.0413674 0.055177387 0.0028062123 -0.0082357805
0.28410727 0.10023362 0.3599556 -0.0864185 0.02244722 0.086111255 -0.15134034 -0.057033863
0.0683641 0.16646978 -0.066003755 0.1477246 0.07449627 0.143669 -0.084414035 0.21811669
-0.16177936 0.0057812054 0.06515131 -0.044163126 -0.09476408 -0.11539646 -0.1288927 0.2500484
-0.057011575 0.10095406 -0.0956625 0.021476071 -0.100379035 -0.24653943 -0.07714661 -0.09419428
-0.2136467 0.008205438 -0.042546693 -0.28477383 -0.12459465 0.056231428 -0.054720778 0.0910412
-0.23203702 -0.14527056 0.13169119 -0.018028498 -0.19590698 -0.090699345 -0.0307282 0.2820963
-0.15036638 0.012015306 -0.16140534 0.2388504 0.2142338 0.1113875 0.048253402 -0.0059030694
-0.20021644 0.12746537 0.20873174 0.14075722 0.023298634 0.061373755 0.001353361 0.013012198
0.14106 0.18687978 0.24078663 0.28588477 0.004416798 0.107375816 -0.012987379 0.04775032
0.18696608 -0.20506358 0.03645618 0.072619304 -0.11226388 -0.044996534
00000000: bf71 7abe fa66 863d 5108 89be 2ca5 7dbe
00000010: 1719 b8bc 05e9 bfbd 0dee 753d 42a7 153d
00000020: 52cf 8fbc 0ce5 d03c 10fd 07be ce16 543e
00000030: f0e3 1fbd af61 053e 4ba0 dd3d db70 ba3d
00000040: 8b7c 353e 78d6 3d3e 6eb1 8e3e 8d87 293e
00000050: d2d7 6f3d f764 b2bb 8d6b b5bc 3f05 e33d
00000060: 3636 7b3e d77d 88bd 2132 4dba f281 2e3e
00000070: bc5e eebd a6b4 b5bd 4006 823d c8d0 7c3c
00000080: 629e 28be 6a05 a0bd 0c7f c3bd c5de 6ebd
00000090: 40ec 423e b27b c8bd 418d b6bd 3368 98be
000000a0: a1f7 2a3e da86 5b3e c074 a7bc f636 1abe
000000b0: a1c8 66be c28a 823e 0015 b8bc 7054 3dbe
000000c0: 0b2c 19be 0da1 82be 6aba 0abe 362e b4bd
000000d0: eee7 f93c b49d 1fbe 9a72 82be b82b 50bd
000000e0: 8a38 7bbe 530e 09be 030e 8f3b ccd6 3fbe
000000f0: 545b 2a3e 9a2c 643c 4ba8 9b3c b0ea 81be
00000100: 718b 28be f6ba 26be 5959 043e 9d7e 0cbd
00000110: dd70 29bd af01 623d 6ee8 373b 5eef 06bc
00000120: 8276 913e 4947 cd3d 1a4c b83e 2ffc b0bd
00000130: 3be3 b73c 195b b03d f6f8 1abe 579c 69bd
00000140: 7a02 8c3d 0e77 2a3e fa2c 87bd 1e45 173e
00000150: 8091 983d f71d 133e 44e1 acbd fb59 5f3e
00000160: 7da9 25be 4470 bd3b 0d6e 853d 65e4 34bd
00000170: ac13 c2bd fb54 ecbd 73fc 03be 5806 803e
00000180: f884 69bd 01c1 ce3d b3ea c3bd 96ee af3c
00000190: 8693 cdbd d574 7cbe 0bff 9dbd eee8 c0bd
000001a0: 33c6 5abe 1a70 063c 7145 2ebd e0cd 91be
000001b0: 7b2b ffbd ed52 663d e522 60bd cf73 ba3d
000001c0: 1d9b 6dbe cec1 14be 0eda 063e 80b0 93bc
000001d0: d79b 48be 94c0 b9bd b5b9 fbbc ed6e 903e
000001e0: a5f9 19be d9db 443c 7147 25be 3395 743e
000001f0: 1b60 5b3e 211f e43d 5ca5 453d 896e c1bb
00000200: 8a05 4dbe 4886 023e c6bd 553e a922 103e
00000210: c7dc be3c 0c63 7b3d 4263 b13a 1d31 553c
00000220: 0872 103e 6a5d 3f3e c590 763e 7d5f 923e
00000230: c9ba 903b dae7 db3d 04c9 54bc d795 433d
00000240: 0974 3f3e 30fc 51be 1353 153d 6eb9 943d
00000250: 9bea e5bd 494e 38bd

conv2.weight f4 [16, 6, 5, 5]
0.13084634 0.07485018 0.118619986 -0.038771335 -0.048738584 0.015912805 -0.07567115 -0.093962386
-0.086771324 -0.19336893 -0.016406156 -0.053856753 -0.09785757 -0.081072345 -0.15677665 0.0534461
-0.013623473 0.023378078 0.01805777 -0.012522407 0.03226119 -0.049761277 0.09785845 0.06735763
0.022580113 0.012480314 0.05273759 0.032242533 0.015060324 -0.011539363 -0.042269055 -0.068043806
-0.05199553 -0.04990021 -0.017775606 -0.015095084 -0.008716752 -0.0030820968 0.08087179 -0.049510155
-0.052257884 0.06592073 -0.08932021 0.08792709 0.021174569 0.07612504 -0.0018231929 -0.093601376
0.001343925 0.045950513 0.004734935 -0.033513732 -0.068733394 -0.0055838116 -0.05597805 -0.08278154
-0.10022158 -0.084475465 -0.07710813 0.0021490953 0.0324286 0.02335494 0.05104026 -0.088034995
0.08401708 -0.0482101 0.02684231 0.10817257 0.06668131 -0.03924845 0.012305619 -0.05280338
-0.028394645 0.071672805 0.04740695 -0.0042253933 -0.023849223 -0.051399782 -0.03432735 0.08026427
0.02384379 0.072471805 0.0093450025 0.08028225 -0.0355553 0.091548316 0.06260153 -0.06141561
-0.07576336 0.056092344 0.0181855 -0.052594602 0.031319797 -0.05397685 -0.012317816 0.025121568
0.031314682 0.008408796 -0.05741125 0.077803575 0.06979859 -0.0277437 0.057670493 -0.05140116
0.002383052 0.034553535 0.05286958 -0.04575726 -0.026132096 -0.006886069 -0.07667533 -0.028556883
0.025657484 -0.008734907 -0.0063795643 -0.10774089 0.023059312 0.085977376 -0.015838506 0.0809586
0.029250296 0.06567337 0.051403973 0.01523085 0.089023486 0.036347337 0.0037510358 0.02880752
0.10478759 -0.036185525 0.06354999 -0.030606743 -0.034122888 -0.039575234 -0.06506076 -0.0018492343
-0.012793913 -0.08695183 -0.04265077 -0.12364646 -0.0066639706 -0.05967387 -0.0848584 -0.085051306
-0.15152267 -0.0017381824 0.009318081 -0.03990891 0.010743059 -0.08033257 -0.09821805 -0.085238054
-0.121285476 -0.035719715 -0.17078099 0.020788591 0.07894832 0.021177256 0.020822123 0.042075153
-0.008670882 -0.09578909 0.014649605 0.07090476 0.042200256 -0.0677578 0.0086442325 0.03317479
0.041213486 0.080333896 -0.011141588 0.03108666 0.14012724 0.06404812 0.07968523 0.012150438
0.02788751 0.0046691443 0.005220791 -0.034268692 -0.06665505 -0.036959615 -0.033404626 -0.03782512
0.05511241 -0.0007191226 -0.064987525 -0.002534329 -0.010325764 0.112412855 -0.0691055 0.029275838
0.04082112 0.07608749 0.118290514 -0.02482127 0.048635412 0.09073911 -0.00539631 0.11128211
0.002786706 0.017574102 -0.0046718046 -0.011375114 -0.08494024 0.09215621 0.010828948 -0.028745027
0.025449038 0.13062409 -0.030667149 -0.018026719 -0.020253055 -0.028056603 -0.027891789 0.019530756
-0.04986949 -0.0397878 -0.109877095 -0.06213826 0.033308294 -0.009578709 -0.077069156 -0.11614233
-0.1605857 -0.006611102 -0.087405264 0.010110378 0.03975256 0.07579715 -0.024829134 0.049846247
-0.030156417 0.00079579884 0.013735827 -0.05328689 0.04205312 -0.078809425 -0.007946936 0.08392159
0.026850805 -0.07920248 -0.11795898 -0.042327978 0.04404131 0.01121049 -0.004422028 -0.1154947
0.02529023 -0.06016085 0.0039314963 -0.06393088 0.009650288 -0.08521765 -0.14326768 0.0728932
00000000: 95fc 053e 0d4b 993d 09ef f23d b1ce 1ebd
00000010: 1ca2 47bd 925b 823c 7af9 9abd 5a6f c0bd
00000020: 2ab5 b1bd 8102 46be 3466 86bc e698 5cbd
00000030: 8d69 c8bd 4209 a6bd 0f8a 20be 4cea 5a3d
00000040: fd34 5fbc 6283 bf3c e3ed 933c c82a 4dbc
00000050: 4f24 043d 7bd2 4bbd 036a c83d ccf2 893d
00000060: eef9 b83c 3b7a 4c3c 5f03 583d bf10 043d
00000070: 94bf 763c 990f 3dbc 5122 2dbd 8d5a 8bbd
00000080: 44f9 54bd 2a64 4cbd 269e 91bc 5f51 77bc
00000090: b5d0 0ebc 01fd 49bb 1ca0 a53d 29cb 4abd
000000a0: 5d0c 56bd 7301 873d 84ed b6bd 1e13 b43d
000000b0: 4a76 ad3c 72e7 9b3d 34f8 eeba 14b2 bfbd
000000c0: a426 b03a 9b36 3c3d 8327 9b3b b245 09bd
000000d0: 18c4 8cbd 68f8 b6bb 3d49 65bd 5e89 a9bd
000000e0: f940 cdbd 7901 adbd deea 9dbd d6d7 0c3b
000000f0: dad3 043d dc52 bf3c 970f 513d b14b b4bd
00000100: 2611 ac3d f477 45bd 67e4 db3c 9589 dd3d
00000110: 3690 883d fcc2 20bd 829d 493c 5b48 58bd
00000120: e39b e8bc 31c9 923d ca2d 423d 2b75 8abb
00000130: 725f c3bc 9488 52bd d69a 0cbd 9861 a43d
00000140: 0d54 c33c 196c 943d c81b 193c 056b a43d
00000150: 6fa2 11bd af7d bb3d 3b35 803d ef8e 7bbd
00000160: d229 9bbd 16c1 653d c2f9 943c 706d 57bd
00000170: 3049 003d d416 5dbd aad0 49bc bfcb cd3c
00000180: d343 003d 0cc5 093c 0f28 6bbd 7b57 9f3d
00000190: 90f2 8e3d c246 e3bc e537 6c3d 068a 52bd
000001a0: fa2c 1c3b 0288 0d3d c68d 583d f76b 3bbd
000001b0: fa12 d6bc 89a4 e1bb f507 9dbd 20f0 e9bc
000001c0: a52f d23c db1c 0fbc aa0b d1bb 41a7 dcbd
000001d0: e2e6 bc3c e814 b03d c1bf 81bc 9fcd a53d
000001e0: 519e ef3c c37f 863d f98c 523d d18a 793c
000001f0: f251 b63d f2e0 143d f0d3 753b c0fd eb3c
00000200: e09a d63d 4637 14bd 7f26 823d feba fabc
00000210: 71c4 0bbd a419 22bd 933e 85bd 0262 f2ba
00000220: 8f9d 51bc cd13 b2bd 93b2 2ebd 5b3a fdbd
00000230: 705d dabb 976c 74bd 3eca adbd 612f aebd
00000240: c228 1bbe b9d3 e3ba ddaa 183c 8677 23bd
00000250: a803 303c 6785 a4bd 8c26 c9bd 4a91 aebd
00000260: 8564 f8bd d64e 12bd 36e1 2ebe d64c aa3c
00000270: a8af a13d ed7b ad3c 2893 aa3c ff56 2c3d
00000280: 5110 0ebc 122d c4bd e604 703c 8436 913d
00000290: 2dda 2c3d 9ac4 8abd 8aa0 0d3c 4ae2 073d
000002a0: 79cf 283d 1986 a43d 358b 36bc 74a9 fe3c
000002b0: 847d 0f3e a92b 833d 0332 a33d a112 473c
000002c0: 5974 e43c 9fff 983b 2b13 ab3b 545d 0cbd
000002d0: 7182 88bd f762 17bd 4ad3 08bd 83ee 1abd
000002e0: 8dbd 613d 8083 3cba 2e18 85bd fc16 26bb
000002f0: 652d 29bc b638 e63d 2f87 8dbd e2d3 ef3c
00000300: 0c34 273d c2d3 9b3d 4c42 f23d fa55 cbbc
00000310: ed35 473d 6dd5 b93d 87d3 b0bb e0e7 e33d
00000320: 2ba1 363b 90f7 8f3c f015 99bb b05e 3abc
00000330: 26f5 adbd 65bc bc3d e66b 313c b17a ebbc
00000340: 807a d03c 52c2 053e ac39 fbbc c5ac 93bc
00000350: bce9 a5bc f6d6 e5bc 527d e4bc f7fe 9f3c
00000360: f343 4cbd 88f8 22bd 3e07 e1bd b084 7ebd
00000370: 476e 083d 04f0 1cbc 6fd6 9dbd 08dc edbd
00000380: 9470 24be f1a1 d8bb 8801 b3bd 00a6 253c
00000390: 95d3 223d 893b 9b3d 7866 cbbc 942b 4c3d
000003a0: 970a f7bc 289d 503a 3c0c 613c 5b43 5abd
000003b0: e43f 2c3d d666 a1bd de33 02bc 15df ab3d
000003c0: 38f6 db3c e934 a2bd 7a94 f1bd 1a60 2dbd
000003d0: a964 343d 34ac 373c a9e6 90bb 7c88 ecbd
000003e0: 752d cf3c 396b 76bd c8d3 803b 31ee 82bd
000003f0: 3e1c 1e3c 9786 aebd c3b4 12be 0849 953d

onnx::MatMul_53 f4 [256, 120]
-0.017080283 0.06466395 -0.03323752 -0.034339536 0.032773145 -0.027925503 0.03385151 -0.052222703
-0.05415132 -0.0052140504 -0.002741373 0.0325037 0.040323418 0.019752327 0.012193185 -0.06518263
-0.05046841 0.031023528 -0.01925092 0.047261123 0.070731774 -0.077220485 0.014449669 -0.041284155
0.0046998584 0.003029508 -0.0419571 -0.09399564 -0.04826765 -0.008817242 0.051587746 -0.02552889
0.038264595 0.0405204 -0.059584178 -0.00071134645 -0.013937323 -0.036240432 0.026161335 0.036416758
-0.016964635 0.0054218 -0.017965144 0.020571806 -0.028698083 -0.024233174 0.04563793 -0.037156258
0.027862985 -0.014444575 -0.05193838 0.023572003 0.01134549 -0.02967989 0.048521418 -0.028783664
0.045569014 -0.012228932 -0.03702373 -0.058756676 -0.045133367 0.03414961 0.03960859 -0.0068469616
-0.040238857 -0.013019455 -0.055008043 -0.0042399857 0.009647376 0.034294017 -0.048492804 0.01307042
0.01925359 0.06065243 0.041750137 0.042572446 -0.001517328 0.006632331 -0.030692484 -0.07870899
0.07567914 0.0027265514 -0.05856636 -0.042378623 0.012015033 0.01397194 -0.07831391 0.012745255
-0.021989353 -0.043477826 0.053959157 -0.008917182 0.0068274224 -0.049587514 0.007138096 -0.036684956
0.012524377 -0.016541593 -0.07859182 -0.0027847686 0.06409389 0.018956011 -0.029905628 -0.037382763
-0.03535123 -0.05229052 -0.06544271 0.07051309 -0.0026081183 0.069564275 -0.00855648 -0.031891122
0.03894311 0.0099719595 0.0362758 0.032860693 0.03728253 0.03197635 0.0014489364 -0.049912088
-0.0014897694 -0.017768411 0.053711444 0.042606186 -0.049422193 -0.063808426 -0.0127124395 -0.041987635
-0.0011042674 0.064817116 -0.01760271 -0.04551272 -0.014335399 0.04191783 -0.017261067 -0.067769356
-0.03833762 -0.040606547 0.002501205 0.01807382 -0.0009807684 0.009791328 -0.01310769 0.053566765
-0.044539984 -0.029472854 0.04485479 -0.014753125 -0.028160995 -0.021492967 -0.036152005 -0.053089727
0.010958337 0.05993903 -0.02418119 -0.036226504 -0.037299868 -0.02922498 -0.016211335 0.02288066
0.049098328 -0.005942344 -0.010660832 0.032945037 -0.0040818225 -0.079214744 0.031287156 -0.027423304
0.07848871 -0.036513295 0.023478135 -0.039944492 0.067944475 0.06487452 0.035835523 0.03723892
-0.053986408 0.014105033 0.06784155 -0.0792696 0.07204261 0.053366773 -0.011744565 0.0061924113
0.050640665 -0.0006157458 0.01029218 -0.0662245 -0.016278507 0.00666696 -0.03771896 0.0068324865
-0.0061323657 0.040504824 0.08989396 0.040776066 0.028297428 -0.017145805 -0.023520282 -0.03612476
0.047350787 0.003203057 -0.021489365 -0.05445986 0.0021866718 -0.009375663 0.044735957 -0.009972099
-0.049826495 -0.0051035387 0.004697453 0.028447082 0.047699988 -0.010251399 0.042747583 0.07012529
-0.05052018 -0.01701515 -0.05739044 0.07586184 0.03905203 -0.011946432 4.4320524e-05 0.018711418
-0.04919127 -0.061551258 -0.017552488 0.07118757 -0.042198546 0.030992446 0.037311137 -0.039406084
-0.0007179367 0.06600534 0.014569437 0.06230335 0.07182868 -0.044558633 -0.0017456337 0.034092005
0.023985155 -0.028302196 0.10545697 0.04856494 -0.01383167 0.04211698 0.036428504 -0.011756168
0.0804747 -0.026224032 -0.035229474 0.05177694 -0.006895183 -0.036435444 0.05994699 -0.044664282
00000000: f3eb 8bbc 886e 843d 1124 08bd 9da7 0cbd
00000010: 223d 063d 06c4 e4bc e2a7 0a3d 79e7 55bd
00000020: c6cd 5dbd a0da aabb 9ba8 33bb 9a22 053d
00000030: 2b2a 253d a2cf a13c edc5 473c 797e 85bd
00000040: f7b7 4ebd 0e25 fe3c 1bb4 9dbc e194 413d
00000050: d2db 903d c625 9ebd 4ebe 6c3c 9319 29bd
00000060: 4501 9a3b b68a 463b 35db 2bbd c980 c0bd
00000070: 4db4 45bd 3276 10bc ac4d 533d f621 d1bc
00000080: 56bb 1c3d b8f8 253d 8a0e 74bd a779 3aba
00000090: 5f59 64bc d970 14bd 4c50 d63c bd29 153d
000000a0: 6bf9 8abc 5ba9 b13b a32b 93bc 3486 a83c
000000b0: 3e18 ebbc a684 c6bc d7ee 3a3d 2931 18bd
000000c0: ea40 e43c f0a8 6cbc 57bd 54bd 131a c13c
000000d0: 6fe2 393c 3e23 f3bc 65be 463d b8cb ebbc
000000e0: 93a6 3a3d dc5b 48bc 32a6 17bd d7aa 70bd
000000f0: c4dd 38bd 76e0 0b3d 9e3c 223d 7a5c e0bb
00000100: 80d1 24bd 8d4f 55bc 1d50 61bd 94ef 8abb
00000110: 0710 1e3c e277 0c3d 64a0 46bd 5125 563c
00000120: b4b9 9d3c af6e 783d 3102 2b3d 7260 2e3d
00000130: 14e1 c6ba 0654 d93b ce6e fbbc 2e32 a1bd
00000140: aafd 9a3d f1af 323b 48e3 6fbd 3595 2dbd
00000150: b3da 443c 90ea 643c 0b63 a0bd 79d1 503c
00000160: 0423 b4bc ce15 32bd 4704 5d3d 5f19 12bc
00000170: 92b8 df3b 471c 4bbd b0e6 e93b f742 16bd
00000180: 0b33 4d3c 3c82 87bc c0f4 a0bd aa80 36bb
00000190: a843 833d a349 9b3c a6fc f4bc ab1e 19bd
000001a0: 74cc 10bd 962e 56bd d406 86bd 2b69 903d
000001b0: f7ec 2abb b777 8e3d 7a30 0cbc 44a0 02bd
000001c0: cf82 1f3d 6e61 233c ef95 143d ef98 063d
000001d0: 91b5 183d a2f9 023d 3dea bd3a 9e70 4cbd
000001e0: 5e44 c3ba 0f8f 91bc 8800 5c3d d383 2e3d
000001f0: ed6e 4abd fead 82bd d647 50bc 3afb 2bbd
00000200: 11bd 90ba d6be 843d 8f33 90bc 8c6b 3abd
00000210: 05df 6abc 08b2 2b3d 1567 8dbc a9ca 8abd
00000220: e907 1dbd 0d53 26bd 42eb 233b 8c0f 943c
00000230: 208d 80ba ce6b 203c a3c1 56bc d368 5b3d
00000240: 8f6f 36bd 0e71 f1bc a8b9 373d 17b7 71bc
00000250: e3b1 e6bc 0512 b0bc 2014 14bd 9d74 59bd
00000260: 998a 333c a182 753d a217 c6bc 3e62 14bd
00000270: bfc7 18bd 3a69 efbc a2cd 84bc 3970 bb3c
00000280: 541b 493d ffb7 c2bb c5aa 2ebc 60f1 063d
00000290: cfc0 85bb 573b a2bd f626 003d d6a6 e0bc
000002a0: b0be a03d f78e 15bd 3855 c03c d69c 23bd
000002b0: 7926 8b3d efdc 843d 45c8 123d d687 183d
000002c0: da20 5dbd cc18 673c 83f0 8a3d 1a58 a2bd
000002d0: 138b 933d 1e97 5a3d 476c 40bc b6e9 ca3b
000002e0: 966c 4f3d 006a 21ba 88a0 283c b6a0 87bd
000002f0: 815a 85bc 8476 da3b 327f 1abd 0de3 df3b
00000300: 03f2 c8bb 63e8 253d 531a b83d ce04 273d
00000310: 02d0 e73c 5c75 8cbc 9bad c0bc 8ef7 13bd
00000320: e6f2 413d 61ea 513b 770a b0bc 4d11 5fbd
00000330: 444e 0f3b 619c 19bc 0d3d 373d 0462 23bc
00000340: de16 4cbd 963b a7bb 18ed 993b db09 e93c
00000350: 1061 433d 7cf5 27bc 1718 2f3d d99d 8f3d
00000360: 40ee 4ebd 5b63 8bbc 3d12 6bbd 745d 9b3d
00000370: 05f5 1f3d f8ba 43bc cde4 3938 b048 993c
00000380: c97c 49bd 2c1d 7cbd 3cca 8fbc caca 913d
00000390: 62d8 2cbd dfe3 fd3c 90d3 183d 4668 21bd
000003a0: eb33 3cba cf2d 873d a6b4 6e3c cc31 7f3d
000003b0: ea1a 933d 1d83 36bd bfcd e4ba 0fa4 0b3d
000003c0: 847c c43c 02da e7bc d3f9 d73d 08ec 463d
000003d0: 3b9e 62bc db82 2c3d 0e36 153d f19c 40bc
000003e0: ebcf a43d c8d3 d6bc c84c 10bd 0e14 543d
000003f0: fdf0 e1bb 553d 15bd fa8a 753d e5f1 36bd

onnx::MatMul_54 f4 [120, 84]
-0.09816978 -0.006762436 -0.09698085 -0.027428472 0.0062702317 -0.026334642 -0.007216758 -0.0015711347
0.021066913 0.0970971 -0.044113338 -0.017122146 -0.041504595 0.012548265 0.09627267 0.059649043
-0.06038252 0.03689704 0.06468877 0.05459159 0.052227873 -0.03240622 0.06961623 0.0027291502
0.031778358 0.03975195 0.04419836 -0.09215314 0.07815902 0.045037914 0.020841785 0.05170895
0.031834915 0.032337736 0.020986494 -0.025120305 0.09092543 -0.01010702 -0.06794672 -0.07043188
-0.11290085 -0.101858966 -0.08780141 -0.01704235 -0.03431437 -0.07584165 -0.006456989 0.047175597
-0.013461121 0.028331906 -0.048538346 0.043689508 0.10508933 0.01388953 0.062031984 -0.020355232
-0.107814305 0.07960919 0.0068318467 -0.032323588 -0.07562104 0.09031511 0.08952946 0.06689801
-0.056768894 -0.037062045 0.11908637 -0.117761254 0.03186259 0.0047242222 0.0640996 -0.06605663
0.009203613 -0.07715022 0.0060822745 -0.058624204 0.07904315 -0.00399928 -0.012658301 0.07624206
-0.07281119 0.009562873 -0.038188443 0.01753932 0.09605616 -0.03323727 -0.023550354 0.023189783
0.03485586 0.08603539 0.117918946 0.13475125 -0.039563484 -0.008611613 -0.091639765 0.08816617
-0.06945644 -0.013317617 0.07602457 -0.025578046 0.044043515 0.006030251 0.064158715 -0.10731043
0.008960583 -0.003816496 -0.05247083 -0.014410767 0.032859772 -0.11700943 -0.024447814 -0.106610194
-0.013126529 0.04874029 -0.07315254 0.12824197 -0.03115486 0.016248792 -0.0024709066 0.059938904
-0.1194058 -0.016915666 0.014807697 0.033307005 0.05039491 0.018184215 -0.04597179 0.070290536
-0.0036177463 0.04744066 -0.09622128 -0.08014697 0.07000082 0.105078295 0.12209295 0.031102324
0.025955424 0.062059373 -0.062319282 -0.06345406 -0.057768784 -0.010973912 0.0049307346 -0.055053666
0.020590803 -0.058684394 0.046862576 0.018702814 -0.011506758 -0.077669665 -0.006705455 -0.03743544
0.026014822 0.07157399 0.01403887 -0.06904667 -0.031355586 -0.084148295 -0.009618713 0.060341332
-0.05075032 -0.03363307 0.15416333 0.08453837 -0.073150516 -0.05217904 0.05028108 -0.0097897155
-0.028648343 0.020351145 -0.086686775 0.06418215 0.032743685 -0.035005383 -0.022994293 -0.028236393
0.07363828 -0.07590288 -0.06225293 0.015981125 -0.104337975 -0.040991057 -0.1264938 -0.11538053
-0.036954314 0.03756457 -0.13489935 0.15057865 -0.05101398 -0.087114654 -0.08710486 -0.14316975
-0.10413286 0.04790832 -0.0905792 0.0129015185 0.08427675 -0.033414852 0.010912087 0.006621433
-0.051132336 -0.08014753 0.0777159 0.08147394 -0.14268348 0.0736107 0.0023141261 0.030004963
-0.11107021 0.07053585 0.05011383 -0.09116438 -0.0012390779 -0.05585661 0.029784184 0.037848756
-0.0005710665 -0.058582116 0.062204156 -0.00031841476 0.027285142 0.043636627 0.059045594 -0.0589389
-0.10158015 0.00026671222 0.083126545 0.11333231 -0.05150746 -0.07006977 -0.11609928 -0.11621819
-0.11335656 -0.09378519 -0.11680107 0.023720384 -0.07189593 -0.12509435 -0.013008464 -0.08575011
0.15338661 0.028572448 -0.04631415 0.050735462 -0.08025241 -0.06954344 -0.09596646 -0.087902226
0.019992735 -0.067963965 0.035325665 -0.06672475 0.10215796 -0.1215598 -0.050276555 -0.0142234545
00000000: 3d0d c9bd 6d97 ddbb e59d c6bd adb1 e0bc
00000010: 8476 cd3b bfbb d7bc 8e7a ecbb 88ee cdba
00000020: 8594 ac3c d8da c63d 30b0 34bd be43 8cbc
00000030: b900 2abd 3d97 4d3c 9b2a c53d 8e52 743d
00000040: a953 77bd 5a21 173d 8c7b 843d 6e9b 5f3d
00000050: e5ec 553d 62bc 04bd f492 8e3d 8bdb 323b
00000060: 062a 023d f1d2 223d 5709 353d c9ba bcbd
00000070: d611 a03d ad79 383d 64bc aa3c c4cc 533d
00000080: 5465 023d 9374 043d deeb ab3c 19c9 cdbc
00000090: 1d37 ba3d ea97 25bc a627 8bbd 973e 90bd
000000a0: 9038 e7bd 6f9b d0bd 3ad1 b3bd 669c 8bbc
000000b0: 3a8d 0cbd de52 9bbd 2695 d3bb 333b 413d
000000c0: 098c 5cbc 5018 e83c 25d0 46bd c5f3 323d
000000d0: 1339 d73d e990 633c 4015 7e3d 04c0 a6bc
000000e0: bfcd dcbd 250a a33d afdd df3b bd65 04bd
000000f0: 34df 9abd 21f7 b83d 395b b73d d301 893d
00000100: 8086 68bd 5fce 17bd 8ee3 f33d d02c f1bd
00000110: 5982 023d a6cd 9a3b a746 833d b348 87bd
00000120: c0ca 163c ef00 9ebd d14d c73b ef1f 70bd
00000130: 60e1 a13d 640c 83bb c364 4fbc cc24 9c3d
00000140: 081e 95bd 99ad 1c3c 7c6b 1cbd 9fae 8f3c
00000150: 18b9 c43d ce23 08bd acec c0bc 80f8 bd3c
00000160: 05c5 0e3d 5333 b03d 7d7f f13d 3bfc 093e
00000170: 520d 22bd b917 0dbc a1ad bbbd 7790 b43d
00000180: 2e3f 8ebd 2232 5abc c5b2 9b3d 0d89 d1bc
00000190: f966 343d 6999 c53b a565 833d 92c5 dbbd
000001a0: 69cf 123c 2e1e 7abb a7eb 56bd 231b 6cbc
000001b0: f897 063d a4a2 efbd c846 c8bc 7256 dabd
000001c0: a710 57bc e6a3 473d 00d1 95bd dd51 033e
000001d0: 7a38 ffbc 301c 853c efee 21bb 7f82 753d
000001e0: 078b f4bd b992 8abc fc9b 723c ed6c 083d
000001f0: e56a 4e3d 10f7 943c ea4c 3cbd 7cf4 8f3d
00000200: b617 6dbb 2351 423d aa0f c5bd 1824 a4bd
00000210: 975c 8f3d 4a33 d73d de0b fa3d 4dca fe3c
00000220: 78a0 d43c f831 7e3d 8142 7fbd 34f4 81bd
00000230: f69e 6cbd eccb 33bc 0092 a13b f47f 61bd
00000240: 0bae a83c 0c5f 70bd f9f2 3f3d a536 993c
00000250: d786 3cbc 4611 9fbd 6fb9 dbbb e755 19bd
00000260: 091d d53c 6295 923d 4a03 663c 5768 8dbd
00000270: b76e 00bd f155 acbd ce97 1dbc 7928 773d
00000280: 91df 4fbd d4c2 09bd fedc 1d3e 7422 ad3d
00000290: f0cf 95bd b0b9 55bd 89f3 4d3d 0b65 20bc
000002a0: eeaf eabc 72b7 a63c d688 b1bd ee71 833d
000002b0: 3e1e 063d ce61 0fbd 875e bcbc 0250 e7bc
000002c0: abcf 963d f872 9bbd eefc 7ebd d9ea 823c
000002d0: 26af d5bd 3de6 27bd 9787 01be a14c ecbd
000002e0: 685d 17bd 4edd 193d 0e23 0abe 4a31 1a3e
000002f0: 09f4 50bd 2b69 b2bd 0864 b2bd 179b 12be
00000300: 9c43 d5bd 843b 443d 9681 b9bd e460 533c
00000310: 4a99 ac3d 03de 08bd 9cc8 323c 9bf8 d83b
00000320: 2470 51bd 6324 a4bd 8429 9f3d cfdb a63d
00000330: 9e1b 12be 35c1 963d 98a8 173b f8cc f53c
00000340: c778 e3bd 1a75 903d 2944 4d3d 64b4 babd
00000350: 8e68 a2ba e7c9 64bd f6fd f33c 4c07 1b3d
00000360: a0b3 15ba cdf3 6fbd c9c9 7e3d e8f0 a6b9
00000370: 1785 df3c 52bc 323d cbd9 713d ea69 71bd
00000380: 4109 d0bd 82d5 8b39 403e aa3d c51a e83d
00000390: 7df9 52bd bd80 8fbd 76c5 edbd cd03 eebd
000003a0: 7c27 e8bd 7312 c0bd 6635 efbd 4051 c23c
000003b0: 2c3e 93bd bc18 00be 7421 55bc c19d afbd
000003c0: 6111 1d3e c410 ea3c e8b3 3dbd fdcf 4f3d
000003d0: 605b a4bd cb6c 8ebd 108a c4bd 1506 b4bd
000003e0: cec7 a33c b130 8bbd a5b1 103d fca6 88bd
000003f0: 3138 d13d 58f4 f8bd caee 4dbd 7e09 69bc

onnx::MatMul_55 f4 [84, 10]
0.054086108 -0.04327896 -0.007995392 0.10006346 -0.06970907 -0.014682415 -0.0691077 0.21497595
-0.066258885 0.021423088 -0.07666353 -0.013273458 -0.022967983 0.12709299 0.085384846 0.03635738
-0.20958857 -0.0151430825 -0.15306328 0.08266705 0.013322415 -0.014935192 -0.06088661 -0.0017714141
-0.1326675 -0.06763194 0.024022397 0.09562265 -0.007569971 -0.0013391655 0.12028027 0.09004637
-0.13310729 0.14236656 0.17081448 0.07702923 0.09284083 -0.010873982 -0.12927084 -0.045962334
0.0847131 -0.010270777 0.020571416 0.10663467 -0.12610735 0.07222511 0.009608101 -0.10706419
0.044502523 -0.093607396 0.105894506 -0.050009314 0.015077017 -0.039191682 -0.09126808 -0.14394562
0.049262017 0.06094082 0.056225095 0.17969741 -0.020005243 0.041758362 0.1348606 -0.123835534
-0.084397264 -0.060753234 -0.09336135 0.0012582245 -0.08359397 -0.09044663 0.06450371 0.15352263
-0.23739956 0.08902703 -0.03955482 0.012187988 0.085465334 0.114229515 0.089760706 0.03271215
-0.048806887 -0.09139722 -0.026689451 -0.046962928 -0.033996284 -0.014089732 0.081693545 0.050983798
-0.06311456 0.11919424 -0.09635085 0.006989672 0.101777025 -0.011465065 0.204767 0.06536932
-0.3174099 0.12552631 0.14553642 0.066072285 -0.09445775 -0.14934507 0.09360526 -0.0067304587
-0.072192594 0.04060121 -0.21386413 -0.048026513 0.024553217 0.12519458 0.028341707 0.21400493
-0.0025049238 0.10613775 0.01340988 -0.02679283 0.046266995 -0.002735312 0.028456364 -0.03778125
0.006392145 0.08652543 0.11946906 -0.00919375 0.13148335 0.02620159 -0.39743838 -0.043192197
-0.13372189 -0.026229665 0.0039684186 -0.071576215 0.04270777 0.09292056 -0.0025187987 0.025084376
-0.31669378 0.21769796 0.036034435 -0.011419783 -0.0060277157 0.09974643 0.09882816 0.055486668
0.08260191 -0.30967057 -0.19924648 -0.001925623 0.08313483 0.022358354 -0.11886412 0.21799476
-0.015168766 -0.11275496 -0.027725492 -0.18983561 0.05891406 0.0036701793 0.0031137848 0.008533421
0.11965133 0.053779427 -0.06826425 0.00694496 -0.122485824 0.10361611 0.0069054672 0.13896883
-0.006131452 -0.07951833 -0.04034859 0.020639796 -0.015241394 0.04292153 0.0056610117 -0.0033500954
-0.046461143 -0.08052608 -0.07566111 0.04726526 -0.0001197917 -0.10357189 0.035402086 -0.033099208
0.17162827 0.03708829 -0.21752463 0.1102493 0.12071108 0.19628842 -0.13600418 0.19532982
-0.19360852 -0.16950639 -0.112214185 0.25761965 0.31163916 -0.113287225 0.12375371 -0.13126014
0.035862386 -0.03418754 -0.07161524 0.055642877 0.011460971 -0.008510672 -0.05742936 0.037326075
0.06938767 0.105215445 -0.10279543 -0.07211741 0.061365213 -0.026780633 -0.007770802 -0.053878114
-0.065264605 0.11936496 -0.014848768 0.09225865 0.12380951 -0.076397836 0.004276981 0.0052958615
0.29893208 -0.026181325 -0.040792856 -0.14913514 -0.13680965 -0.04707753 0.039970603 -0.08236308
0.14833806 0.06538949 -0.120313376 -0.074876845 -0.05329114 -0.08014541 -0.0039359475 0.13881256
0.079275794 0.17405294 0.021845557 -0.084732905 -0.08891585 -0.0344226 0.00884485 -0.010867939
0.087117255 -0.004108667 -0.12637085 0.19669826 0.036353942 0.04475684 -0.06696186 0.035698496
00000000: 6589 5d3d 4745 31bd 1bff 02bc 12ee cc3d
00000010: a1c3 8ebd 838e 70bc 5688 8dbd a822 5c3e
00000020: bdb2 87bd 797f af3c c501 9dbd eb78 59bc
00000030: 5a27 bcbc aa24 023e 40de ae3d 7aeb 143d
00000040: 639e 56be b11a 78bc 9fbc 1cbe 584d a93d
00000050: 4246 5a3c bcb2 74bc 3d64 79bd cb2e e8ba
00000060: fdd9 07be 9d82 8abd 9eca c43c cfd5 c33d
00000070: 850d f8bb f086 afba 8155 f63d 3b6a b83d
00000080: 474d 08be 8ac8 113e fee9 2e3e 80c1 9d3d
00000090: 5523 be3d c928 32bc 935f 04be 0043 3cbd
000000a0: 107e ad3d c346 28bc 6385 a83c 4763 da3d
000000b0: 4922 01be c2ea 933d 4c6b 1d3c 7844 dbbd
000000c0: 4748 363d 3cb5 bfbd 38df d83d 91d6 4cbd
000000d0: 9805 773c 7587 20bd c2ea babd 7b66 13be
000000e0: f8c6 493d 159d 793d 494c 663d 9902 383e
000000f0: 09e2 a3bc d10a 2b3d e618 0a3e 7c9d fdbd
00000100: 79d8 acbd 62d8 78bd 3c34 bfbd 02eb a43a
00000110: 5133 abbd 153c b9bd 851a 843d 0935 1d3e
00000120: df18 73be ce53 b63d 3c04 22bd 20b0 473c
00000130: 7308 af3d 2af1 e93d 76d4 b73d 2dfd 053d
00000140: bbe9 47bd 772e bbbd d6a3 dabc 335c 40bd
00000150: b03f 0bbd 9fd8 66bc f24e a73d 63d4 503d
00000160: 3542 81bd 1c1c f43d 9853 c5bd 9e09 e53b
00000170: 7970 d03d f8d7 3bbc 71ae 513e 5ae0 853d
00000180: 8d83 a2be f889 003e 8007 153e e850 873d
00000190: 1173 c1bd eaed 18be 1db4 bf3d 2e8b dcbb
000001a0: b6d9 93bd 744d 263d 33ff 5abe 73b7 44bd
000001b0: d423 c93c 0233 003e de2c e83c 1c24 5b3e
000001c0: a629 24bb c05e d93d 1db5 5b3c a37c dbbc
000001d0: 7682 3d3d ec42 33bb 521d e93c 83c0 1abd
000001e0: 3375 d13b 3f34 b13d 32ac f43d 62a1 16bc
000001f0: 92a3 063e b8a4 d63c 0b7d cbbe 4dea 30bd
00000200: 64ee 08be 98df d6bc 8209 823b 8d96 92bd
00000210: 58ee 2e3d 224d be3d 6e12 25bb c07d cd3c
00000220: b025 a2be 37ec 5e3e d898 133d 0b1a 3bbc
00000230: 2584 c5bb db47 cc3d 6b66 ca3d fd45 633d
00000240: 312b a93d 248d 9ebe 4507 4cbe 3065 fcba
00000250: 9842 aa3d de28 b73c 086f f3bd 053a 5f3e
00000260: 6a86 78bc 13ec e6bd 9220 e3bc 4464 42be
00000270: df4f 713d 6487 703b a410 4c3b c3cf 0b3c
00000280: c20b f53d d147 5c3d 21ce 8bbd 8c92 e33b
00000290: d9d9 fabd af34 d43d 4247 e23b d84d 0e3e
000002a0: 59ea c8bb 82da a2bd 9044 25bd ca14 a93c
000002b0: 0ab7 79bc 7cce 2f3d 0280 b93b 468d 5bbb
000002c0: 0a4e 3ebd dcea a4bd 36f4 9abd 3899 413d
000002d0: ae38 fbb8 801d d4bd c701 113d 0993 07bd
000002e0: 52bf 2f3e e4e9 173d c7be 5ebe 63ca e13d
000002f0: 5f37 f73d d5ff 483e ae44 0bbe 8a04 483e
00000300: 5041 46be 1593 2dbe 8dd0 e5bd b9e6 833e
00000310: 2b8f 9f3e 2203 e8bd 9672 fd3d 0f69 06be
00000320: 70e4 123d 3c08 0cbd 03ab 92bd c9e9 633d
00000330: ccc6 3b3c 5870 0bbc 0c3b 6bbd 3ae3 183d
00000340: 1f1b 8e3d 327b d73d 6986 d2bd 4bb2 93bd
00000350: 175a 7b3d 0f63 dbbc 36a2 febb 4caf 5cbd
00000360: 73a9 85bd 9e75 f43d 3f48 73bc 1af2 bc3d
00000370: d78f fd3d 7876 9cbd eb25 8c3b e888 ad3b
00000380: a00d 993e 387a d6bc 6916 27bd e2b6 18be
00000390: d417 0cbe 5ed4 40bd 37b8 233d f9ad a8bd
000003a0: efe5 173e edea 853d dc66 f6bd 0859 99bd
000003b0: cf47 5abd 4723 a4bd 1ff9 80bb e124 0e3e
000003c0: 595b a23d ef3a 323e 74f5 b23c 7288 adbd
000003d0: 8319 b6bd b6fe 0cbd fde9 103c 710f 32bc
000003e0: 886a b23d ffa1 86bb 5c67 01be 456b 493e
000003f0: dfe7 143d f352 373d 4d23 89bd 9638 123d
